Assignment 3/Dataset1a/Dataset2/WithPCA/mlffnn/mlffnn_model_6.pth (torch, 28110 bytes, 6 tensors)

fully_connected_layers.0.weight f4 [60, 60]
0	0x3b84b927	0.004050392
1	0x3e8dfaf0	0.27730513
2	0xbbdc5b3f	-0.0067247446
3	0xbe0c22ca	-0.13685146
4	0x3ddd300b	0.10800179
5	0xbe59857a	-0.21242324
6	0x3e9e944a	0.3097251
7	0xbd139420	-0.036029935
8	0x3d8e79c2	0.06956817
9	0xbd4e7204	-0.050401703
10	0x3dc2fb8e	0.095206365
11	0xbd593d7f	-0.053037163
12	0xbe25dc03	-0.16197209
13	0x3c232c50	0.009959295
14	0x3d543808	0.051811248
15	0x3da5900d	0.08084116
16	0xbdc07103	-0.09396555
17	0x3deb9d77	0.115046434
18	0x3dad2021	0.08453394
19	0x3d6dd299	0.05806217
20	0xbdb2d378	-0.08731741
21	0x3e9c1243	0.30482683
22	0xbd94cce3	-0.072656415
23	0xbe0f3048	-0.13983262
24	0xbdd36ccf	-0.10323488
25	0xbdc9f6a7	-0.09861498
26	0xbdbe948d	-0.093056776
27	0xbd9a404f	-0.07531797
28	0xbd9404f9	-0.07227511
29	0xbd98204f	-0.074280374
30	0xbe0c7311	-0.1371577
31	0xbd6e071b	-0.058112245
32	0x3bea6b12	0.007153877
33	0x3d8f1616	0.069866344
34	0xbc52ba60	-0.012861818
35	0x3dad007d	0.08447359
36	0xbc617338	-0.01376038
37	0x3dfff55d	0.12497971
38	0xbdbc672b	-0.09199365
39	0x3cd9d5be	0.026591178
40	0xbd2e5898	-0.04256496
41	0xbdcef532	-0.10105361
42	0x3bbf8c45	0.005845579
43	0xbba04299	-0.0048907516
44	0xbd8b52a7	-0.06802874
45	0xbe05c815	-0.13064606
46	0x3c19dfef	0.009391769
47	0x3e4316ed	0.19051714
48	0xbc522059	-0.012825095
49	0xbbff5e22	-0.007793204
50	0xbdcc25fb	-0.09968182
51	0xbe08de38	-0.1336602
52	0xbdc97cd4	-0.09838262
53	0x3d4ce8e4	0.05002679
54	0x3e10a16e	0.1412408
55	0xbdddeb81	-0.108359344
56	0x3dae9928	0.08525306
57	0xbe05b7ca	-0.13058391
58	0xbd7f5175	-0.062333543
59	0xba08f924	-0.0005225113
60	0xbdd3b360	-0.103369474
61	0x3eb3a64e	0.35087818
62	0x3e0c8bdf	0.13725232
63	0x3e15467f	0.14577673
64	0xbe043f84	-0.12914854
65	0xbe984029	-0.2973645
66	0xbe3e2a80	-0.185709
67	0x3e072a9e	0.13199851
68	0xbe9384e0	-0.28812313
69	0x3c695769	0.014242032
70	0x3da87b12	0.08226599
71	0xbdcb9b23	-0.09941699
72	0x3e6fb4f5	0.23408873
73	0xbecefa73	-0.40425453
74	0xbe13edcc	-0.14446181
75	0xbeb2beee	-0.34911293
76	0xbbf5b8cf	-0.0074988375
77	0xbd06437b	-0.0327792
78	0xbe4ae922	-0.19815496
79	0xbde44006	-0.11145024
80	0xbc9cb8d2	-0.019131098
81	0xbe47d18e	-0.19513533
82	0xbde38b8f	-0.11110603
83	0x3e7b260c	0.24526232
84	0x3c85537b	0.016275158
85	0xbda8e34f	-0.08246481
86	0xbe3aaddb	-0.18230383
87	0xbde8931a	-0.113561824
88	0xbd14e773	-0.03635354
89	0xbed4e2bf	-0.41579244
90	0xbdbfdbb1	-0.09368075
91	0x3e35d78f	0.1775801
92	0xbed2bf77	-0.411617
93	0x3d5616f4	0.052267984
94	0x3c45f762	0.012082906
95	0xbdb704e2	-0.08936478
96	0x3d9f831f	0.07788681
97	0x3da54a8b	0.080708586
98	0xbdfaac81	-0.12239934
99	0x3dc84db5	0.097804464
100	0xbcbc7cb1	-0.023008676
101	0xbe2a3204	-0.16620642
102	0x3d91e707	0.07124143
103	0xbe20eaeb	-0.15714614
104	0x3d57ecf4	0.05271621
105	0x3d2c3f85	0.042052764
106	0x3d8fb697	0.07017248
107	0xbd181869	-0.037132654
108	0xbbfec42e	-0.0077748513
109	0xbcb948f7	-0.0226178
110	0xbdac68b0	-0.08418405
111	0x3d04a666	0.032385252
112	0xbe0aa718	-0.13540304
113	0x3e454daa	0.19267908
114	0xbe552029	-0.2081305
115	0x3d03d028	0.032180935
116	0xbecf7ab4	-0.40523303
117	0x3e5eceda	0.21758595
118	0xbda707ff	-0.08155822
119	0xbddd760e	-0.10813533
120	0x3ecf0ec0	0.4044094
121	0xbe39d409	-0.18147291
122	0xbd73aed4	-0.0594929
123	0x3dbf3633	0.093365096
124	0x3e06999e	0.13144538
125	0xbc73ec58	-0.014887892
126	0xbe0d6f09	-0.13811888
127	0xbda42d4c	-0.08016452
128	0x3d077371	0.033069078
129	0x3d416263	0.04721297
130	0xbe99ef14	-0.30065215
131	0xbd36ebab	-0.044658344
132	0x3daabc9b	0.08336755
133	0xbe2b753c	-0.1674394
134	0xbdaff1fc	-0.08591077
135	0x3ddd3799	0.1080162
136	0xbea3d124	-0.319955
137	0x3dd9c860	0.106339216
138	0x3c9313d8	0.017953798
139	0x3bef2956	0.007298629
140	0xbe115163	-0.14191203
141	0xbe56359a	-0.20918885
142	0x3d6e84ed	0.058232237
143	0x3dbc22d7	0.09186333
144	0x3d3ed54f	0.046590146
145	0xbdbfadaa	-0.09359296
146	0xbe782efc	-0.24236673
147	0x3e54ddbc	0.2078771
148	0xbdd45dc4	-0.10369447
149	0x3ddf9c92	0.10918535
150	0xbe6bc336	-0.23023686
151	0xbd36054f	-0.044438656
152	0x3b0ad383	0.00211832
153	0x3d78e66f	0.060766634
154	0xbd7c3bcd	-0.061580468
155	0xbbfb90dd	-0.007677181
156	0x3df50c86	0.11965279
157	0x3d2d70cc	0.0423439
158	0xbd218856	-0.03943666
159	0x3db21208	0.086948454
160	0xbba28094	-0.0049591754
161	0x3e415020	0.18878222
162	0x3e7c306b	0.24627845
163	0x3e12f147	0.14349853
164	0x3d2b3621	0.04179967
165	0xbd47f2d1	-0.048815552
166	0xbd0fdae1	-0.03512085
167	0xbd17fe7a	-0.037107922
168	0x3d633337	0.055468764
169	0xbdb39d38	-0.087702215
170	0x3e44aed5	0.19207318
171	0xbde07120	-0.10959077
172	0x3e035c94	0.12828285
173	0xbd80861c	-0.06275579
174	0x3d80efc4	0.06295732
175	0x3db24bb3	0.08705845
176	0x3daf5b80	0.08562374
177	0xbe44c7ea	-0.19216886
178	0xbdc4b0ff	-0.09604072
179	0xbd95831e	-0.07300399
180	0x3e2dc86c	0.16970986
181	0x3c8a8e74	0.01691363
182	0xbde26064	-0.11053541
183	0x3d199627	0.037496712
184	0x3d6d47c1	0.057929758
185	0x3d9d51ed	0.07681642
186	0x3e16991f	0.14706849
187	0x3ce66327	0.028123451
188	0x3d11b8c3	0.035576593
189	0xbd9e8170	-0.07739532
190	0x3de1b342	0.11020519
191	0x3dc9ecdd	0.09859631
192	0xbe007adb	-0.12546866
193	0x3e3542d8	0.1770128
194	0xbcfea83d	-0.031086082
195	0x3e17afa0	0.1481309
196	0x3e12a174	0.14319402
197	0xbc3ce58b	-0.011529337
198	0xbce0ae93	-0.027426993
199	0x3da90fd2	0.082549706
200	0x3db511d4	0.08841291
201	0x3d137950	0.036004364
202	0xbcfcff59	-0.030883478
203	0xbcdd9a1e	-0.027051028
204	0x3e2097e3	0.1568294
205	0x3e73ee44	0.2382136
206	0xbda39580	-0.07987499
207	0x3d6fdff5	0.05856319
208	0x3df4fc46	0.1196218
209	0x3e5613cc	0.2090599
210	0xbc207ea9	-0.009795823
211	0x3e0f1998	0.13974607
212	0x3d6f6b1e	0.058451764
213	0xbe012cd2	-0.12614754
214	0x3cd512bd	0.026009912
215	0xbc3cd27d	-0.011524794
216	0x3da4eadd	0.08052609
217	0x3c8e8311	0.017396482
218	0x3b4a3678	0.003085522
219	0xbcd78af9	-0.026311385
220	0x3e4d5952	0.20053604
221	0xbb8f62a3	-0.004375772
222	0x3ca01899	0.01954298
223	0xbcd65b1f	-0.026166497
224	0xbe0a58ab	-0.13510387
225	0x3d6fe781	0.05857039
226	0x3dda2ce9	0.10653097
227	0xbe147ac8	-0.14499962
228	0x3ca03acf	0.019559292
229	0xbdca405b	-0.09875556
230	0x3dc2dd74	0.09514895
231	0x3d171493	0.036884855
232	0x3e062d62	0.1310325
233	0x3d547ab4	0.05187483
234	0x3d588127	0.052857544
235	0x3bcda9c1	0.0062763398
236	0x3e249474	0.16072255
237	0x3d40d093	0.047073912
238	0xbd11b20a	-0.035570182
239	0x3ca97632	0.020686243
240	0xbe64122d	-0.22272559
241	0x3def7885	0.11692909
242	0x3d9ef738	0.07761997
243	0x3cbce83e	0.02305996
244	0xbce545ae	-0.027987327
245	0xbe19ea9e	-0.15030906
246	0xbd4d73ce	-0.050159268
247	0xbd47d809	-0.04879001
248	0xbe204bb2	-0.15653875
249	0x3dd69893	0.1047832
250	0x3ca9218e	0.020645883
251	0x3e0003c3	0.12501435
252	0x3df8efae	0.1215509
253	0xbdd5c8de	-0.10438703
254	0x3d99935b	0.07498809
255	0xbe2b2aa7	-0.1671549

fully_connected_layers.0.bias f4 [60]
0	0xbd04965a	-0.03236995
1	0x3e3fe099	0.18738021
2	0x3e742613	0.23842649
3	0x3e15f079	0.14642514
4	0x3e80c83c	0.25152767
5	0x3cbbb532	0.02291355
6	0x3e504de8	0.20342219
7	0x3da46179	0.08026404
8	0xbcf57907	-0.029964937
9	0x3b2421b4	0.0025044503
10	0x3db01dd6	0.08599441
11	0x3e25d8e0	0.16196012
12	0x3ea2107b	0.316532
13	0x3e95feb2	0.2929588
14	0x3e398172	0.18115786
15	0xbc0a17ab	-0.008428494
16	0x3e26f9bc	0.16306204
17	0xbdf04664	-0.11732176
18	0x3e065a77	0.13120447
19	0x3e3a8bce	0.18217394
20	0xbc93a6f2	-0.018023942
21	0x3c97c7f5	0.018527964
22	0x3e074d1e	0.13213012
23	0xbc25e28e	-0.010124816
24	0x3d74f726	0.05980601
25	0xbda2b719	-0.07945079
26	0xbd676348	-0.056491166
27	0x3ead509a	0.33850557
28	0x3ead48d5	0.3384463
29	0x3d777e68	0.060423285
30	0x3ec23c8a	0.37936813
31	0xbdf60500	-0.120126724
32	0x3d006f91	0.031356398
33	0x3ef8e85e	0.48614782
34	0x3c29d5a0	0.010365874
35	0x3d3a0888	0.045418292
36	0x3e3e973e	0.18612382
37	0xbdbc63bf	-0.091987126
38	0xbd27101e	-0.040786855
39	0x3e160068	0.14648592
40	0xbd600049	-0.054687772
41	0x3da02002	0.07818605
42	0xbc158c71	-0.009127722
43	0x3bb9be23	0.005668418
44	0x3ccc18e4	0.024914213
45	0xbd0dbdeb	-0.034604948
46	0xbd0801d4	-0.03320487
47	0xbdbdc267	-0.09265595
48	0x3e0f63a5	0.14002855
49	0x3ccfde99	0.025374698
50	0x3e23fa79	0.16013516
51	0x3d15383b	0.03643058
52	0x3e228457	0.15870796
53	0x3d11aa73	0.035562944
54	0x3d86fece	0.06591569
55	0xbbf52c38	-0.007482078
56	0x3d96bdbc	0.07360408
57	0x3e6dcb51	0.2322209
58	0xbde651b3	-0.11246052
59	0xbdd25e70	-0.10271919

fully_connected_layers.2.weight f4 [40, 60]
0	0x3abbc118	0.0014324514
1	0x3eae22c3	0.34010896
2	0x3c8f5571	0.017496796
3	0x3d3c4bb3	0.04597063
4	0x3e244be7	0.1604458
5	0x3db18a7f	0.08668994
6	0xbe1a49d9	-0.15067233
7	0x3e44d775	0.19222815
8	0x3b3f4ef2	0.0029191342
9	0xbca20317	-0.019776864
10	0xbe36c17f	-0.1784725
11	0xbd021ba6	-0.03176465
12	0xbdabd579	-0.08390326
13	0xbdbf1ff3	-0.09332266
14	0xbe24e394	-0.16102439
15	0x3e8cc987	0.27497503
16	0xbe3cc3b1	-0.18434025
17	0x3b9b9bc3	0.004748793
18	0xbcc8aeb6	-0.024497371
19	0xbb28589c	-0.002568758
20	0xbe40d3b7	-0.18830763
21	0xbe38e91f	-0.18057679
22	0xbdf613f9	-0.12015528
23	0xbda422e7	-0.080144696
24	0x3e5a4b26	0.2131773
25	0xbca1417c	-0.019684546
26	0xbdcb842a	-0.09937318
27	0x3e63be9c	0.2224068
28	0x3e1fbdf8	0.15599811
29	0xbc773989	-0.015089401
30	0xbcdd7e9e	-0.027037915
31	0xbd22c04f	-0.03973418
32	0xbe1901b4	-0.14942056
33	0xbe0465fc	-0.12929529
34	0xbe05604a	-0.13025013
35	0x3d766083	0.060150634
36	0xbda172a5	-0.07883195
37	0x3df94a95	0.121724285
38	0xbd8058b5	-0.062669195
39	0x3e02e586	0.12782869
40	0xbb9e25b7	-0.0048262733
41	0x3de08a1d	0.10963843
42	0xbe383fdb	-0.17993109
43	0xbd59e224	-0.05319418
44	0x3c575144	0.013141934
45	0x3d3ca8a8	0.04605928
46	0xbe18bfd8	-0.14916933
47	0x3b197c85	0.0023420167
48	0xbd8e8b9f	-0.06960224
49	0xbe07a913	-0.1324809
50	0xbbf26e60	-0.0073984116
51	0xbddd21ef	-0.10797488
52	0x3e56fb01	0.20994188
53	0xbe2e9246	-0.17047986
54	0x3e2efb12	0.17087963
55	0xbd786aaf	-0.060648616
56	0x3c0a9efa	0.0084607545
57	0x3ce2f5ad	0.027705038
58	0xbd07c3ad	-0.033145595
59	0x3dc3cc19	0.09560413
60	0x3c52620f	0.012840762
61	0xbd5c4de9	-0.05378524
62	0x3d922aeb	0.07137092
63	0x3df1803f	0.11792039
64	0xbdda0211	-0.106449254
65	0xbd0f9f53	-0.035064053
66	0x3e011aaa	0.12607828
67	0xbd8548d7	-0.06508034
68	0xbd49b928	-0.049248844
69	0x3de858f1	0.11345089
70	0x3c256931	0.01009588
71	0xbda65e69	-0.08123476
72	0x3d018996	0.031625353
73	0xbdfc4f8e	-0.12319861
74	0x3e05dd72	0.13072756
75	0xbda8d7e6	-0.08244304
76	0x3db779b5	0.08958761
77	0xbe03b396	-0.12861475
78	0x3d0908bb	0.03345559
79	0xbbe1b7d0	-0.0068883672
80	0x3dc0fa0e	0.09422694
81	0xbd91628f	-0.07098877
82	0x3bc632f7	0.006048556
83	0xbdb875dc	-0.09006855
84	0x3d10c22d	0.03534143
85	0xbd13b587	-0.03606179
86	0x3df0109c	0.11721918
87	0x3d85c192	0.06531061
88	0xbc998588	-0.01874043
89	0xbd91d96f	-0.0712155
90	0x3ca2a071	0.019851895
91	0xbd13bc07	-0.03606799
92	0xbc75ed23	-0.015010151
93	0x3e03c1d4	0.12866908
94	0x3d7818cd	0.060570527
95	0xbdd2d138	-0.102938116
96	0xbd06d3dd	-0.032916892
97	0x3d92aca9	0.071618386
98	0x3dba3590	0.090922475
99	0xbd913c89	-0.07091624
100	0x3cdaa9f8	0.026692376
101	0xbdc652d9	-0.09683771
102	0xbd57582d	-0.052574325
103	0xbdf38bd9	-0.11891908
104	0x3d2c553f	0.042073485
105	0xbd877175	-0.06613437
106	0xbd917419	-0.07102222
107	0x3d37c9ae	0.04487007
108	0xbd757c28	-0.059932858
109	0xbda20eb6	-0.07912962
110	0xbda39a42	-0.07988407
111	0x3d6a1166	0.0571455
112	0xbdea6c2e	-0.11446415
113	0x3a09580c	0.0005239255
114	0x3e0406c0	0.128932
115	0x3d675ce7	0.056485083
116	0x3daf8cb8	0.08571762
117	0xbde71291	-0.11282838
118	0xbb8dcf06	-0.0043276576
119	0x3da612a5	0.08109025
120	0x3de16898	0.11006278
121	0x3cb95a5f	0.0226261
122	0x3daf72ea	0.0856684
123	0xbdb57c38	-0.088615835
124	0x3de31614	0.110881954
125	0xbd410823	-0.0471269
126	0xbd05dcc9	-0.03268126
127	0xbd02e036	-0.031952105
128	0xbdafb993	-0.08580317
129	0x3c0d8b70	0.0086392015
130	0xbb936ba4	-0.0044989157
131	0x3d602f1c	0.054732427
132	0x3c983916	0.018581908
133	0xbdf565db	-0.11982318
134	0xbd2e002e	-0.04248064
135	0xbd885994	-0.06657711
136	0xbb155df7	-0.0022791603
137	0x3d869d1f	0.06572937
138	0xbd64754f	-0.055775937
139	0xbd8abf89	-0.06774814
140	0xbc4f966e	-0.012670143
141	0xbd2dd8ad	-0.042442966
142	0x3d353e9d	0.044249166
143	0xbd983535	-0.074320234
144	0x3dd75c00	0.105155945
145	0xbd087526	-0.033314846
146	0xbd1b3eb7	-0.037901606
147	0xbde06eb7	-0.10958617
148	0xbce8b8a6	-0.02840836
149	0x3c2a4597	0.010392568
150	0x3c54dfd8	0.012992822
151	0x3dec0f44	0.11526349
152	0xbda45ff7	-0.08026116
153	0xbda357fd	-0.07975767
154	0xbd92a6d4	-0.07160726
155	0x3d5841d8	0.05279717
156	0x3c36780d	0.011137021
157	0x3d24959b	0.040181737
158	0xbce2e295	-0.027695933
159	0x3da7d06a	0.08194049
160	0x3c4ad682	0.012380244
161	0x3d40d22c	0.047075436
162	0x3cc7caaf	0.02438864
163	0xbcd89e71	-0.026442738
164	0xbdc0c610	-0.094127774
165	0x3da4df0e	0.08050357
166	0xbd90b213	-0.07065215
167	0xbd24625a	-0.040132858
168	0xbc43f45d	-0.011960116
169	0xbd2ffae1	-0.042963866
170	0x3d7242be	0.05914568
171	0x3d541017	0.051773157
172	0xbd3c4f54	-0.04597409
173	0x3dfcbc07	0.12340551
174	0x3d3c80a9	0.046021137
175	0x3b04d489	0.0020268282
176	0xbd8d205c	-0.06890938
177	0xbdd70a26	-0.104999825
178	0xbdf0a610	-0.11750424
179	0x3d7bb3e8	0.06145087
180	0xbcdbe6cb	-0.02684345
181	0xbdd31b97	-0.10307997
182	0x3da45037	0.08023112
183	0x3d90ed49	0.070765086
184	0x3d50d4d4	0.05098422
185	0xbdb9ea9b	-0.090779506
186	0x3e19032b	0.14942615
187	0x3ce0f209	0.027459161
188	0xbd770723	-0.06030954
189	0xbcc1293c	-0.023579232
190	0x3dd7f75d	0.10545228
191	0x3df65d65	0.12029532
192	0x3df66c11	0.12032331
193	0x3e3c89a4	0.1841188
194	0x3e140a6c	0.144571
195	0xbe83a96d	-0.257152
196	0x3d56fb45	0.052485723
197	0xbda61fc5	-0.08111528
198	0xbe0cf98e	-0.13767073
199	0x3c880c17	0.016607327
200	0x3dd9d7c4	0.10636857
201	0x3dfa1786	0.12211518
202	0x3d82b1d9	0.06381578
203	0xbda47c4a	-0.08031519
204	0xbc9c85d1	-0.019106777
205	0x3c2f2b4c	0.010691475
206	0x3e055c32	0.13023451
207	0x3d503e00	0.050840378
208	0xbd946ea1	-0.07247663
209	0xbe22e57a	-0.15907851
210	0x3cd9fa3d	0.02660858
211	0x3de4d70d	0.1117383
212	0xbc8f292d	-0.017475689
213	0x3d8a2c9b	0.06746789
214	0x3c53639e	0.012902169
215	0x3dd68625	0.10474805
216	0xbd9e6b69	-0.077353306
217	0xbdda83ec	-0.10669693
218	0x3daa26be	0.08308171
219	0x3d0951f2	0.033525415
220	0x3da42ee5	0.08016757
221	0xbdc89c8e	-0.097954854
222	0xbc81df53	-0.01585356
223	0x3c4ee10f	0.0126269
224	0x3d97c5da	0.07410784
225	0x3dc71a0c	0.09721765
226	0x3e719034	0.23590165
227	0xbd8e6e0b	-0.06954583
228	0x3dd84a42	0.105610386
229	0x3dadda5d	0.08488915
230	0xbd0ea780	-0.03482771
231	0x3e20f964	0.15720135
232	0xbdbd58ca	-0.09245451
233	0x3cd4376e	0.025905337
234	0x3d664b75	0.056224305
235	0x3e0c4f2b	0.13702075
236	0x3dc8160f	0.09769832
237	0xbdd0c4df	-0.101938
238	0xbc4ba8bf	-0.012430369
239	0xbdd84de3	-0.10561731
240	0xbd48f18b	-0.04905848
241	0x3e4b8ff2	0.1987913
242	0x3edbea9f	0.4295244
243	0xbcfbba79	-0.030728566
244	0x3d3bfca3	0.04589523
245	0x3d6c3f45	0.057677526
246	0x3d7bae3c	0.06144546
247	0xbe3cdbf4	-0.1844328
248	0xbe52ef35	-0.20599063
249	0x3e777744	0.2416659
250	0xbd8bd52d	-0.068277694
251	0x3ebcaa16	0.36848515
252	0xbd69a4ff	-0.05704212
253	0x3eaa385f	0.33246133
254	0xbd7e608f	-0.062103804
255	0x3ed68771	0.4190021

fully_connected_layers.2.bias f4 [40]
0	0x3d5b71e1	0.0535754
1	0xbdb32c62	-0.087487
2	0xbde485c0	-0.11158323
3	0x3b4d21db	0.0031300697
4	0x3eb1a405	0.3469545
5	0xbdf6cc5b	-0.120506965
6	0x3e8e97b6	0.2785012
7	0xbcd0b148	-0.02547516
8	0x3ecd57dd	0.40106097
9	0x3e7629b3	0.24039344
10	0x3e52fca7	0.20604192
11	0x3eca6b06	0.39534777
12	0x3e176f91	0.14788653
13	0x3c0deb01	0.008661986
14	0xbde27098	-0.11056632
15	0xbddf62ec	-0.1090754
16	0x3ebb89e0	0.36628628
17	0x3ea258b9	0.31708315
18	0x3ec7df23	0.39037427
19	0x3e869f26	0.26293296
20	0x3c3f108c	0.01166166
21	0x3e77c5b4	0.24196512
22	0x3e925533	0.28580627
23	0xbdfb41b9	-0.12268395
24	0x3ed972f3	0.42470512
25	0x3da57683	0.08079245
26	0x3dcfbf3a	0.101438954
27	0x3e805cc7	0.25070783
28	0x3ee915aa	0.4552434
29	0x3c825b44	0.01591266
30	0xbd7d4980	-0.061837673
31	0xbd98228d	-0.07428465
32	0xbdf308cc	-0.11866912
33	0x3dc22ca0	0.09481168
34	0xbd8e385c	-0.069443434
35	0x3e70ddec	0.23522156
36	0x3d944ef3	0.07241621
37	0x3e6c86c3	0.23098283
38	0x3e94be8c	0.29051626
39	0x3efc858a	0.49320632

fully_connected_layers.4.weight f4 [5, 40]
0	0x3c85c29b	0.016328147
1	0xbdd1b3e1	-0.10239387
2	0x3e12f176	0.14349923
3	0x3d91c2c1	0.071172245
4	0xbe7fcf23	-0.2498136
5	0xbe0e8504	-0.13917929
6	0xbdae9f0f	-0.08526432
7	0x3e3fd4ef	0.18733571
8	0x3f3ba95f	0.73305315
9	0x3dd9b069	0.10629351
10	0xbecaec1b	-0.3963326
11	0x3dabada8	0.08382732
12	0xbe479805	-0.19491585
13	0x3f9fec0b	1.249391
14	0x3c5537f1	0.013013826
15	0x3d6dda6f	0.058069643
16	0x3f3d3f88	0.73925066
17	0x3f879471	1.0592176
18	0xbe80ddc5	-0.25169197
19	0x3f4c46ae	0.7979535
20	0x3f077cfc	0.52925086
21	0xbed733e1	-0.42031768
22	0x3f56d5c0	0.83919907
23	0x3c90d4f9	0.017679678
24	0xbf6d082a	-0.9259058
25	0x3d29c884	0.041450992
26	0xbe084be9	-0.13310207
27	0xbf232269	-0.6372438
28	0xbf370efb	-0.71507233
29	0xbd90233f	-0.07037973
30	0x3e24074d	0.1601841
31	0xbe182c32	-0.14860609
32	0x3e124d66	0.14287338
33	0x3f254684	0.64560723
34	0x3efbc8ae	0.49176544
35	0xbe1cc566	-0.15309677
36	0xbdc380fc	-0.09546086
37	0xbd932694	-0.071850926
38	0x3f41a5fa	0.75643885
39	0xbf5c9b5a	-0.8617455
40	0x3e629841	0.22128393
41	0x3e148a47	0.14505874
42	0x3d6726e4	0.056433573
43	0x3de32742	0.11091472
44	0xbf42595d	-0.7591761
45	0x3d87beb2	0.06628169
46	0xbe132c12	-0.1437228
47	0x3ede463f	0.4341297
48	0xbf1b2d27	-0.6061577
49	0xbf8b3cc8	-1.0877924
50	0xbe56e7ef	-0.20986913
51	0x3f1de6c8	0.6168027
52	0x3f89fa30	1.0779476
53	0xbe96ba65	-0.29439083
54	0x3e149882	0.14511302
55	0xbd87e03f	-0.066345684
56	0xbf2759b4	-0.6537125
57	0x3eb17e0f	0.34666488
58	0x3f0a434e	0.5400895
59	0xbdeb2e2b	-0.11483415
60	0x3e137987	0.14401828
61	0xbc1ba192	-0.009498971
62	0x3f1c208d	0.6098717
63	0xbd8bdb4e	-0.068289384
64	0x3eb389a8	0.3506596
65	0x3dd45721	0.10368181
66	0xbf318751	-0.693471
67	0xbe18fd80	-0.14940453
68	0x3fc28958	1.5198164
69	0xbe8daf32	-0.27672726
70	0x3dcb9981	0.09941388
71	0xbadd15d0	-0.0016867463
72	0xbe1fbbd8	-0.15599
73	0xbc5d8777	-0.013521067
74	0x3c91f90e	0.017818954
75	0xbec519b4	-0.38496172
76	0xbeed0f80	-0.46300888
77	0x3e42b80f	0.19015525
78	0xbf56dacb	-0.839276
79	0x3d86b96f	0.065783374
80	0xbf1de7e9	-0.6168199
81	0xbde9ec24	-0.114219934
82	0xbd34c69c	-0.04413472
83	0x3e66178f	0.22469924
84	0xbf3bd2ec	-0.73368716
85	0x3dcc6ff6	0.09982292
86	0xbe83803b	-0.2568377
87	0xbe18adfb	-0.14910118
88	0xbf236158	-0.6382041
89	0xbeec92f1	-0.46205857
90	0x3eea50ea	0.45764858
91	0x3e49c8d4	0.19705516
92	0xbecf7267	-0.4051697
93	0xbe233978	-0.15939891
94	0x3d23cad7	0.039988365
95	0x3dfae880	0.12251377
96	0xbe918dd2	-0.28428513
97	0xbf08f31c	-0.53495955
98	0x3f34826f	0.70511526
99	0xbec5c83e	-0.38629335
100	0x3d28dc9d	0.04122602
101	0x3eb5c1de	0.3549947
102	0xbec31f02	-0.38109595
103	0x3d625085	0.05525257
104	0x3f21c13c	0.6318548
105	0x3e041e5d	0.12902208
106	0xbc49d9c4	-0.012319986
107	0xbebcc306	-0.3686754
108	0xbf63b62d	-0.88949853
109	0x3f207e8c	0.62693095
110	0xbc0db3d3	-0.0086488305
111	0xbcdfe3e3	-0.027330345
112	0x3d0893f6	0.03334423
113	0xbe82c537	-0.25541088
114	0xbcbc387c	-0.022976153
115	0x3f320a36	0.6954683
116	0xbebeda9f	-0.3727617
117	0xbebba4e1	-0.3664923
118	0x3e6f5eb9	0.23375978
119	0x3f72b25a	0.9480339
120	0x3ee4b651	0.44670346
121	0xbca342e1	-0.019929351
122	0x3cd2e8f7	0.025745852
123	0xbee75cfe	-0.45188135
124	0x3e926141	0.28589824
125	0x3e1b5ec6	0.15172872
126	0x3fa9554e	1.3229158
127	0xbe3b49e4	-0.18289906
128	0xbe146084	-0.14489943
129	0x3f3fbed3	0.7490055
130	0xbee60c09	-0.44931057
131	0x3eee5bac	0.46554315
132	0x3e615a6b	0.22007148
133	0xbd8f2264	-0.06988981
134	0xbd99b9f2	-0.075061694
135	0x3d886f8a	0.066618994
136	0xbf335652	-0.7005359
137	0xbf2c7ced	-0.6737812
138	0x3ddee5fb	0.10883709
139	0x3ba1729e	0.0049269935
140	0xbf269ffd	-0.6508787
141	0xbf974b4b	-1.1819853
142	0xbf94b847	-1.1618737
143	0x3d8ce037	0.06878703
144	0x3eaee4ef	0.34159037
145	0xbe9a50f9	-0.30139902
146	0x3e7fa1e3	0.24964099
147	0x3e4f3e0f	0.20238517
148	0x3f306c4a	0.68915236
149	0xbf2cefd7	-0.67553467
150	0x3dec2bc2	0.11531784
151	0xbd5f600a	-0.05453495
152	0xbe1b7c86	-0.1518422
153	0xbdc2e4c2	-0.09516288
154	0xbe4a8592	-0.19777516
155	0x3f1badce	0.6081208
156	0x3f727169	0.947043
157	0xbcc58ee0	-0.02411598
158	0x3d8b29a8	0.06795055
159	0x3d1c5667	0.038168337
160	0xbc9e6efa	-0.019340027
161	0x3d0bd96c	0.034142897
162	0x3dbd98ec	0.09257683
163	0x3e515ce4	0.20445591
164	0x3f9ea662	1.2394526
165	0x3d8f4c4d	0.06996975
166	0xbf75eedc	-0.96067595
167	0xbe816f55	-0.25280252
168	0x3eec172c	0.4611143
169	0x3f1a0209	0.60159355
170	0x3de4d6ad	0.11173759
171	0xbfb4299d	-1.4075199
172	0xbf1ca3cf	-0.6118745
173	0xbe9c0b8f	-0.30477569
174	0x3c9ad112	0.01889852
175	0xbdf31f76	-0.11871235
176	0x3f54f052	0.831792
177	0xbe8cc1de	-0.2749166
178	0xbf5357e2	-0.82555974
179	0xbe37d834	-0.17953569
180	0xbdc8bef4	-0.098020464
181	0x3f9ed30a	1.2408154
182	0x3e3736cb	0.17891996
183	0x3d3312da	0.04371915
184	0xbea11b86	-0.3146631
185	0xbe83415c	-0.25635803
186	0x3f0e3bf8	0.55560255
187	0x3f7deb09	0.9918676
188	0xbf0daa54	-0.55338025
189	0x3f129095	0.57251865
190	0xbe101aab	-0.14072673
191	0xbdec2735	-0.11530916
192	0x3c99a042	0.018753175
193	0xbe0fdc58	-0.14048898
194	0xbe89eeec	-0.26940095
195	0xbf521e19	-0.82077175
196	0xbe6532af	-0.22382616
197	0x3f09e1b9	0.5386005
198	0xbe4b87e1	-0.19876052
199	0xbe9ff1ce	-0.3123917

fully_connected_layers.4.bias f4 [5]
0	0xbe756219	-0.23963203
1	0x3d9e2690	0.07722199
2	0xbdb650eb	-0.08902153
3	0xbd834576	-0.06409733
4	0x3da60a47	0.08107429
