Assignment 3/Dataset1a/Dataset2/WithPCA/mlffnn/mlffnn_model_5.pth (torch, 23694 bytes, 6 tensors)

fully_connected_layers.0.weight f4 [40, 60]
00000000: 39d0 d7bd be19 76bd d314 0cbc 3c10 8f3d
00000010: 4f9f c43c 88f8 a73e 8794 4d3c a855 0b3e
00000020: 35c0 a13d 41f9 40bd fd75 d93c 9717 a63c
00000030: 231b 5c3d f614 163e 24bc 023e dcf8 e6bc
00000040: 9da5 9a3e 8425 eabd 53aa 483e e410 cd3d
00000050: 5fdf 153c 06ed a0bd a52c eabc 90e1 80bd
00000060: 3cc2 043e 61f5 f13d 0e48 143e f8a7 053d
00000070: b29e 703e e622 8c3e 0027 ef3d af9a 753e
00000080: dda4 b4bd d2fb 63bd ca38 a03e 463e 713e
00000090: 153b e23c fb1c 203e 29fe c83c eac1 e9bd
000000a0: 6980 bc3d 21b7 16be bc1c 28bd 3260 9aba
000000b0: d6d7 fabd debd 3e3d 939d 8c3b 12ba 68bd
000000c0: a796 ae3d a8b2 79bc 8f39 203d 9e3b a83d
000000d0: 17af a53d 989f a8bc cad6 113e 7b57 edbd
000000e0: fdbc c33d 5742 1dbc e2e9 273d 59b0 86bc
000000f0: 399e 053a 7900 193d 1bb9 45bd 4cb6 4f3d
00000100: d558 e43d 831f 17bd 1992 40bd d6bd a03d
00000110: 4f01 1f3d 2d2c f9bd 00e8 08bd 1b4c 93bd
00000120: 1466 aabd 3266 48bd 7bc0 883b ae1d 99bd
00000130: 4b7e a9bd 0a27 ce3d 9046 933d c9fd 31bd
00000140: 49bb 5bbc 36b6 65bc b509 8c3d d97e 053d
00000150: 60e8 8dbd 8b24 87bd 6734 fe3d c2a1 a1bd
00000160: 3c73 7e3d a5ff 2fbd b3fd 9a3d c1ca 70bd
00000170: a0c4 f33d a1f0 933c 187a debd bff4 0abc
00000180: 64fe 85bd ee5f a8bd 2405 a0bd 343c 433d
00000190: 3836 e13c 7a63 cbbc 93da 3d3d ce72 50bd
000001a0: fa91 30bc 538f 9e3d f658 9f3d 54f2 ebbd
000001b0: 9ac5 da3c f564 e23d d19f f23d c821 663d
000001c0: a11b 0a3d 29cb 453d 555e 68bc b96a f13c
000001d0: e20f 233d 0591 913d 004c 663c c361 6bbd
000001e0: eec7 e63e ae64 bbbc 2030 e63d e345 153e
000001f0: 437e bfbe 3b62 433d e26a 55be 62e2 5a3c
00000200: dbaa 17be e9ef 26be b8aa 89be 6e12 e23d
00000210: c158 40be 9679 303e cf5b 163e c9f5 f53d
00000220: 8107 10be 847a 423e e64f eebd 53c8 673e
00000230: 25f9 183d e893 2ebe 589a 2e3e db4e 153e
00000240: 4edc ec3e b5c3 863e 049f cabd caef 6f3e
00000250: 4272 0a3e dadc 1a3e e377 69bd 25d9 11bd
00000260: 44e5 67bc d056 c4bd b85d 9c3e 1bc3 9fbd
00000270: 5c7d 033e 8d08 0b3e 9c8a 203d f397 d9bc
00000280: 40c6 5d3e 979a 45bc 07a1 1c3d ddb2 b73d
00000290: aade c0bd 8b5b d5bd e776 caba e4ae 0d3e
000002a0: 9b17 3939 618f c5bc 7001 343d 4e7f a1bc
000002b0: 7d4c 9f3d 35e1 91bd 8af3 863d 01f9 91bd
000002c0: ffc1 71bc c710 90bd 1cbd 843c 33e9 0dbe
000002d0: 4d26 9c3d 1418 f2bd afa7 5bbe d690 20be
000002e0: cf79 e9bd 7c2f cd3d f212 be3d 8fd5 02be
000002f0: 71f7 c2bc 8cb6 d8bc df76 27bd 18e5 d9bb
00000300: 882a 05be 77da d1bd 1c4d 723d d90f 1cbe
00000310: b109 733d 75d5 d23d 3ae6 d0bc 50b2 f13d
00000320: 92ce 40bd 5967 953d e0a9 343c 1826 f83d
00000330: d953 d63d 41bb ec3d 3381 073e e32a 1dbd
00000340: 3873 52bd 0519 25be 7596 fa3d 7098 063e
00000350: 74a1 f8bd 9ec4 84bc 183f aa3d c74c aabd
00000360: 4561 843c 298c a83d 0498 7cbd 7027 f13c
00000370: 1834 fbbd ac97 e5bc 6a5a 123d 69ee b0bc
00000380: 1463 883d 51aa 893d 3404 9ebd a0b8 403d
00000390: d4f1 b8bd 50b1 493c a50f dc3d 11e7 363b
000003a0: 55cf 8fbd d968 05bc 90cf eebd d4ea 713d
000003b0: 8493 6bbd 794b 7c3d 5949 9abd 4a18 9bbc
000003c0: f750 90be 1b56 76bc 1b14 10be 0356 a93d
000003d0: b038 3ebe c5cd 8bbe 5e4b 0f3d 44a0 b83d
000003e0: fa94 65be 339f b03d 0528 fcbd 52a6 143e
000003f0: d17b 093d 2410 703e 26de a9bc a005 db3d
-0.10537762 -0.060083143 -0.008549887 0.06985518 0.024001746 0.32806802 0.012547619 0.13606894
0.07897989 -0.047112707 0.026545519 0.02027492 0.053736817 0.14656433 0.12767082 -0.028194837
0.30204478 -0.11432937 0.19596224 0.10012987 0.009147494 -0.07857709 -0.028585741 -0.06293023
0.1296472 0.118143804 0.14480612 0.03263089 0.23498037 0.27370375 0.116773605 0.23984788
-0.08820508 -0.055660076 0.31293327 0.23558912 0.027616063 0.15636055 0.024535256 -0.11413939
0.0920418 -0.14718296 -0.04104303 -0.0011777936 -0.12248199 0.04656779 0.0042912452 -0.056818075
0.085248284 -0.015240349 0.039117392 0.08214496 0.08090036 -0.020583913 0.14242092 -0.11588951
0.09557531 -0.009598336 0.040994532 -0.016441511 0.00050971244 0.037353966 -0.048272233 0.05071096
0.11149756 -0.036895286 -0.04701433 0.07848708 0.038819607 -0.12166629 -0.033424377 -0.0719225
-0.08320251 -0.048925586 0.004173336 -0.07476364 -0.082760416 0.1006604 0.07191193 -0.04345492
-0.0134113515 -0.014020493 0.06837789 0.032591674 -0.06929088 -0.06598767 0.12412339 -0.07892181
0.062121615 -0.04296841 0.075679205 -0.05878711 0.119027376 0.018059077 -0.10863131 -0.008481204
-0.06542662 -0.08221422 -0.078134805 0.047664836 0.027491674 -0.024827708 0.046351027 -0.050890736
-0.010776991 0.07742181 0.0778064 -0.1152083 0.026705552 0.11054412 0.11846889 0.05618456
0.033717755 0.04828945 -0.014182647 0.029469835 0.03981007 0.071077384 0.014056206 -0.05746628
0.4507441 -0.022875156 0.11239648 0.14577441 -0.37401018 0.0477011 -0.20841554 0.013359638
-0.1481127 -0.16302456 -0.2688806 0.110386714 -0.18783857 0.17233881 0.1468346 0.120097704
-0.14065363 0.18992049 -0.11636333 0.22635011 0.037346978 -0.1704861 0.17051065 0.14580862
0.4626183 0.26321188 -0.09893611 0.23431316 0.13520148 0.1512331 -0.0569991 -0.035607476
-0.014153782 -0.09586871 0.30540252 -0.07800885 0.1284079 0.1357748 0.03919469 -0.026561713
0.21657658 -0.012060783 0.038239505 0.08969662 -0.0941747 -0.10417851 -0.0015446813 0.13836247
0.00017651769 -0.02411622 0.043946683 -0.019714024 0.07778261 -0.07123033 0.0658942 -0.07127572
-0.014755725 -0.0703445 0.016203456 -0.1385849 0.07624493 -0.11820999 -0.21450685 -0.1568025
-0.11400186 0.100188226 0.09280957 -0.12776779 -0.02379963 -0.026454233 -0.04088485 -0.0066496246
-0.13004506 -0.10246747 0.05915557 -0.1524042 0.059335414 0.1029462 -0.025500406 0.118015885
-0.047072 0.072951026 0.0110268295 0.12116641 0.104652114 0.11559153 0.1323288 -0.038370978
-0.051379412 -0.16122825 0.12235729 0.13144088 -0.1214017 -0.016207036 0.083128154 -0.08315425
0.016159663 0.082298584 -0.06166841 0.02943775 -0.122657955 -0.028026424 0.035730757 -0.021598058
0.06659523 0.067219384 -0.077156454 0.047051072 -0.090305 0.012310341 0.107451715 0.0027908722
-0.07021967 -0.008142673 -0.11660683 0.05906184 -0.05751373 0.061595414 -0.07533521 -0.01893248
-0.2818677 -0.015035178 -0.1407017 0.082683586 -0.18576312 -0.27305427 0.034983985 0.09014943
-0.22420111 0.08624115 -0.123123206 0.14516571 0.033565346 0.23443657 -0.020735811 0.10694432

fully_connected_layers.0.bias f4 [40]
00000000: 5713 4e3e f492 dfbd b001 243e b4ee 2dbd
00000010: 30ff 7f3e 54a6 8d3e bc40 853e 82ec e83d
00000020: a292 85bd 49bb 9e3e ad00 553e b2a8 3f3e
00000030: a886 bfbd 1030 033e 3b9a 0a3e 9afc 223e
00000040: 930d 3b3e 7526 b83d 41e6 be3e d2ce 563d
00000050: 194e 4bbd 3e65 dc3e 17be 03bd 8074 3c3e
00000060: 6b48 813c 5626 ad3e 1272 9dbd a214 9f3e
00000070: b61e d6bd 5a8c 14be 34ee 4c3e 1606 c93d
00000080: 9c38 723d 7c6f c23e 1ac5 323e e59d 8e3d
00000090: e636 463e 7ddb 633e e30d cbbd 7dab 6e3e
0.20124565 -0.10916701 0.16016269 -0.042463973 0.2499969 0.2766596 0.2602595 0.11373235
-0.065221086 0.31002262 0.20801039 0.18716696 -0.093518555 0.12811303 0.13535397 0.15916672
0.18266897 0.0899171 0.37285045 0.052443333 -0.049635027 0.43045992 -0.032163706 0.18403816
0.015781602 0.3381831 -0.07687773 0.3107043 -0.104550764 -0.14506665 0.20012742 0.09815614
0.05913602 0.3797568 0.17458001 0.0696371 0.1935688 0.22251697 -0.09914758 0.23307605

fully_connected_layers.2.weight f4 [60, 40]
00000000: 9d31 03bd 4172 1f3e 7be9 15be 8e2e f5bd
00000010: 823c 1bba a9da e6bd d4ed 1e3e ec16 ee3c
00000020: b5a9 53bb 2ec1 06be 2734 543d 557f d1bd
00000030: c489 58bd ba38 093e 6d0f f7ba e02a f4bc
00000040: 8e2d 10be 2a03 a53d 386e caba 32e4 6c3d
00000050: 1c34 aebd a784 01bc 8b28 79bd 6ce9 8e3d
00000060: 5842 b13d e909 2bbd acf9 96bb f1c6 0bbd
00000070: e46a 25bd 3986 0b3b 6567 063b 0ff3 8bbc
00000080: d166 abbd 50d2 0d3e 74c6 7bbd e34e 60bd
00000090: 3cf0 b4bd e968 99bd 10ea 3c3d 6a7c df3c
000000a0: a73a 0fbe 1153 0fbe 8f39 223c 60d4 e93d
000000b0: cef4 cabd d22e d13d 7459 c33d 40ea e5bc
000000c0: c24d 203e ef52 cbbb 0e2a e1bd e150 ddbd
000000d0: 89a1 073e 0e3a cc3c f36c ccbd 8e0c fc3d
000000e0: df47 d9bd 8724 8b3d 61cb 20be 05e9 9f3d
000000f0: b5f3 14be 1a1c 37bc eb08 06be 0d35 143e
00000100: cde8 8a3c 7ce1 a33d 25d3 35bb 8148 49bd
00000110: 8ca9 093e e6a4 123d 11a6 d7bd 9b9c 40bc
00000120: 5404 db3d 5e39 f03c 917b 5ebd 4e6c f43b
00000130: dc2e 643c 8f7c d7bd e7ae 03be 9c22 b0bd
00000140: 9270 453e f3d3 0abe 8820 b63d 4b9b f4bc
00000150: 47b5 9d3d 377a 15be 77ac 20be faed f93d
00000160: 9dc6 af3c 85b3 803e 75e9 a9bd 3dd4 57be
00000170: 16d9 a23d a6e0 b5bd 281a 983c bc90 073e
00000180: f3d1 05be 75a0 f8bc 39bc 353e 6d5f ccbd
00000190: ff5d d53d cfcf 0f3e b400 9d3d 061b 843e
000001a0: a6d7 08bd 0d12 8c3c bdce 0cbe 53b9 ce3b
000001b0: 71ea cb3d fdd7 513d 7799 22be 23ec 093e
000001c0: 7822 0b3e 94f3 303c dd07 acbc 8347 c83d
000001d0: 76d8 8bbc d702 913d 78d2 3b3d 8733 37be
000001e0: b55d a23d 669a 14bd 04e8 7fbd adb4 c03d
000001f0: c8a2 14be 4eed f93d b63f 333d 5271 e03d
00000200: 0c0d 05be 0baa b8bd 28ed 5fbd bb06 e3bd
00000210: 0add 1dbe da31 15bd 7e71 a5bd c662 863d
00000220: 1682 47bd b4d5 b0bd adec ccbd e781 cbbd
00000230: 0b4d 48bc 0b27 3cbd 15d9 8c3b b207 babd
00000240: e684 483d 7781 d3bc 41ba e7bd 5452 ac3d
00000250: 141d b23c 6608 1b3e 5dfc 083e e796 65bd
00000260: 5e6a d7bd 14b5 6b3d 45fc 51bd c29b 4abc
00000270: acf4 e0bd 497c bcbc a64a a13b 8f38 7abd
00000280: 5849 963e aa5b ce3d eac6 923e d1cf 8b3e
00000290: 38e8 6dbe 0b02 7ebe 26fd 3abe c922 40bc
000002a0: 185d 1bbd fb1f 7c3d 28da f6be 6540 bebe
000002b0: 03c8 0c3e 82f8 9b3d b5fc bc3e 3eef 163e
000002c0: 8cf7 773e 5d44 5c3e c8f4 243f 5376 053e
000002d0: b678 fd3d 1836 ecbe 3ba5 fbbd c466 68be
000002e0: 7de7 213f 6962 993e b580 19be 5c21 84be
000002f0: dd97 75bd 4653 f7bd 3a8e 29be 16d4 19be
00000300: 17ee ab3e 3e75 76be 7632 84bc 396b 163d
00000310: 1324 a13e 3425 563e d1a9 3d3d e6cf 1a3e
00000320: 1535 eabd 78e6 bc3b 48ad f4bd ec4c b43d
00000330: 6080 06be d3f2 acbd 813e f0bd 2bfa e8bd
00000340: 1c82 053e cf7f f6bc 40f9 a2bc 00ac d13d
00000350: 3388 893d faa2 483d eebf 4f3c 95ad 153e
00000360: 4134 c43c 9f5a 113d 6ad1 6e3c fbaf 123e
00000370: c958 653d cdf8 44bd 82f0 f5bd 3ebe 8a3d
00000380: 97b7 043e e561 fc3d 4f03 1cbe d103 5cbd
00000390: 6549 0f3e cd20 4d3c 47cb a93c b09f acbc
000003a0: e439 9d3b cbc5 083e 5b3a 553d 28f1 55bd
000003b0: f4a1 1cbd 248c 8abd 1290 633d 0996 12be
000003c0: 6d4c 28be 891a ef3d be75 78be 3c1e 82bd
000003d0: f896 123e e169 a23e 8311 8fbc c708 9bbb
000003e0: 942c 7dbd 3cf4 5d3b 74f6 403e 20e2 9c3e
000003f0: eec5 883d d5bd b2bd d1ca 763e 164d 84bd
-0.032029737 0.15570928 -0.14639847 -0.1197177 -0.0005921797 -0.11272175 0.15520412 0.029063664
-0.0032297198 -0.1315963 0.05180755 -0.10229365 -0.05286576 0.13400546 -0.0018849202 -0.0298056
-0.14079878 0.08057244 -0.0015444225 0.05783481 -0.08506033 -0.007905162 -0.06082968 0.069781154
0.08655232 -0.041757498 -0.0046074 -0.034125272 -0.040385142 0.002128972 0.0020508405 -0.017083673
-0.0836922 0.13849759 -0.061468557 -0.054762732 -0.088348836 -0.07490713 0.046121657 0.027281005
-0.13987218 -0.13996531 0.009901418 0.114174604 -0.09909974 0.102140084 0.09538546 -0.0280658
0.15654662 -0.006204955 -0.109943494 -0.10806442 0.13245215 0.024930026 -0.09981718 0.12307082
-0.106094114 0.067940764 -0.15702583 0.07808117 -0.14546092 -0.0111761335 -0.1308934 0.14473362
0.016956711 0.08001992 -0.002774426 -0.04914141 0.13443583 0.03580179 -0.105297215 -0.011756088
0.10694185 0.02932423 -0.05431706 0.0074592 0.013927188 -0.105218045 -0.12859689 -0.08600351
0.19281223 -0.13557415 0.088929236 -0.029859206 0.077005915 -0.14597403 -0.1569079 0.122035936
0.02145701 0.25136963 -0.082964815 -0.21077056 0.07951562 -0.08880739 0.01856716 0.13238806
-0.1306837 -0.03034995 0.17747582 -0.099791385 0.10418319 0.14044116 0.0766615 0.25801867
-0.033408783 0.017098451 -0.1375074 0.0063087135 0.099568255 0.051231373 -0.15878855 0.13468985
0.13587368 0.010800261 -0.020999843 0.09779265 -0.01707099 0.0708062 0.045855016 -0.1789075
0.079280294 -0.03628006 -0.062477127 0.09409461 -0.14515221 0.122034654 0.04376193 0.10959114
-0.12993258 -0.09016808 -0.05466953 -0.11085268 -0.15416351 -0.036424495 -0.080782875 0.06561808
-0.048708044 -0.08634511 -0.1000608 -0.09936886 -0.0122254 -0.04593567 0.004298339 -0.09083499
0.048954867 -0.02581857 -0.11314822 0.0841414 0.021742381 0.15139922 0.13377519 -0.056052115
-0.10518335 0.057545736 -0.051265974 -0.012366237 -0.109841675 -0.023008483 0.004922229 -0.061089095
0.29352832 0.10076077 0.28667384 0.2730699 -0.23233116 -0.24805467 -0.18260631 -0.011727043
-0.037930578 0.061553936 -0.48213315 -0.37158504 0.13748173 0.076157585 0.3691155 0.14739701
0.24215525 0.21510454 0.64436007 0.13033418 0.123765394 -0.4613502 -0.122873746 -0.22695452
0.6324385 0.29957893 -0.14990504 -0.258067 -0.05995928 -0.1207643 -0.16558161 -0.1502231
0.33580086 -0.24068162 -0.016137343 0.03672335 0.31472835 0.2091263 0.046304528 0.1511837
-0.11435906 0.0057647787 -0.11947113 0.08803734 -0.13134909 -0.084447525 -0.11730672 -0.11375841
0.13037914 -0.03009024 -0.019894242 0.102378845 0.06715431 0.04898355 0.012680037 0.14616998
0.023950698 0.035486814 0.014576295 0.14324944 0.055992875 -0.048088837 -0.12008764 0.06774567
0.12960659 0.123233594 -0.15235637 -0.053714577 0.13992842 0.012520027 0.020726813 -0.021072239
0.004798161 0.13356702 0.052057605 -0.052231938 -0.038240388 -0.06765011 0.055557318 -0.14315046
-0.16435404 0.11674983 -0.24263665 -0.06353423 0.14315403 0.31721404 -0.017464405 -0.004731271
-0.06181009 0.00338675 0.18844014 0.3064127 0.06678377 -0.08727614 0.24100806 -0.064600155

fully_connected_layers.2.bias f4 [60]
00000000: fb58 02bc 05dd b5bd cdad a23d 704c 70bd
00000010: 0032 9d3e cf57 d4bd 91f0 8a3d c5af 3a3e
00000020: 9b6f 1bbe 0070 78bd 6a73 e6bb 924b 513e
00000030: b94b 25be da0f 6b3e 9d69 593e 5a84 cbbd
00000040: 468c 233e 06a7 1bbd 8d6f cc3e bbcc 843e
00000050: d5f9 8b3c 3aa4 c93d dbde 80bc 36ac 08bc
00000060: e9d8 12be 1940 81bd f665 dc3d 22d5 f6bd
00000070: a71c 7ebc 462e 0dbd 4a02 ab3e 6962 c73d
00000080: 778f 4bbc 51c0 533e e328 873e 5202 c53e
00000090: 8889 1bbe abcc e9bd a462 d3bd 0a3c 20be
000000a0: 68fe 763e 6cae d03c b2a2 f0bd 18f4 04be
000000b0: d837 363d 479c 823e 0814 483c a68c 863e
000000c0: 4ddd a6bd f542 10bd be4c 90bc 7fb7 e03d
000000d0: 7e6c a1bd bffa cd3d 2a50 0e3f a786 02be
000000e0: bb51 e73d eadf 423e c083 513e 0799 193d
-0.007955785 -0.08880047 0.07943306 -0.058666646 0.3070221 -0.10368311 0.06784166 0.18231113
-0.15179293 -0.060653687 -0.0070328014 0.20438984 -0.16142167 0.22955266 0.21231695 -0.099373534
0.15971479 -0.038001083 0.39928856 0.25937447 0.017086903 0.09845777 -0.015731266 -0.00834184
-0.14340557 -0.06311054 0.10761635 -0.120523706 -0.015509761 -0.034467958 0.33400184 0.09735567
-0.012424341 0.20678832 0.26398382 0.38478333 -0.15189183 -0.114159904 -0.103215486 -0.15647903
0.24120486 0.025473796 -0.11749782 -0.1298374 0.04448685 0.25509855 0.012211807 0.2627918
-0.081476785 -0.035220105 -0.017614719 0.10972499 -0.07882021 0.10057592 0.5559107 -0.12746678
0.11294886 0.19030729 0.20460415 0.037499454

fully_connected_layers.4.weight f4 [5, 60]
00000000: 7511 923d 6669 c73d 0de3 9e3d deb3 f6bd
00000010: 55c8 a03f 46b2 55bc dbcc bfbe a3fb 5b3d
00000020: d942 023c ee97 413e 8942 f5bd 5f0f 0a3f
00000030: e554 103d 15e0 31bf b07d 37bd d8b7 f4bc
00000040: a2a8 ae3e 3675 d9bd 8f4e 12bf 5610 433f
00000050: 7f58 0d3e ac6c 403e 5903 ddbd 8b0e 713d
00000060: 69ca 5f3d bfea acbd 306d 1d3f f1ed 00be
00000070: 440b 27be 741a 45bc 6646 15bf 08f6 54bf
00000080: 73c6 903e cc96 0ebe b60a bfbe 7b70 c83e
00000090: 4102 e3bc b88e f7bc 3adf 01be cf85 f53d
000000a0: 673d cdbe 97ed 793e 23b9 8f3d d5d2 eabd
000000b0: f003 133e b483 803e 1f05 2bbe cd63 52bd
000000c0: 369d 29be f9a2 1ebd 69ea 84be 664a 2e3e
000000d0: 6061 ecbc 0769 f9be 6373 093f cfaa 2c3d
000000e0: 4551 453f ca47 243e 509e fb3e 6ead 49be
000000f0: 332a 833b 6bee 84bc fffb d5be 6a6f 26bd
00000100: 2c80 62be e632 da3d 5d87 b73e b302 843e
00000110: f4d7 a83d d040 1dbe 85c2 d13d 225f 343e
00000120: 3425 333d 0f19 e4bc bcd5 0cbf 238d dd3d
00000130: b576 a8be ac30 92bc 5bee 67be b33c 53be
00000140: 78d8 71be 635d 1e3f cbda 6f3c a2a9 ecbd
00000150: a302 a93d a84b f7bb 803d b5bc 0ce6 3f3d
00000160: 1658 04be a4df c53d 12f5 4d3e da60 873f
00000170: 54a6 bfbe dda3 823f 3a4f 9abd 2498 abbe
00000180: 44ba c0bd b64a e5bd 2144 893d 44db e8bd
00000190: e92f 1ebf d725 c0be fb19 d73d 5316 a1bd
000001a0: c0a4 6bbd e82e 0fbf a4d0 5d3e 7829 89bd
000001b0: 2831 973c 5997 523d d6de 423f 42d6 823c
000001c0: 0788 b83d 5a5d 1b3f 7cb2 acbe 2959 d8bd
000001d0: 3510 10bf 0359 9fbe 1be7 2e3e 753a c23c
000001e0: 82b6 403d 783f 9abd 061d 403e 457b 91bd
000001f0: df81 81be c0bc 36ba 3422 ad3e bbe5 6a3d
00000200: 1c81 d43d fb84 2dbe 5dad debd 7c05 2fbe
00000210: 6852 1c3d f6c8 b3be b777 4a3e 12a2 c9bd
00000220: 3d2b 403f 876c ee3c 897a ae3e 967e 733c
00000230: 0166 c33e 33ea 9bbd 4960 b73d c3b6 2bbd
00000240: 5920 8e3d b52f 6c3d c3f0 d23c e8c5 2ebd
00000250: ecab e73e 5579 4b3d 3596 0cbf 29f1 0c3f
00000260: 48fc 443f d162 9fbe 31dc 393f 2f67 cabe
00000270: 2266 a03d 4982 f839 de93 643d b6b9 d4bd
00000280: d1b8 4c3e db24 6b3e 29bb 1ebc e9d0 8fbd
00000290: bcf0 0a3f bbe9 903e 64b6 d93e a6e5 9dbe
000002a0: 09ee 823d eb20 923d ee5e 7ebd bbab 223d
000002b0: a4d3 e9bd 7f04 813e 4387 4bbf de3f ed3d
000002c0: b4c8 bdbd 94f7 edbe 22b5 a7be 2482 7b3e
000002d0: d0e5 5c3d b795 27bd a210 263e 3722 58bb
000002e0: 2bd7 63bf 9071 31bb 69ff 64be 9e2d b73e
000002f0: 3fb1 8cbc 55a0 163e fba9 69bd 5766 823e
00000300: eae7 55bd 6ecf 013f b4e1 bdbd 4927 e1bd
00000310: c3c8 36bf b808 553c 0a70 4d3f 9673 b63e
00000320: d852 6dbe 51e9 1bbf 5538 0d3d da3f 74be
00000330: 3fcb 003e 7955 143d f161 f9be 2ed6 c73d
00000340: 1fe2 48be 57fe 79bd 4f1f 623e 832a 0bbf
00000350: 79ab 0fbf 6073 e53e 16b0 f03e 6da4 02bf
00000360: 0e7d 08bd 9a49 ebbd ce76 ebbd 7c8e 6c3b
00000370: f4e8 db3e 1b6d 06bd 499c debd e4b6 86bd
00000380: 4ba4 b5be e307 0dbf 7988 d0bd 0cc0 773f
00000390: 207a fb3d fcdc 4f3c 5bf3 30bf 803d 8bbe
000003a0: dbee 443d 3ecc cb3e 0d44 d3be 461c 673d
000003b0: 1bd4 a3bd 4cf0 3a3f 17cc c43c bd36 013d
000003c0: 9eed 323c dc44 07bc 3991 41bd a008 e53d
000003d0: e992 103e 4e41 ec3d cc33 b4bd 5d83 d8be
000003e0: 19c1 d6bb 1c4f f6bc 8abc 4cbb 6b26 1cbf
000003f0: 2fae 493d 0775 0a3f e353 d63e 1c28 7fbd
0.07132236 0.097369 0.0775815 -0.12046026 1.2561136 -0.013042992 -0.3746098 0.053706776
0.007950508 0.18905613 -0.11975581 0.53929704 0.03523721 -0.6948255 -0.0447976 -0.02987282
0.34113032 -0.10618059 -0.5715112 0.761968 0.1380329 0.18791455 -0.10791654 0.05885176
0.054636393 -0.08443212 0.6149473 -0.12590767 -0.16312891 -0.012030233 -0.58310544 -0.83187914
0.28276405 -0.13924712 -0.3731286 0.39148316 -0.027711036 -0.03021942 -0.1268281 0.119884126
-0.4008591 0.2440704 0.07017734 -0.11465994 0.14356971 0.25100482 -0.16701172 -0.05136471
-0.16563877 -0.03872964 -0.2596009 0.17020568 -0.028855026 -0.48712942 0.5369169 0.042155083
0.7707713 0.1604301 0.4914422 -0.19695064 0.0040028333 -0.016226968 -0.4179382 -0.040633596
-0.22119206 0.10654239 0.3584546 0.2578331 0.08244315 -0.15356755 0.1024218 0.17614415
0.04373665 -0.02784398 -0.5501363 0.10817935 -0.32903066 -0.017845474 -0.22649519 -0.20628624
-0.23617733 0.61861247 0.014639567 -0.115557924 0.08252456 -0.0075468607 -0.022124052 0.04685025
-0.12924227 0.09661797 0.20113018 1.0576432 -0.37431586 1.0206257 -0.075346425 -0.33514512
-0.09410527 -0.111958906 0.06702448 -0.113699466 -0.61791855 -0.3752887 0.10503002 -0.07865586
-0.057530165 -0.5593095 0.21661621 -0.06697363 0.018456057 0.051413868 0.7612127 0.015971307
0.0901032 0.6068932 -0.33729923 -0.10563881 -0.5627473 -0.31122598 0.17080347 0.023709515
0.047049053 -0.07531637 0.18761072 -0.0710359 -0.25294396 -0.0006970875 0.33815157 0.057347994
0.10376188 -0.1694526 -0.1087291 -0.17091936 0.038164526 -0.3511426 0.1977223 -0.098453656
0.75065976 0.029104484 0.34077862 0.014861723 0.3816376 -0.07613029 0.08953912 -0.041922342
0.069397636 0.057662684 0.02574957 -0.042669207 0.45248353 0.049676258 -0.549167 0.5505548
0.7694745 -0.31130078 0.7260161 -0.39531848 0.0783198 0.00047399316 0.05580508 -0.10386984
0.19992377 0.22963278 -0.009688177 -0.07022268 0.5427358 0.28303322 0.42521966 -0.3083927
0.06393058 0.07135185 -0.06210225 0.039714556 -0.1141732 0.25198743 -0.7950327 0.11584447
-0.09266797 -0.4647795 -0.3275538 0.24561363 0.053930104 -0.040914264 0.16217282 -0.0032979378
-0.89000195 -0.0027075745 -0.22363056 0.3577699 -0.017174361 0.147096 -0.05704687 0.25468704
-0.052223124 0.5070714 -0.09271565 -0.10993821 -0.7140009 0.013002567 0.80249083 0.3563506
-0.23176134 -0.6090289 0.03447755 -0.23852482 0.12577532 0.036214326 -0.48707536 0.097576484
-0.19617508 -0.061033573 0.22082256 -0.5436174 -0.5612102 0.44814587 0.47009343 -0.51032144
-0.033322386 -0.11488648 -0.114972696 0.003609567 0.42951167 -0.032818895 -0.10869653 -0.06577852
-0.35476908 -0.5509016 -0.1018228 0.96777415 0.12279153 0.012686964 -0.6912133 -0.27195358
0.048079353 0.39804262 -0.41262856 0.056423448 -0.0799944 0.73022914 0.024023099 0.031546343
0.01092091 -0.008256163 -0.047257636 0.11183286 0.14118542 0.115358934 -0.08798942 -0.42287722
-0.0065537808 -0.03006702 -0.0031240308 -0.6099612 0.04923838 0.5408482 0.41860875 -0.06229411

fully_connected_layers.4.bias f4 [5]
00000000: 6606 9e3d 64a4 5c3c 1665 cbbe 5ec4 113e
00000010: 0839 b53e
0.07716064 0.013466928 -0.3972556 0.14235064 0.35395074
