Assignment 3/Dataset1a/Dataset2/WithPCA/mlffnn/mlffnn_model_1.pth (torch, 20494 bytes, 6 tensors)

fully_connected_layers.0.weight f4 [40, 40]
000000 df 30 9a bc dc 04 99 3d 24 1d 9b bc bf 21 24 bd
       -0.018822132 0.0747163 -0.018934794 -0.040071245
000010 90 70 cc 3d 6e da d9 3c 30 ad bb bd 66 1f 28 3e
       0.09982407 0.026593413 -0.09163892 0.16418228
000020 9c c4 14 3d 6b 16 b9 bd 54 95 98 bd 90 eb 26 3d
       0.036320314 -0.09037479 -0.07450357 0.040751994
000030 0f ed d7 bd 76 88 2c be 43 75 61 bc e5 44 a7 ba
       -0.10543262 -0.1684893 -0.0137608675 -0.0012761621
000040 96 39 c2 3d 0c fc 16 3e a7 ac fe bc ef fa 65 bc
       0.0948364 0.14744586 -0.031088186 -0.014036878
000050 40 33 1c be 29 82 5e 3d f4 d5 20 3e 93 7d 96 bd
       -0.15253925 0.05432335 0.15706617 -0.0734817
000060 d1 43 f7 3d 17 8a f9 3d 09 5a e6 bd 34 c6 fb 3d
       0.12073482 0.12184542 -0.112476416 0.122936636
000070 69 93 1a be f1 01 f1 bc 0d 13 f5 3d c9 76 05 be
       -0.15095295 -0.029419871 0.11966524 -0.13033594
000080 cb 1d 05 be e8 ea f6 bd c7 42 53 3d 73 36 fb 3d
       -0.12999646 -0.120565236 0.051577356 0.12266245
000090 56 60 c5 bd 04 cd 31 3d 0a 88 00 be 0c 26 32 be
       -0.09637515 0.04340841 -0.12551895 -0.17397326
0000a0 ca bd 85 3e a7 0f ff bc f9 49 89 be ec ae 52 3e
       0.2612136 -0.031135393 -0.2681425 0.2057454
0000b0 7d 07 d3 be b8 66 a1 3d 3f 31 3c be b6 d7 b3 3c
       -0.4121665 0.0788092 -0.18378161 0.021953445
0000c0 8e cc 8d be b2 35 57 be 38 2c 36 be 2c 0c 39 3d
       -0.27695125 -0.21016577 -0.17790306 0.045177624
0000d0 1d bd 24 be 7a 4f a7 3e 40 d6 b5 3c 0c 2c 16 3e
       -0.16087766 0.32677823 0.022196889 0.1466524
0000e0 39 17 2e be 51 0b 07 3e 94 e8 92 3d 54 57 12 3e
       -0.17001046 0.1318791 0.07173267 0.14291126
0000f0 1a 1f 86 bd e1 c1 0c be f2 f5 2b 3d c5 28 d2 3b
       -0.06548901 -0.13745834 0.0419826 0.0064135515
000100 91 ef 9e 3e b2 71 96 3e c8 65 58 3a 6c 70 68 3d
       0.3104215 0.29383618 0.00082549127 0.05674784
000110 6a 7a 36 3e 1f 89 e1 3d be 63 49 bb 25 a1 b0 3b
       0.17820135 0.11012482 -0.0030729617 0.0053903037
000120 f9 e7 4a 3d c3 e4 ab bc 1e c8 39 3e dd 86 cc 3d
       0.049537633 -0.020983106 0.18142745 0.09986661
000130 60 36 87 3e 7c 0b 21 3e bc 95 b3 3d 76 e9 22 bc
       0.26408672 0.15727037 0.08768794 -0.009943357
000140 c2 52 83 3d 59 5d 10 be e0 68 f5 bc e4 db ea 3d
       0.06412269 -0.1409811 -0.029957235 0.11467722
000150 f7 41 dd bc 73 6a 3e 3d e0 6f c6 bd 7c 4c bb bd
       -0.027008994 0.046488237 -0.09689307 -0.091454476
000160 ac 9d b0 bd 99 d8 10 3e 94 2c 0d 3e c9 35 96 3d
       -0.086238235 0.14145125 0.13786536 0.073344775
000170 6f b7 09 3e 6f 35 a8 3c dc d9 15 be 61 b0 1b 3d
       0.1344888 0.020533292 -0.14633888 0.038010005
000180 66 3e 90 3d 0f 54 0f 3e 90 53 c1 bd 7f 12 92 bd
       0.070431516 0.1399691 -0.094397664 -0.07132434
000190 93 e8 a8 bd a3 4f 8c 3d 94 b3 d1 bd 6e bf c9 bd
       -0.08247485 0.06851127 -0.1023933 -0.098509654
0001a0 2b 07 f5 3d 5b 62 11 3e 50 99 9a bd 32 c8 6c bc
       0.11964258 0.14197676 -0.07548773 -0.014452027
0001b0 6f c6 98 bd 77 24 1c 3e f5 43 df 3d 2d 3f 06 bd
       -0.07459723 0.15248285 0.10901634 -0.032775093
0001c0 8f 6f b3 bc e1 4c fb 3d 2c 08 f4 3d f0 ef 9d 3d
       -0.021903781 0.12270523 0.11915621 0.0771178
0001d0 73 42 1d 3e e3 f5 aa bd 1e 3e e4 3d 02 d3 62 bd
       0.1535738 -0.083476804 0.111446604 -0.055377014
0001e0 34 46 1b 3e 7f e3 17 3b e4 92 5f 3e f4 00 1a be
       0.15163499 0.002317637 0.21833378 -0.15039426
0001f0 b6 79 78 be 28 64 34 be a3 10 0b bd 66 7f 00 3c
       -0.24265179 -0.17616332 -0.033951413 0.007842874
000200 f9 0b 96 bd e8 0c cb bd 00 9c aa 3d eb 0c a9 bc
       -0.07326502 -0.09914571 0.08330536 -0.020636043
000210 9b d0 41 3c e0 e6 4f 3d 55 9a 06 3e e1 8d 8a 3e
       0.011829521 0.05075729 0.1314481 0.2706137
000220 6e e7 12 be 48 2f c4 3d 22 9d 1a be c5 7e c0 bc
       -0.14346096 0.09579331 -0.15099004 -0.023497948
000230 6c 4a 4d ba 06 29 86 3d cc aa 3a 3e 7b 5c 42 bd
       -0.0007831219 0.06550793 0.18229216 -0.047451477
000240 33 09 ef bd 9b 5c 55 3d 94 4b 6c bd 76 a9 2a 3e
       -0.116716765 0.05209027 -0.057689264 0.16666207
000250 08 7a 27 bd 5b e1 12 be f8 1a e2 bd a5 9f 0a be
       -0.040887862 -0.14343779 -0.110403 -0.13537462
000260 f4 30 68 bd 15 cc 44 3d 50 94 4a be e6 74 50 3e
       -0.05668731 0.04804619 -0.19783139 0.20357093
000270 52 77 91 bd 5a ad da bd c4 ac 3a bd ea c3 14 be
       -0.07102837 -0.106775954 -0.04557492 -0.1452786
000280 e2 b3 bc 3d 00 5a c6 bd 3c 6c b5 3d 19 24 f6 3d
       0.092139974 -0.09685135 0.08858535 0.12018604
000290 07 20 ea bc 6d 17 f2 3d ba 84 ce 3d 0f 2a 16 3d
       -0.028579725 0.11820874 0.10083909 0.036661204
0002a0 e6 8c 5f 3c 24 d9 d4 bd 85 c3 05 3e 69 29 04 be
       0.013644433 -0.10392979 0.13062866 -0.12906422
0002b0 24 91 2b be 4c 2b da bd e4 94 a9 bd a3 d7 59 bd
       -0.16754586 -0.106527895 -0.08280352 -0.053184163
0002c0 62 4e 18 be 56 7b b6 bc 11 54 87 bc 8f 03 46 bc
       -0.1487365 -0.022275608 -0.016519578 -0.012085809
0002d0 dd 4a 01 be 24 21 f6 3b 91 a7 3d bd bc 1e 06 be
       -0.12626214 0.007511275 -0.046302382 -0.13097662
0002e0 cc 32 f6 bd 39 7b dc bc 0b 66 ee 3d e0 07 d0 bd
       -0.120214075 -0.026914226 0.11640557 -0.10157752
0002f0 85 d5 83 3d 1a 49 c4 bb 14 db 29 bd 01 b5 ea bd
       0.0643721 -0.0059901597 -0.041468695 -0.11460305
000300 29 b3 a6 3d 62 5c 49 bd 17 e4 7a 3d 5a ba d8 bb
       0.08139641 -0.04916037 0.06125268 -0.0066140117
000310 a7 9a e8 bd 05 42 98 3d 02 28 08 3e f7 db 17 be
       -0.113576226 0.07434467 0.13296512 -0.14830004
000320 e9 33 b8 3e 0f b0 e3 bd 74 ba fa bd 25 87 c7 3b
       0.35977104 -0.11117565 -0.12242594 0.0060891085
000330 9e a9 be 3b cd 21 34 bd 94 dd b9 bd 2a 3c 2b be
       0.00581856 -0.043977547 -0.09075466 -0.1672217
000340 a8 06 18 be 3f a6 b7 3d 4c eb 92 be a3 db a1 bd
       -0.14846289 0.08967256 -0.28695142 -0.079032205
000350 a6 6e fa bd db 0a 3f ba a9 cc 06 3c 68 01 1f 3e
       -0.12228136 -0.00072876894 0.008227506 0.1552788
000360 04 f3 99 be 04 b0 f7 3c d2 43 3f 3d 34 ca 30 3d
       -0.3006822 0.030235298 0.046695538 0.043161586
000370 c8 a1 32 be b0 8b fb bc a7 df 47 3e 67 56 85 3e
       -0.17444527 -0.030706257 0.1951891 0.26042482
000380 56 1b c8 bc 4a 12 b3 bd a2 6d cd 3d 17 c0 57 3e
       -0.024427097 -0.08743723 0.100306764 0.2106937
000390 1e f7 33 bb 9e 98 9a 3b 13 0f 87 bc d6 fe a3 be
       -0.0027460526 0.0047179004 -0.01648668 -0.32030362
0003a0 d3 dd e2 3d ed 36 58 bb 56 f4 96 be cc f6 80 3e
       0.11077466 -0.0032991723 -0.2948329 0.2518829
0003b0 25 e9 8a bd 31 18 59 bd 9b f7 43 3d 97 cc c8 3d
       -0.0678275 -0.053001586 0.047843557 0.098046474
0003c0 6f 3f 32 3e a2 b8 00 3f 6f fd cd bd 72 27 81 3e
       0.1740701 0.5028173 -0.10058104 0.25225407
0003d0 fb 4e d6 be 55 47 fe 3e 9d e7 a9 bd ef e7 1f 3f
       -0.41857132 0.49663797 -0.0829613 0.6246328
0003e0 39 55 ce 3e 7a 34 49 3d cf dd e4 3d 67 7f 77 3d
       0.40299395 0.04912231 0.11175119 0.060424235
0003f0 7d 7c 78 3e 58 49 0c bf 83 4f f2 3e f3 44 b7 be
       0.24266239 -0.54799414 0.47326288 -0.35794792

fully_connected_layers.0.bias f4 [40]
000000 94 0e 99 bd 07 dc 8c 3e 32 02 0e be 38 d8 06 3d
       -0.07473484 0.27511618 -0.13868025 0.032921046
000010 94 34 0f be e3 ab 31 3e bd f5 33 3d 7c 78 52 3e
       -0.139849 0.17350726 0.043935526 0.20553774
000020 84 a6 a1 3e d8 2a bf 3e e6 e1 9d bd d0 49 03 3e
       0.31572354 0.37337375 -0.07709102 0.12821126
000030 e3 ab ea 3d 45 50 66 bd 07 17 fa 3e f1 61 1e be
       0.11458566 -0.056228895 0.48845693 -0.15467049
000040 03 29 c6 3b 07 c0 79 3d c6 e0 4f 3d 72 e1 8f bc
       0.0060473694 0.060974147 0.05075147 -0.017563555
000050 0a 42 30 3e 33 81 3e 3d 82 87 af 3e 24 35 a4 bd
       0.17212692 0.046509933 0.34283072 -0.08017948
000060 08 3b d5 ba 98 a5 9a bd 71 6c 1d be cd 98 44 bc
       -0.0016268203 -0.07551116 -0.15373398 -0.011999321
000070 08 13 c4 3d ca f8 d0 bd 31 0f a4 3e cc 3d 61 3e
       0.095739424 -0.10203703 0.3204284 0.2199623
000080 dd 99 68 3e 54 3f 74 3d 31 36 68 3e 34 52 49 3d
       0.22714944 0.059630707 0.22676922 0.04915066
000090 19 af 1d be 3a 90 98 3d 18 55 8b 3e 56 bb 8c 3e
       -0.15398826 0.07449384 0.2721336 0.27486676

fully_connected_layers.2.weight f4 [60, 40]
000000 37 4e 9b bb ed e7 8c bc 3d 42 0e 3e 1a f6 4c 3c
       -0.0047395485 -0.017200435 0.13892455 0.012509847
000010 01 74 97 3d ec 77 1c be fd 8a e1 3e 1f 20 91 3d
       0.07395173 -0.15280122 0.44051352 0.07086205
000020 4d d9 e2 3d 0b 71 3d 3e 24 a3 05 3e f2 fd 88 3d
       0.11076603 0.18500154 0.13050514 0.06689061
000030 06 f3 4b be b1 d7 fa 3d 77 18 7e be 5f 56 1b be
       -0.19916925 0.12248171 -0.2481402 -0.15169667
000040 bd 04 1a bb d3 6b 10 bd 8f 68 23 be d9 b5 03 be
       -0.002350136 -0.03525908 -0.15957855 -0.12862338
000050 2b da bd bd 14 9b e9 3c c7 9b 08 be d4 b7 98 bc
       -0.09270128 0.02851633 -0.13340674 -0.018642344
000060 f7 88 cf 3e 56 64 63 3e 1a 7d cd 3d e7 56 03 3e
       0.40534183 0.22206244 0.10033627 0.1282612
000070 3c d2 d0 bc b5 88 94 bd 46 74 0d 3d f8 6f f5 bd
       -0.025490873 -0.07252637 0.034534715 -0.11984247
000080 d2 7e 6f 3e f6 b4 85 bc 01 1e 1f 3e 50 73 0c be
       0.23388222 -0.01632164 0.1553879 -0.13715863
000090 22 15 79 3d 97 b5 1b 3d f3 e7 3f be c2 78 5c be
       0.06081117 0.038014974 -0.18740825 -0.2153044
0000a0 75 18 aa bd d5 14 05 be ab 30 1a 3e 7e 38 6e bd
       -0.08305446 -0.12996228 0.15057628 -0.058159344
0000b0 d6 00 69 3d ff 23 1c 3e 8f 78 2a bd 60 24 e5 3b
       0.056885563 0.15248106 -0.04161888 0.0069928616
0000c0 26 ef 09 be 05 18 cd 3c ad 24 4a 3d 81 c9 d1 bd
       -0.13470134 0.025035867 0.049351383 -0.10243512
0000d0 eb ea 1c 3e f0 1e e1 bd cd b2 b6 3d 84 10 d8 bd
       0.15323989 -0.10992229 0.08920822 -0.10550025
0000e0 1a ba f4 3d 46 47 c5 bd 3b fb 0a 3d d1 bc 0e be
       0.119495586 -0.09632735 0.033931 -0.13939215
0000f0 9d e3 fd bc 11 b2 b2 bd 8e 08 18 3d 39 f4 17 3e
       -0.030992324 -0.0872537 0.037117533 0.14839257
000100 31 24 89 3d a7 28 7e bc 41 b9 d5 3d 81 c5 62 bd
       0.06696356 -0.015512622 0.10435725 -0.055364136
000110 44 1e e1 3c 3a ce 43 bd 3f e2 8f 3d 5e 4e de 3d
       0.027480252 -0.047804095 0.07025575 0.10854791
000120 de 33 92 3d 23 4b b6 3d 74 7f df bd 16 a8 cd bd
       0.07138799 0.0890105 -0.10912982 -0.100418255
000130 e3 37 b4 bd 96 d0 0d be bb 91 89 3d f8 4b f2 bd
       -0.08799722 -0.138491 0.06717249 -0.11830896
000140 36 89 20 3e c8 b5 14 3e 7a 18 9f bc 85 fe 4a 3d
       0.15677342 0.14522469 -0.019420851 0.049559135
000150 af f7 b4 bc 49 ab de bd 82 c4 43 bd f2 9d 0c 3d
       -0.022090761 -0.10872514 -0.047794826 0.034330316
000160 14 b3 47 bd 40 3f f4 3d a6 d5 1a 3d 47 5a c8 3d
       -0.048754767 0.119261265 0.037801407 0.09782844
000170 50 0b a4 3d 62 df d4 3d 7d 92 09 be 34 c5 04 be
       0.0800997 0.103941694 -0.13434787 -0.12965852
000180 b8 e3 20 bb 18 2e c8 3c aa c5 c6 3d f2 86 00 3c
       -0.0024549793 0.024436042 0.0970567 0.0078446735
000190 22 dd 8c bd ff 01 5b bc 90 87 01 3d 63 09 87 3b
       -0.06878115 -0.013367175 0.031623423 0.004120992
0001a0 d7 5d eb bd da 11 ca bd c6 b0 c8 bc 46 1d 68 bd
       -0.11492508 -0.09866686 -0.024498355 -0.056668542
0001b0 15 64 0e be 43 cc 37 3d 07 50 15 be f4 e9 10 be
       -0.13905366 0.044872534 -0.1458131 -0.14151746
0001c0 f3 aa 1e 3e f7 d8 88 bd 2a ea d7 3c 8e 2d b1 3d
       0.154949 -0.06682008 0.026356775 0.08651267
0001d0 12 62 4e 3c af 4a 88 3d 78 8f 15 be ad d4 23 3d
       0.012596624 0.0665487 -0.1460551 0.039997745
0001e0 ec fd 15 3e c3 7d 3a bd 97 b3 06 be 30 9a cd 3d
       0.14647645 -0.045530092 -0.13154446 0.100391746
0001f0 3a 99 e2 bd 29 7b a2 3d ad b5 8d bd 25 e7 45 bd
       -0.11064382 0.07933647 -0.069194175 -0.04831614
000200 a0 05 ee bd 2e 7f 09 3e 02 6f f6 3d 4b 13 b6 bd
       -0.11622167 0.13427421 0.12032892 -0.088903986
000210 f0 6e 91 bc 7a 36 3f bd bf 0f 29 bd 91 ec 13 3e
       -0.017753094 -0.046682812 -0.041274782 0.14445712
000220 2e ee 02 3e 26 95 7e bd 83 e2 08 3e 85 6a d1 3d
       0.12786171 -0.062153958 0.13367657 0.10225395
000230 53 60 2e bd ef d6 04 3e 11 22 ea 3d c7 b6 72 3d
       -0.04257233 0.12972616 0.11432279 0.05925634
000240 2e 8f da bd e2 d2 6a bc 40 0c 01 3e 6e 24 0f 3e
       -0.106718406 -0.014332505 0.12602329 0.1397874
000250 c0 66 17 bd 69 6d 1a 3e 08 ab 4e bd 50 f9 83 3d
       -0.036963224 0.15080799 -0.050456077 0.06444037
000260 0e 6b 81 3d f9 16 74 3c 70 e0 2d 3c 52 d2 ea bd
       0.06319247 0.014898055 0.010612592 -0.11465897
000270 a3 ea 3a 3b d6 3d df 3d c5 88 11 be da bc d1 3c
       0.0028521202 0.10900466 -0.1421233 0.025602747
000280 85 2d 30 3e 95 5a bd bd 1e de c6 bc 7a c2 16 3e
       0.17204864 -0.09245793 -0.024275836 0.14722624
000290 0b 08 d3 bc ed 17 92 3d 4c f3 4b be fc 7a a9 3e
       -0.025760671 0.0713347 -0.19917029 0.33101642
0002a0 9a ad e3 bc ba 44 2f be a1 c6 09 3d 1f a1 92 3d
       -0.02779274 -0.17116061 0.033636693 0.07159638
0002b0 e8 ea 74 3e 4f 3b 0f 3e 4e a5 b0 3c 92 37 ae 3d
       0.23917735 0.13987468 0.021563198 0.08506693
0002c0 a6 95 67 3e 7a 16 99 3e 6e 92 87 be 38 b5 c5 bd
       0.2261568 0.2989996 -0.26478904 -0.09653705
0002d0 aa 1b 52 3e 63 d5 46 3e cf d3 2a 3c b6 37 0c 3d
       0.20518366 0.19417338 0.010426476 0.034232818
0002e0 43 2c f3 3d 3f 35 1e 3e dd f3 b8 3d 5d 86 b4 3d
       0.11873677 0.1545 0.09030888 0.0881469
0002f0 b7 0f 28 be 7c 3f c2 3d 65 69 33 3e da dd 18 be
       -0.16412245 0.09484765 0.17520674 -0.1492838
000300 3f e9 8e 3b be 42 82 3b 14 ec b1 3c 54 90 95 3e
       0.004361301 0.0039752414 0.021719016 0.29211676
000310 cf 9d cd 3c 25 46 1e be 38 c4 d6 3c 68 ca 50 3e
       0.025099663 -0.15456446 0.026216611 0.20389712
000320 ec 7a f1 bd dd 5b 2f 3d ef b4 19 bc 78 9f 6c 3d
       -0.117910236 0.042812217 -0.009381517 0.05776927
000330 2a 4b fb bc 5e 9c 62 ba e2 d6 3f 3d 28 9a 0c bd
       -0.03067549 -0.00086445163 0.046835788 -0.034326702
000340 41 ee d0 bd f6 7f b9 3c 14 54 08 3e 8c 22 7c bc
       -0.10201693 0.022644024 0.13313323 -0.015389096
000350 36 b3 fc bd 0d d1 0d be 3b f6 e9 3d 9a 1e e4 3d
       -0.12338869 -0.13849278 0.11423918 0.11138649
000360 72 a3 37 bd 28 57 75 3d ba 21 19 bc ad e3 fd bc
       -0.044833608 0.05989757 -0.00934642 -0.030992353
000370 38 00 40 3b d4 7e 87 bd 33 55 e7 3d fc 98 c4 3d
       0.0029297005 -0.066159874 0.11295547 0.09599492
000380 c9 77 5a 3d a0 60 b7 bd 56 29 19 be 19 d5 f3 bd
       0.053336892 -0.08953977 -0.14957175 -0.119058795
000390 81 43 cf bc 3a a9 bd 3d d3 1f 0b 3d d1 26 9c bd
       -0.025300743 0.09260793 0.033965897 -0.07624591
0003a0 09 ed 83 bc ac a4 b0 bd 34 c7 9f 3c 7a d5 62 3d
       -0.016104238 -0.08625159 0.019504167 0.05537937
0003b0 c1 50 05 be ef be 12 be 40 76 b7 3d ad f1 f5 bd
       -0.13019086 -0.14330648 0.08958101 -0.120089866
0003c0 51 0c 00 3e 03 93 83 3c 1a 7a 0e 3e 9f 93 e9 3d
       0.12504698 0.016061312 0.13913766 0.114051096
0003d0 d3 4d 46 bd 47 15 fe 3d 7f 9c da bd 07 35 26 bc
       -0.048414063 0.12406402 -0.106743805 -0.010144479
0003e0 26 8f 45 3d 46 b1 21 be 50 b2 bc bd 9c 21 08 3e
       0.04823222 -0.1579028 -0.09213698 0.13294071
0003f0 93 40 c8 3c 8b 52 d7 3d 5c 47 a1 bd ba 8b ce bd
       0.024444854 0.10513791 -0.07874939 -0.100852445

fully_connected_layers.2.bias f4 [60]
000000 a6 70 49 3e e9 f1 97 bd 76 46 06 be d8 9c f1 bd
       0.19671878 -0.074191876 -0.13112816 -0.11797494
000010 94 7e 08 3e 28 31 fe bd 72 ec 70 bc 63 8e 7f 3e
       0.13329536 -0.124117196 -0.01470481 0.2495666
000020 0f 21 ad bd d0 ed 81 bd 3d 23 87 bd ce 43 f7 bd
       -0.08453571 -0.06344187 -0.06598518 -0.120734796
000030 7d 20 66 bd 3d d3 40 3e 4a e1 e1 bd 1e 9e ad bd
       -0.056183327 0.18830581 -0.110292986 -0.08477424
000040 05 d0 44 3e d2 4b 95 bd 30 9b cc 3e 61 4e 28 3d
       0.19219978 -0.07289852 0.3996215 0.041090373
000050 79 89 fb bd 59 c7 a0 bd ef ab 0d be f5 44 95 3e
       -0.1228208 -0.078505225 -0.13835119 0.29154173
000060 0a 0e 47 bd 94 0e 4e be 9a 23 aa bd c6 e1 66 3d
       -0.048597373 -0.20122749 -0.08307572 0.056367658
000070 86 d4 3a 3e 70 96 73 3e 7e cc 11 bd 41 58 4a bd
       0.18245134 0.23787856 -0.03559541 -0.04940057
000080 f8 38 df bd 1a c2 56 3e 3f 5f 32 3e 06 4d b5 bd
       -0.10899538 0.20972481 0.17419146 -0.08852582
000090 9f 68 14 3e 3b 34 1f be 5d a6 7f 3e e8 15 36 3e
       0.14493035 -0.15547268 0.24965806 0.17781794
0000a0 06 45 ee bd ca bb 29 3e e6 33 69 3e f8 47 70 3e
       -0.11634259 0.16575542 0.22773704 0.23464954
0000b0 77 25 81 3e 46 b1 8f 3c 7a 2e 68 3e d6 7a fc bd
       0.25223896 0.017540585 0.2267398 -0.123281166
0000c0 35 bb 3d 3e 6c 12 5e 3e ad 23 35 bc fd a1 9e 3e
       0.18528445 0.21686715 -0.011055869 0.30982962
0000d0 c4 ef 12 be d2 a1 bf 3e 3d 61 75 3e f1 4a fa 3d
       -0.14349276 0.37428147 0.23962875 0.12221325
0000e0 07 51 d7 3d e2 99 06 be d9 26 90 3e 1a 53 86 3b
       0.105135016 -0.13144639 0.28154638 0.004099262

fully_connected_layers.4.weight f4 [5, 60]
000000 84 04 34 3f 48 41 86 3a fa a4 cd 3c 73 25 5e 3d
       0.7031939 0.0010242844 0.025103081 0.054234933
000010 b7 74 5e 3e 3d 84 ab 3c aa 1f 58 3c 4d 5f 3a bf
       0.2172421 0.02093708 0.013191143 -0.7280167
000020 cf 6e 7c 3d 3e a2 4a bd 58 4a 82 bd e3 53 49 3d
       0.061629113 -0.049471132 -0.06361836 0.049152266
000030 74 4b e8 3d 0d c2 2a 3e 1d e4 9b 3d d0 e3 72 bd
       0.113425165 0.16675587 0.076118685 -0.05929929
000040 ed 6d 42 3f 86 e3 0d be bf c5 37 3f 69 38 cd 3d
       0.75948983 -0.13856325 0.7178611 0.10020525
000050 a6 88 01 be b7 4c 06 3d 82 e9 29 bd 66 6d ce 3b
       -0.12649783 0.032788005 -0.041482456 0.0062996624
000060 c5 26 8c be d8 bf 8e 3b 9c c4 8f bd 87 dc 8e 3e
       -0.2737333 0.0043563657 -0.07019922 0.27902624
000070 5b 97 74 be ec c2 0d 3f c8 c9 c9 3d 7c fd 29 3c
       -0.23885863 0.5537555 0.0985294 0.010375377
000080 26 bc fd bd 99 49 93 3c 13 4d 1b 3f 89 c0 ae 3d
       -0.12389402 0.01797943 0.6066448 0.08532817
000090 d3 38 94 bb f5 42 81 bd ac cd 92 be 7f 59 3b 3f
       -0.0045233755 -0.06311599 -0.2867254 0.73183435
0000a0 73 a4 d6 3d d5 7b 74 3f c5 ea 4c be 15 c0 fd 3d
       0.10480585 0.9550145 -0.20011432 0.12390152
0000b0 be 64 71 3f 78 ae 02 3e 21 66 f3 3c 96 91 3c bd
       0.94294345 0.12761867 0.029711785 -0.04603728
0000c0 d5 1d 2c be 2e 7b 30 bf 8b cc ec bd 04 16 13 bf
       -0.16808255 -0.6893796 -0.11562451 -0.5745547
0000d0 d0 b0 e3 bd ba 19 91 bf 4c 53 27 bf 00 1a fd 3d
       -0.11117709 -1.1335976 -0.65361476 0.12358475
0000e0 06 55 a6 be 9f 27 60 bd 4d 9c 1d bf 84 38 67 3e
       -0.32486743 -0.054725286 -0.6156662 0.22580153
0000f0 c3 d7 a2 be c4 c8 b4 bd 17 8a 2a bd 24 f0 b7 3c
       -0.31805238 -0.088273555 -0.0416356 0.022453375
000100 7b 64 bb 3e 63 db ae bd 26 95 a2 3d 16 31 43 3f
       0.36600098 -0.085379384 0.07938604 0.76246774
000110 1e f5 55 3d 55 3f 55 3d 81 79 f7 3d f8 ec c2 3c
       0.052235715 0.05206235 0.12083722 0.023794636
000120 0e 3e af 3d 65 c1 5f bf 44 97 f8 bd 0e da 68 3d
       0.08556758 -0.8740447 -0.12138227 0.05684858
000130 fc 7c bb 3c 49 0d 8e bd c1 48 5c bf 6c 7b 3d bf
       0.022886746 -0.06936128 -0.86048514 -0.7401645
000140 0f a4 0b 3e 0c a7 19 3d f6 b7 15 bd 03 f3 2c be
       0.13636802 0.037512824 -0.036552392 -0.16889577
000150 85 18 42 be 64 13 fb 3d fa 0f 29 bc d2 85 cf be
       -0.18954666 0.12259558 -0.0103187505 -0.40531784
000160 3b e1 58 be 8f 67 fc bd 5a c8 bf 3d 2a a1 29 3d
       -0.21179669 -0.1232444 0.09364386 0.041413464
000170 c6 1c d5 bd 06 fa a1 be 3b df 17 bf 42 54 f2 bd
       -0.10405879 -0.31636065 -0.59325 -0.11832477
000180 90 e6 1a 3e db 12 03 3d 4f b3 6d 3d 2e 52 92 3d
       0.15127015 0.032000404 0.05803233 0.07144581
000190 f4 9b 35 bd 8e 20 91 3d b8 b5 07 3f 98 c5 8b 3e
       -0.04433818 0.070862874 0.53011656 0.2729919
0001a0 42 0e e4 bd 68 97 4b be 55 99 4d be f8 15 e3 bd
       -0.11135532 -0.19881976 -0.20078023 -0.110881746
0001b0 24 dd 4e be a7 70 54 3f c9 cb 4e bc 80 93 15 3f
       -0.20201546 0.82984394 -0.012621828 0.5842819
0001c0 4b 52 89 3d 12 95 20 bf ce 91 47 3f c8 7e 90 3e
       0.06705149 -0.62727463 0.77956855 0.28221726
0001d0 41 85 29 3e 08 51 e4 bd 2a 7d 88 3e fe 4d 11 3e
       0.16554739 -0.11148268 0.26657993 0.14189908
0001e0 44 73 81 be f2 60 a5 3b 26 e0 03 3d 61 b1 b1 3d
       -0.25283253 0.005046957 0.032196186 0.086764105
0001f0 10 c8 10 3e 99 48 43 3d ba 17 e3 3d a0 40 35 3e
       0.14138818 0.047676656 0.1108851 0.17700434
000200 d6 ac 0b bd 93 7a 8b 3e ea 00 81 3d 14 8e 36 3d
       -0.034100376 0.27241954 0.062990025 0.04456909
000210 37 78 09 3e 9d c7 9b 3e 31 83 8b 3d e0 28 0e bc
       0.13424765 0.3042573 0.06812132 -0.008676738
000220 f2 b9 9d bc 47 24 c1 3d ec d7 29 be ae 93 e6 3e
       -0.019253705 0.094307475 -0.16586274 0.45034546
000230 80 e1 f7 bd ed 63 85 bd 44 93 ed 3b 47 b4 00 bf
       -0.121035576 -0.065132 0.0072502214 -0.5027508
000240 3d 0d 83 3d fa 5a 83 3c ac 21 b7 bd ac 81 c5 b8
       0.063990094 0.016034592 -0.08941969 -9.417845e-05
000250 52 96 1b 3e 83 42 a7 be 2a a5 8f 3d 8e b6 6b bc
       0.15194061 -0.32667932 0.070139244 -0.014386786
000260 99 9d db bc bb f8 c1 3e ed da ba be b7 de 83 bd
       -0.026808547 0.3788508 -0.36495152 -0.06438964
000270 3b e0 b5 be c1 d9 41 bd 77 f3 e1 be 5f 20 31 be
       -0.35522637 -0.047326807 -0.4413106 -0.17297505
000280 c7 aa 91 bd f6 68 dc be 54 cc 62 3f 5d a6 ed be
       -0.07112651 -0.4304883 0.8859303 -0.46415988
000290 c4 ef 54 bf 44 00 9a 3d f7 55 92 3f ff 86 d2 bd
       -0.83178353 0.07519582 1.1432484 -0.10279655
0002a0 77 74 9d be ab f8 f5 3e e2 eb aa 3d d5 ce 3f bf
       -0.30752918 0.4804128 0.08345772 -0.74924976
0002b0 00 b6 c3 3d 39 33 b1 3e 9f 84 05 be 42 37 8d be
       0.09556198 0.34609392 -0.13038872 -0.2758122
0002c0 16 14 3d 3d 95 fb ce 3d 47 22 e5 3d 8b 78 83 3e
       0.046161734 0.10106579 0.111881785 0.25677904
0002d0 db 1a 96 3d fe e8 4a bd 0a 7c cf bd 6f 55 ee 3d
       0.07329341 -0.049538605 -0.101310804 0.11637389
0002e0 c2 fe 25 bf 49 7a d0 3c af c1 4e bc 24 53 50 3e
       -0.64841855 0.025448935 -0.01261942 0.20344216
0002f0 0f 3a 03 be 0d 17 2a be e8 e4 d3 3d bc d2 95 3c
       -0.12815116 -0.16610356 0.10346395 0.018288963
000300 ba 87 33 be b5 85 73 3e 21 87 9f bd 20 d2 bc 3c
       -0.17532244 0.23781474 -0.07789446 0.023049414
000310 3c 16 9a bf 01 97 fc 3d 6f 6d 3b bf 03 66 05 be
       -1.2038035 0.12333489 -0.7321386 -0.13027196
000320 09 9a ad 3d 56 2c c7 bc e4 b8 08 3d 99 22 87 3c
       0.084766455 -0.024313133 0.03337945 0.01649599
000330 7a ad 1a 3d d4 77 30 bd ca 4f 0f 3d 4b 34 ac 3e
       0.037763096 -0.043083027 0.034988202 0.33633646
000340 20 1c 4b 3f 1d 7d d1 be 8a 88 e0 bd d0 05 d6 3d
       0.7933979 -0.40915766 -0.10963543 0.104503274
000350 ce 93 bd bd 04 b8 4d bc 06 c8 55 3e 42 0d b0 3c
       -0.09256707 -0.01255608 0.20877084 0.021490697
000360 26 d4 d6 3e 0a c5 f0 3d 74 3d 59 3f 04 90 9e bd
       0.4195873 0.11756332 0.84859395 -0.077423126
000370 a8 ff f4 bd 87 11 2f 3e 1f 97 47 bf 82 00 84 3f
       -0.11962825 0.1709653 -0.7796497 1.0312655
000380 0b de 5a 3e 19 4a 22 bd a8 41 a7 be 75 72 d4 3d
       0.21373765 -0.039621446 -0.3266728 0.103733934
000390 68 ab ad 3d af 8b 27 3e 23 59 b9 3d 79 cf 0c bd
       0.08479959 0.16361879 0.090502046 -0.03437755
0003a0 9f ca 39 bd 4d fc 73 3f 0e df d2 bb ce dd d8 3d
       -0.04535925 0.95306855 -0.0064352816 0.10589181
0003b0 e4 75 97 be cb 4b cf 3c 27 b7 95 3e 67 9b 20 bf
       -0.2958213 0.025304696 0.29241297 -0.62737125
0003c0 1f 92 07 be c8 87 83 3b de 7b 7d 3d 03 0b 8e bd
       -0.13239335 0.004013989 0.061885707 -0.06935694
0003d0 51 7c 03 bd ef d6 1d 3d 73 da 28 bd 33 e1 11 bf
       -0.03210098 0.038535055 -0.041223954 -0.5698425
0003e0 59 5b 18 bd 88 f9 0d 3d f2 99 ce 3c 8a 17 e2 bc
       -0.03719649 0.0346618 0.025219891 -0.027599115
0003f0 7e fd 0d 3d 62 c7 12 3e 0c 60 ea bd 84 08 82 bc
       0.034665577 0.14333871 -0.11444101 -0.015873201

fully_connected_layers.4.bias f4 [5]
000000 8e 48 82 bd e8 4c 27 3e 59 75 53 be 7f 77 41 3e
       -0.06361495 0.16337931 -0.20650233 0.1889324
000010 1a f6 e0 3d
       0.1098444
