Assignment 3/Dataset1a/Dataset1b/mlffnn/mlffnn_model_2.pth (torch, 3022 bytes, 5 tensors)

fully_connected_layers.0.weight f4 [1, 2]
0	0x3d4642df	0.048403617
1	0xbf2df124	-0.67946076

fully_connected_layers.2.weight f4 [4, 1]
0	0xbd4939c0	-0.04912734
1	0xbf76be71	-0.9638434
2	0xbdf9aa60	-0.121906996
3	0x3f3810ec	0.7190082

fully_connected_layers.2.bias f4 [4]
0	0xbeaa9b3c	-0.3332156
1	0xb826f485	-3.980521e-05
2	0xbeb81508	-0.35953546
3	0xbeaebf0e	-0.34130138

fully_connected_layers.4.weight f4 [2, 4]
0	0xbd8e6f10	-0.06954777
1	0x3ee0cad4	0.43904746
2	0x3dc44c90	0.09584916
3	0x3d17d203	0.037065517
4	0x3e95c496	0.29251546
5	0xbee93d4e	-0.45554584
6	0x3e95fac2	0.29292876
7	0xbf4b2f7f	-0.7936935

fully_connected_layers.4.bias f4 [2]
0	0xbf347c5b	-0.7050225
1	0x3ea76f50	0.32702112
