Assignment 3/Dataset1a/Dataset1b/mlffnn/mlffnn_model_3.pth (torch, 3022 bytes, 5 tensors)

fully_connected_layers.0.weight f4 [1, 2]
0.03770912 0.1161471
00000000: e174 1a3d 88de ed3d

fully_connected_layers.2.weight f4 [6, 1]
0.090045094 -0.4364692 -0.35039055 -0.88241374 -0.12834907 -0.4687245
00000000: 9069 b83d e478 dfbe 6466 b3be dee5 61bf
00000010: f06d 03be a8fc efbe

fully_connected_layers.2.bias f4 [6]
-0.24986196 -0.63162196 -0.057106256 -0.73590505 -0.66571903 -0.049001813
00000000: d0db 7fbe fab1 21bf 40e8 69bd 4664 3cbf
00000010: 906c 2abf 20b6 48bd

fully_connected_layers.4.weight f4 [2, 6]
-0.20539573 0.15167525 -0.21618539 0.22433355 -0.087458186 0.05996688 -0.27155563 -0.23812768
0.16909774 0.3539352 0.28039432 0.007777131
00000000: 4253 52be c250 1b3e b45f 5dbe b2b7 653e
00000010: 471d b3bd d59f 753d 5709 8bbe bed7 73be
00000020: f527 2d3e ff36 b53e d88f 8f3e 4ed7 fe3b

fully_connected_layers.4.bias f4 [2]
-0.0015887037 0.042705446
00000000: 0d3c d0ba e8eb 2e3d
