Assignment 3/Dataset1a/Dataset1b/mlffnn/mlffnn_model_9.pth (torch, 3022 bytes, 6 tensors)

fully_connected_layers.0.weight f4 [4, 2]
000000 94 58 07 3d b1 e0 9e 3e b7 27 a2 bd 9f a6 c7 3e
       0.03304346 0.310308 -0.07917731 0.3899431
000010 87 53 5a 3d 63 9a 0a 3f 9d 07 95 3c e2 df 2d bf
       0.053302314 0.54141825 0.018192107 -0.67919743

fully_connected_layers.0.bias f4 [4]
000000 17 35 1c 3e da 15 a9 be a7 6a ba 3e 78 bd 2c bf
       0.15254627 -0.33024484 0.36409494 -0.67476606

fully_connected_layers.2.weight f4 [2, 4]
000000 9b 14 17 be 2e 29 f8 3e 67 b9 90 3e cc 1b 2e bc
       -0.14753954 0.48468918 0.2826645 -0.0106267445
000010 5b 9a 80 be f5 ae 99 bd d3 ea 2e be 09 42 07 3f
       -0.25117764 -0.075040735 -0.17081766 0.52835137

fully_connected_layers.2.bias f4 [2]
000000 09 5a 09 3e e2 93 e4 be
       0.13413252 -0.44644076

fully_connected_layers.4.weight f4 [2, 2]
000000 85 99 42 bf e0 93 59 3f c3 8e cb bd a8 01 16 bd
       -0.760155 0.84991264 -0.09939339 -0.036622673

fully_connected_layers.4.bias f4 [2]
000000 e9 25 ac 3e 27 98 a1 3e
       0.33622673 0.31561396
