Assignment 3/Dataset1a/Dataset1b/mlffnn/mlffnn_model_15.pth (torch, 3160 bytes, 6 tensors)

fully_connected_layers.0.weight f4 [6, 2]
00000000: d254 8dbe d9c8 53bf f065 d43e 38d2 0f3f
00000010: 63cc 00be 2f30 afbe e30a 0cbf 509c c8be
00000020: 41b5 0f3f d6b0 943d b0fb 003f 83fc 92bd
-0.27603775 -0.82728344 0.41484022 0.56180143 -0.12577967 -0.3421645 -0.5470411 -0.39181757
0.56135947 0.07260291 0.50384045 -0.07177069

fully_connected_layers.0.bias f4 [6]
00000000: 31a4 c73d 9dd9 383f 6380 dd3d 9da4 f03d
00000010: 0466 20be b29e ed3e
0.09748114 0.7220705 0.108155034 0.117501475 -0.15663916 0.46410137

fully_connected_layers.2.weight f4 [6, 6]
00000000: c53b 9fbe 8d10 c3bd 1f9a 7bbe 7fd8 af3e
00000010: 6633 84be aff0 353e 40ad b3be f439 a53e
00000020: e43b 6bbe 9c05 183c adc0 4cbb 3c0b 3dbe
00000030: fcc2 1abe b36c a2be 1bb6 a03e 1a2a 91be
00000040: 54e3 683e a7ca 833e c0cc 783e 05f9 2dbe
00000050: becc e53e 0077 2d3d 1b57 783e 63f1 eabc
00000060: 9bb5 26be 0cde 8d3e e98a c7be 481f 8ebe
00000070: e62f 4f3e 803e 1cbe 00eb b7be 380a a0be
00000080: 3cfd 4a3d 3c03 933d bc8a 9c3e 3f57 823e
-0.31100288 -0.09524641 -0.24570511 0.3434486 -0.25820464 0.17767595 -0.35093117 0.32270777
-0.22972065 0.009278681 -0.0031242773 -0.18461317 -0.15113443 -0.31723556 0.31388935 -0.28352433
0.22742969 0.2574055 0.24296856 -0.16989525 0.44882768 0.042349815 0.24251978 -0.028679555
-0.16280214 0.2770847 -0.38973168 -0.2775824 0.20233116 -0.15258217 -0.35921478 -0.31257796
0.04955791 0.07178351 0.30574596 0.25457188

fully_connected_layers.2.bias f4 [6]
00000000: a1ca f03d ae59 03be ae6a ca3d 3275 51be
00000010: 0f64 2a3e 7557 dabe
0.117573984 -0.12827179 0.09883629 -0.20454863 0.16639732 -0.4264485

fully_connected_layers.4.weight f4 [2, 6]
00000000: d3f4 5fbe 711b 3bbd 46da c4bd fc2e ef3e
00000010: 8135 d5be dea2 0a3f 5f70 ce3e 8fa5 a53e
00000020: 11cc 4cbe af81 8dbe cdec 11be 01a9 9abd
-0.21870737 -0.045680467 -0.09611945 0.46715534 -0.41642383 0.54154766 0.40320107 0.32352874
-0.1999972 -0.27638003 -0.14250489 -0.07551766

fully_connected_layers.4.bias f4 [2]
00000000: 83a9 15bf 5177 0f3e
-0.5846178 0.1401036
