Assignment 3/Dataset1a/Dataset1b/mlffnn/mlffnn_model_11.pth (torch, 3096 bytes, 6 tensors)

fully_connected_layers.0.weight f4 [4, 2]
0	0xbf1d8b32	-0.6154052
1	0xbf131748	-0.574574
2	0xbeb86546	-0.36014766
3	0x3eb5973a	0.3546694
4	0xbe86c795	-0.26324144
5	0x3f648ed4	0.8928044
6	0xbdc4d016	-0.09610002
7	0x3dec3baf	0.11534821

fully_connected_layers.0.bias f4 [4]
0	0xbf264eec	-0.64964175
1	0x3f2edfe4	0.6831038
2	0xbf29825b	-0.6621453
3	0xbdbaf9a0	-0.091296434

fully_connected_layers.2.weight f4 [6, 4]
0	0xbd900911	-0.07032979
1	0x3deb6f77	0.114958696
2	0xbed829b6	-0.42219323
3	0xbee56422	-0.44802958
4	0x3e5d783e	0.216279
5	0x3e88573a	0.2662905
6	0x3dd8ca35	0.10585443
7	0xbe834e4e	-0.2564568
8	0x3eee6957	0.46564743
9	0xbe53a7a4	-0.20669419
10	0x3f0b33e3	0.5437605
11	0xbe691c6f	-0.22764753
12	0xbd8a86f4	-0.067640215
13	0xbef11c4b	-0.47091898
14	0x3cb9b161	0.022667589
15	0xbee60f93	-0.44933757
16	0x3e6def0a	0.23235717
17	0x3ece4db3	0.40293655
18	0xbe13e5c6	-0.1444312
19	0xbe15effd	-0.1464233
20	0x3f0cfa9b	0.55069894
21	0xbec520e4	-0.38501656
22	0xbe51d1bd	-0.20490165
23	0xbe480daa	-0.19536462

fully_connected_layers.2.bias f4 [6]
0	0x3da5e121	0.080995806
1	0xbd31e663	-0.043432605
2	0xbe4e3598	-0.20137632
3	0x3ef13a08	0.47114587
4	0x3efc7a17	0.49311897
5	0xbe9fe577	-0.31229755

fully_connected_layers.4.weight f4 [2, 6]
0	0x3e0f09ad	0.13968535
1	0xbe188d6a	-0.14897695
2	0xbebea0b0	-0.3723197
3	0xbe688c07	-0.22709666
4	0x3f18f1db	0.5974404
5	0x3e8c82e4	0.27443612
6	0x3eca08be	0.39459795
7	0x3d55a546	0.05215957
8	0x3ee96eb2	0.45592266
9	0xbb862c1f	-0.004094615
10	0xbd294e1a	-0.04133425
11	0xbf25d85f	-0.6478328

fully_connected_layers.4.bias f4 [2]
0	0x3e2eec6a	0.17082372
1	0xbe5a158c	-0.21297282
