Assignment 3/Dataset1a/Dataset1b/mlffnn/mlffnn_model_7.pth (torch, 3022 bytes, 6 tensors)

fully_connected_layers.0.weight f4 [2, 2]
0.04567732 -0.4639211 -0.006235902 0.6078121
00000000: 2418 3b3d 1187 edbe 8a56 ccbb 9399 1b3f

fully_connected_layers.0.bias f4 [2]
-0.32390013 0.42339373
00000000: 3dd6 a5be 10c7 d83e

fully_connected_layers.2.weight f4 [6, 2]
0.22999379 0.067801185 0.6288262 -0.36408314 0.6361906 0.27997592 -0.31413677 0.76513046
0.6550169 0.5410037 0.030517016 -0.38324684
00000000: 7e83 6b3e 59db 8a3d c1fa 203f 1b69 babe
00000010: 63dd 223f 0159 8f3e 89d6 a0be 97df 433f
00000020: 30af 273f 387f 0a3f d2fe f93c ee38 c4be

fully_connected_layers.2.bias f4 [6]
0.45596662 -0.6579308 0.13785867 -0.17198879 -0.2380991 -0.40703848
00000000: 7574 e93e 276e 28bf d32a 0d3e d41d 30be
00000010: 40d0 73be 5967 d0be

fully_connected_layers.4.weight f4 [2, 6]
0.00056027086 0.5744187 -0.33177912 -0.09544385 0.106425524 0.16563839 -0.07698497 -0.49965706
-0.14685819 0.40026554 -0.028715214 -0.18596952
00000000: 24df 123a 1b0d 133f f4de a9be 1178 c3bd
00000010: a0f5 d93d 1c9d 293e 4caa 9dbd 0dd3 ffbe
00000020: fe61 16be 9bef cc3e 2b3c ebbc cb6e 3ebe

fully_connected_layers.4.bias f4 [2]
0.32896018 0.18020141
00000000: 786d a83e b886 383e
