Assignment 3/Dataset1a/Dataset1b/mlffnn/mlffnn_model_5.pth (torch, 3022 bytes, 6 tensors)

fully_connected_layers.0.weight f4 [2, 2]
0	0x3c9ad6dc	0.018901281
1	0xbf0a8404	-0.5410769
2	0x3cfac9aa	0.030613739
3	0x3f30ee53	0.69113654

fully_connected_layers.0.bias f4 [2]
0	0xbe3aea2a	-0.18253389
1	0x3eef1c4e	0.46701282

fully_connected_layers.2.weight f4 [2, 2]
0	0x3f0c646e	0.54840744
1	0xbf0cb011	-0.54956156
2	0x3d2a46a8	0.04157129
3	0xbf29d187	-0.6633534

fully_connected_layers.2.bias f4 [2]
0	0x3f0ad8f5	0.542373
1	0xbef13425	-0.47110096

fully_connected_layers.4.weight f4 [2, 2]
0	0x3eb6f196	0.3573119
1	0xbeb57b23	-0.35445508
2	0xbf2927c1	-0.66076285
3	0xbeacfbd5	-0.33785883

fully_connected_layers.4.bias f4 [2]
0	0xbf8548c7	-1.0412835
1	0x3db09a19	0.08623142
