Assignment 3/Dataset1a/Dataset1b/mlffnn/mlffnn_model_13.pth (torch, 3032 bytes, 6 tensors)

fully_connected_layers.0.weight f4 [6, 2]
00000000: f195 cd3e 52d4 1dbf aaf5 f0be ca26 d73e
00000010: 6d16 bbbe 94af 8abe 3250 353f b957 513e
00000020: 6759 5ebd d39f a1be 4191 f83d f8b1 37bf
0.4015346 -0.616521 -0.47062427 0.4202178 -0.36540547 -0.2708708 0.70825493 0.2044362
-0.05428448 -0.3156725 0.1213708 -0.71755934

fully_connected_layers.0.bias f4 [6]
00000000: c845 a03e bcd6 293f 5a1a af3e 43a2 ee3d
00000010: ad32 dc3d 3f4c 213e
0.3130324 0.66343284 0.34199792 0.11652043 0.10751853 0.15751742

fully_connected_layers.2.weight f4 [2, 6]
00000000: 534b debe d196 83be 1b87 f03e dff6 5dbe
00000010: 98fe 1a3e a6dd 53bc 812a 393d e629 ccbd
00000020: 1a96 8b3e 7544 973d 0990 9bbe d8fc 053f
-0.43416843 -0.25701 0.46978077 -0.21676205 0.15136182 -0.012931263 0.04520655 -0.09968929
0.27262956 0.07386104 -0.30383328 0.52338934

fully_connected_layers.2.bias f4 [2]
00000000: cb55 003e a149 14bf
0.12532727 -0.5792485

fully_connected_layers.4.weight f4 [2, 2]
00000000: 6277 413f 7f94 723f 23cd 06bf 8bc5 583d
0.7557279 0.9475784 -0.52656764 0.052922767

fully_connected_layers.4.bias f4 [2]
00000000: dafd 5cbf 4494 e83e
-0.86324847 0.45425618
