Assignment 3/Dataset1a/Dataset1b/mlffnn/mlffnn_model_14.pth (torch, 3096 bytes, 6 tensors)

fully_connected_layers.0.weight f4 [6, 2]
-0.1376161 -0.5275598 -0.6007031 -0.42971733 -0.5539107 -0.16927749 -0.072336204 -0.3312158
-0.35164657 0.17421126 0.2665557 -0.2064878
00000000: 3ceb 0cbe 290e 07bf aec7 19bf e903 dcbe
00000010: 17cd 0dbf 1457 2dbe 0125 94bd 1e95 a9be
00000020: 050b b4be 7064 323e fd79 883e 8a71 53be

fully_connected_layers.0.bias f4 [6]
-0.24979137 -0.5121742 -0.6229509 0.09287499 -0.45855415 -0.7212942
00000000: 4fc9 7fbe d91d 03bf b679 1fbf 3e35 be3d
00000010: 9cc7 eabe bda6 38bf

fully_connected_layers.2.weight f4 [4, 6]
-0.030375814 -0.36097613 0.21452737 -0.35262886 -0.11254318 0.49617848 0.26089308 -0.27533066
0.12941867 0.16656351 -0.080311626 0.07102279 -0.23303103 -0.30879536 -0.06304619 0.0984633
-0.039776895 -0.32180774 0.2846198 0.21854712 -0.038836483 0.40537933 -0.13079 0.39937687
00000000: b3d6 f8bc ddd1 b8be 10ad 5b3e c58b b4be
00000010: 0a7d e6bd 1b0b fe3e c793 853e 24f8 8cbe
00000020: 5486 043e a08f 2a3e 6c7a a4bd 6674 913d
00000030: b09f 6ebe 6d1a 9ebe 5c1e 81bd 20a7 c93d
00000040: 19ed 22bd fcc3 a4be b0b9 913e d1ca 5f3e
00000050: 0113 1fbd e18d cf3e d0ed 05be 207b cc3e

fully_connected_layers.2.bias f4 [4]
0.10532494 0.033426087 -0.09954867 -0.51062226
00000000: 9ab4 d73d cbe9 083d 2ce0 cbbd 24b8 02bf

fully_connected_layers.4.weight f4 [2, 4]
0.4115585 0.05995797 0.038725078 0.6163983 -0.21350509 0.3092949 0.2662936 -0.46995682
00000000: ccb7 d23e 7d96 753d 309e 1e3d 47cc 1d3f
00000010: 14a1 5abe e75b 9e3e a257 883e 2e9e f0be

fully_connected_layers.4.bias f4 [2]
-0.63600135 0.6875888
00000000: fcd0 22bf d205 303f
