Assignment 3/Dataset1a/Dataset1b/mlffnn/mlffnn_model_10.pth (torch, 3096 bytes, 6 tensors)

fully_connected_layers.0.weight f4 [4, 2]
0	0x3ebd5063	0.36975393
1	0x3f119bb3	0.56878203
2	0xbefc8d14	-0.49326384
3	0xbefd05df	-0.49418542
4	0xbe128b5e	-0.14310977
5	0x3f47225b	0.777868
6	0x3f0f9953	0.5609333
7	0x3ea5c373	0.32375678

fully_connected_layers.0.bias f4 [4]
0	0x3e4164e7	0.18886147
1	0xbe92f554	-0.28702796
2	0x3e969470	0.29410124
3	0x3f21abcc	0.63152766

fully_connected_layers.2.weight f4 [4, 4]
0	0x3ea25d1c	0.31711662
1	0x3da87da9	0.08227093
2	0x3f22beed	0.6357258
3	0xbde712d0	-0.11282885
4	0xbecec268	-0.40382695
5	0x3edf7aea	0.43648463
6	0xbeff822f	-0.4990401
7	0xbefe3e90	-0.49657106
8	0x3e266c46	0.1625224
9	0xbed65412	-0.41861016
10	0x3eec6341	0.46169475
11	0xbe91b060	-0.28454876
12	0xbe890094	-0.26758254
13	0x3e55da0c	0.2088396
14	0xbeb095ed	-0.34489384
15	0x3de3333d	0.11093757

fully_connected_layers.2.bias f4 [4]
0	0x3b5d4653	0.003376384
1	0xbd80395b	-0.0626094
2	0x3ee90165	0.45508876
3	0x3d41334e	0.04716807

fully_connected_layers.4.weight f4 [2, 4]
0	0xbed82619	-0.42216566
1	0x3f2002a5	0.62504035
2	0x3e86a32f	0.26296374
3	0x3e3ea9af	0.18619417
4	0x3eecb5a9	0.46232346
5	0x3cca88d4	0.024723448
6	0xbef62ca8	-0.48080945
7	0xbdd8ac53	-0.10579743

fully_connected_layers.4.bias f4 [2]
0	0x3f388309	0.72074944
1	0xbd027294	-0.03184755
