Assignment 3/Dataset1a/Dataset1b/mlffnn/mlffnn_model_8.pth (torch, 3022 bytes, 5 tensors)

fully_connected_layers.0.weight f4 [4, 2]
00000000: 8281 da3d 48eb 06bf d25a 9cbe 44de 443f
00000010: 4dce 35bf aa9b 5e3d b34e dc3e c50d e73e
0.10669233 -0.5270276 -0.3053804 0.7690165 -0.71017915 0.05434767 0.43028793 0.45127693

fully_connected_layers.0.bias f4 [4]
00000000: cc56 f23d c002 f2be 32a8 093f e5f4 0bbf
0.118329614 -0.47267723 0.5377227 -0.54670554

fully_connected_layers.2.weight f4 [1, 4]
00000000: dccc e93e dd70 0abf 4106 a53e ef52 d13d
0.45664108 -0.54078466 0.32231334 0.102208965

fully_connected_layers.4.weight f4 [2, 1]
00000000: e777 603e 4847 83bf
0.21920739 -1.0256128

fully_connected_layers.4.bias f4 [2]
00000000: 6d5e 67bd 073a a43f
-0.056486536 1.2830209
