Assignment 3/Dataset1a/Dataset2/WithoutPCA/mlffnn/mlffnn_model_15.pth (torch, 78168 bytes, 6 tensors)

fully_connected_layers.0.weight f4 [100, 81]
0	0xbdfc5538	-0.12320942
1	0x3c42938e	0.011876
2	0x3cb7f319	0.022454785
3	0xbd5a11b2	-0.05323953
4	0xbce40eff	-0.027839182
5	0xbc551b17	-0.013006947
6	0x3dd227f4	0.10261527
7	0xbc0fed54	-0.008784611
8	0x3d550457	0.052006092
9	0xbe098eb6	-0.13433346
10	0xbdf98c1a	-0.121849254
11	0xbd753dcb	-0.059873383
12	0xbde0f78c	-0.10984716
13	0xbbfdf5ab	-0.007750233
14	0x3df2f536	0.118631765
15	0x3dcbac89	0.09945018
16	0x3d706931	0.05869407
17	0x3d786347	0.060641553
18	0xbd8ccb9d	-0.06874774
19	0xbe0d6448	-0.13807786
20	0xbcf5251f	-0.029924927
21	0xbc4aea1e	-0.012384919
22	0xbe13f01b	-0.14447062
23	0xbd96c64e	-0.07362042
24	0x3de9cf96	0.11416547
25	0xbc26fd21	-0.010192187
26	0x3ceaf9df	0.028683601
27	0xbdefe633	-0.11713829
28	0xbdd214dd	-0.102578856
29	0xbd5c28fe	-0.05375003
30	0xbd6d77ca	-0.057975568
31	0xbd6d0da9	-0.057874355
32	0x3dc84a88	0.09779841
33	0xbd8c521a	-0.06851597
34	0x3d2e39fe	0.042535774
35	0x3c6d7b82	0.014494779
36	0xbcd6b765	-0.026210496
37	0x3cc9ff85	0.024657974
38	0xbe15b800	-0.14620972
39	0xbc4a1574	-0.012334216
40	0x3d2f5ccd	0.04281311
41	0xbe0d925c	-0.13825363
42	0xbd63eefc	-0.055647835
43	0x3d17ef3f	0.037093397
44	0xbdf145c3	-0.11780884
45	0xbe1a9ef6	-0.15099701
46	0x3e02b94b	0.12765996
47	0xbdc1aecd	-0.09457169
48	0x3dbe347a	0.09287353
49	0xbdd194be	-0.102334484
50	0xbd44a267	-0.04800644
51	0x3de1dcf7	0.11028474
52	0x3d1a6fe8	0.03770438
53	0x3da2b697	0.079449825
54	0x3c420bcf	0.011843636
55	0xbd5be98a	-0.053689517
56	0xbd7a1567	-0.061055567
57	0xbcbb7bb1	-0.02288613
58	0xbe037364	-0.12836987
59	0xba3db229	-0.0007236326
60	0xbb07875d	-0.0020680048
61	0xbd1cb0f4	-0.038254693
62	0x3d36e61e	0.04465305
63	0xbdafcb6a	-0.0858372
64	0x3d3128d8	0.043251842
65	0x3dfd48a3	0.1236737
66	0x3d967082	0.07345678
67	0x3deeb278	0.11655134
68	0xbcc99ae0	-0.024609983
69	0xbc4c8339	-0.012482458
70	0x3d01962e	0.031637363
71	0xbda3eed0	-0.08004534
72	0xbe27dfd3	-0.16393976
73	0xbd78832c	-0.06067197
74	0x3d244f8b	0.04011492
75	0x3cd171c6	0.025566947
76	0xbda60ece	-0.081082925
77	0xbd5ddd45	-0.054166097
78	0xbdbf4af0	-0.09340465
79	0x3dd2ddee	0.10296236
80	0x3c376bd4	0.011195142
81	0xbdc1890c	-0.09449968
82	0xbbd119bc	-0.0063812416
83	0xbd948024	-0.072510034
84	0x3d5905a0	0.05298388
85	0xbdc5f68b	-0.09666165
86	0x3d198187	0.037477043
87	0x3d17f0d9	0.037094925
88	0xbd9694e6	-0.07352619
89	0xbda6539e	-0.081214175
90	0xbdc5195d	-0.09623978
91	0x3ced7399	0.028985785
92	0x3d516b51	0.051127736
93	0xbd084e26	-0.033277653
94	0x3d00d380	0.031451702
95	0xbc616b0d	-0.013758433
96	0xbd906ce5	-0.0705202
97	0xbc969380	-0.01838088
98	0xbd9faf46	-0.07797103
99	0xbd8b59b7	-0.06804221
100	0x3d903613	0.07041564
101	0x3dc7117a	0.0972013
102	0x3c925461	0.0178625
103	0x3d739bde	0.05947482
104	0xbb68c349	-0.003551679
105	0x3de19ff1	0.110168345
106	0x3d431916	0.047631346
107	0x3d5950ba	0.053055502
108	0xbd216a95	-0.039408285
109	0xbc9c1d56	-0.019056957
110	0xbdc15ecf	-0.094419114
111	0xbc841cf7	-0.016127093
112	0x3d833172	0.06405915
113	0xbd78b179	-0.060716126
114	0xbdc6054a	-0.096689776
115	0xbb7506c1	-0.003738806
116	0x3c94feca	0.0181879
117	0x3d9dcf3c	0.077055424
118	0x3dae3dd8	0.085078895
119	0xbdb822ba	-0.089909986
120	0xbd84e114	-0.06488243
121	0xbd8fddd2	-0.07024731
122	0x3dd9af7c	0.10629174
123	0xbd966841	-0.073441036
124	0xbdb29727	-0.08720236
125	0xbd386def	-0.045026716
126	0x3ca68f15	0.020331899
127	0xbdcf4e45	-0.101223506
128	0xbdb0d1d6	-0.08633773
129	0xba4d234a	-0.0007825388
130	0xbbbe8cc3	-0.00581512
131	0xbc94365b	-0.018092325
132	0x3dc6ddbf	0.097102635
133	0x3dd65f8b	0.10467442
134	0xbdcd08b9	-0.10011429
135	0x3cbb6ced	0.022879088
136	0x3d61e41f	0.055149194
137	0xbd79cd1d	-0.060986627
138	0x3d5bafea	0.05363456
139	0x3dd33705	0.103132285
140	0x3da781d3	0.08179059
141	0x3d7d8978	0.06189868
142	0x3d4c0b9e	0.049815767
143	0x3dc17296	0.09445684
144	0x3d2cd685	0.04219677
145	0x3be1982e	0.0068845963
146	0x3d861227	0.06546431
147	0xbdbc197b	-0.091845475
148	0xbca55dd6	-0.020186346
149	0x3d04201a	0.032257177
150	0xbc5fce7b	-0.013660069
151	0x3da0a1a1	0.07843328
152	0xbb501d34	-0.0031755688
153	0x3dc64130	0.09680402
154	0xbd692cb7	-0.05692741
155	0xbdac51da	-0.084140494
156	0xbd973948	-0.073839724
157	0xbd468ecd	-0.04847603
158	0x3db4b6de	0.08823942
159	0xbc5701f3	-0.013123023
160	0x3b0b1940	0.0021224767
161	0x3d73999e	0.059472673
162	0xbb98e276	-0.004665668
163	0x3da1b3af	0.078956
164	0xbd929159	-0.07156629
165	0x3dfa8141	0.122316845
166	0x3dd0809f	0.101807825
167	0x3da0cb9d	0.07851336
168	0x3dab9460	0.0837791
169	0x3d5dc589	0.054143462
170	0x3c81a8f7	0.015827639
171	0xbb5d26cb	-0.0033745046
172	0xbc629103	-0.013828519
173	0xbe08ccb7	-0.13359343
174	0xbe202e18	-0.15642583
175	0xbdae4d36	-0.085108206
176	0x3ddb2f16	0.1070234
177	0xbde39fd4	-0.11114469
178	0x3d2facb7	0.042889323
179	0xbe079394	-0.1323989
180	0x3e271a51	0.16318633
181	0x3e448db1	0.19194676
182	0x3d9ee709	0.0775891
183	0x3cdb5310	0.026773006
184	0x3c65e486	0.014031535
185	0x3d40c4f1	0.047062818
186	0xbd0733cb	-0.033008378
187	0xbd595a64	-0.05306472
188	0x3d8a5a0d	0.06755457
189	0x3b476173	0.0030423074
190	0x3dc9557e	0.098307595
191	0x3d4a423c	0.049379572
192	0xbdb082e7	-0.08618718
193	0xbdbcaec9	-0.09213025
194	0xbd33e57a	-0.043920018
195	0xbd3c0b2d	-0.045909096
196	0x3c919d2b	0.017775139
197	0x3e024d35	0.12724765
198	0xbbcb8972	-0.006211453
199	0x3dc1f637	0.0947079
200	0xbdf984d6	-0.121835396
201	0x3e2c7289	0.16840567
202	0x3c8c106e	0.017097678
203	0x3dd2011b	0.10254117
204	0x3e4ae425	0.19813593
205	0x3e3e4bf9	0.18583669
206	0xbdaa46eb	-0.08314308
207	0xbd70aed7	-0.05876049
208	0x3dd1f85b	0.10252448
209	0xbd8e5875	-0.069504656
210	0x3d44eb11	0.04807574
211	0x3e2e5b8c	0.1702711
212	0x3d066f1c	0.032820806
213	0xbd3826f5	-0.044959027
214	0xbcb7b47c	-0.022424929
215	0xbdf07ad3	-0.11742177
216	0x3cfcfe92	0.030883107
217	0x3d90f795	0.070784725
218	0x3e1214f5	0.14265807
219	0x3d3e67dd	0.04648577
220	0xbd6b3ee9	-0.057433043
221	0xbc8e94c2	-0.017404918
222	0xbc894f96	-0.016761582
223	0xbc148491	-0.009064809
224	0xbda63048	-0.08114678
225	0xbc6e7ee0	-0.014556617
226	0xbd40aec9	-0.047041688
227	0xbd8cf3ef	-0.06882464
228	0xbddd9f56	-0.108214065
229	0xbcc6cd9a	-0.02426796
230	0xbd14fc81	-0.03637362
231	0xbd9a48da	-0.075334266
232	0xbdb5a531	-0.088693984
233	0x3de828b3	0.11335888
234	0xbdfceb9c	-0.123496264
235	0xbc70aee7	-0.0146901375
236	0x3c919724	0.017772265
237	0xbd12a3af	-0.035800632
238	0xbddb145b	-0.10697242
239	0x3df866d2	0.121289864
240	0x3d859d6e	0.06524168
241	0xbdf14d4b	-0.117823206
242	0xbd550648	-0.052007943
243	0x3dd7d692	0.10538973
244	0xbdc1c257	-0.094608955
245	0xbde1684b	-0.110062204
246	0x3db6182a	0.08891328
247	0xbb6e0ee4	-0.0036324793
248	0x3d9ef1ad	0.0776094
249	0x3bc24178	0.0059282146
250	0x3dbea195	0.09308163
251	0xbd97afec	-0.07406601
252	0x3bf688ed	0.007523647
253	0x3d2ad486	0.041706584
254	0xbdd9812b	-0.1062034
255	0x3d0b4870	0.03400463

fully_connected_layers.0.bias f4 [100]
0	0x3e86dbb6	0.263395
1	0xbdaeca95	-0.08534733
2	0xbcd779f8	-0.026303276
3	0xbd4bf180	-0.04979086
4	0xbdeb42bc	-0.11487338
5	0xbdf938b5	-0.12169019
6	0x3e170702	0.14748767
7	0xbcd26217	-0.025681539
8	0x3c091c6a	0.008368591
9	0xbdd09ed7	-0.10186546
10	0x3c39ac02	0.011332514
11	0xbdcdd6e0	-0.1005075
12	0xbcaa78c9	-0.020809548
13	0xbda0997c	-0.07841775
14	0xbc9e199f	-0.019299326
15	0xbb5eaa3d	-0.0033975982
16	0xbd63cc35	-0.05561467
17	0x3e96df63	0.29467306
18	0x3e71d65c	0.23616928
19	0xbdb62068	-0.088929
20	0xbdb69581	-0.08915234
21	0x3e364e61	0.17803337
22	0xbead0e68	-0.33800054
23	0x3c80f349	0.015741007
24	0x3e12a152	0.14319351
25	0x3ee77748	0.45208192
26	0xbcdc3832	-0.026882265
27	0x3e86c84b	0.26324686
28	0xbd3a9c1b	-0.04555903
29	0xbd6d5be2	-0.057948954
30	0xbdf49ebf	-0.11944341
31	0x3a904088	0.001100556
32	0xbe0402fd	-0.12891765
33	0x3e8360b0	0.25659704
34	0x3e2c03ef	0.16798376
35	0xbdadf032	-0.08493079
36	0x3e7c69ae	0.24649689
37	0xbe1a8c0b	-0.15092485
38	0x3edcb4af	0.431066
39	0xbec12b7d	-0.3772849
40	0x3cc5c316	0.024140876
41	0xbc8e900a	-0.017402668
42	0xb9fabaa5	-0.00047822777
43	0x3e7bfde0	0.24608564
44	0xbc83f24c	-0.016106747
45	0x3e457ffb	0.19287102
46	0x3da8fb06	0.08251004
47	0xbdc6cfb9	-0.09707589
48	0xbdd9557c	-0.10612008
49	0x3e5e318b	0.21698587
50	0x3d9c99ed	0.076465465
51	0xbdc780d4	-0.09741369
52	0xbd818709	-0.06324584
53	0x3d8162ff	0.0631771
54	0xbe394d77	-0.18095957
55	0x3db9a15d	0.09063981
56	0xbe021d2a	-0.12706438
57	0xbdd36b54	-0.103232056
58	0x3c98a248	0.01863207
59	0x3e2c434d	0.16822548
60	0x3e32b53f	0.17451952
61	0x3eb572da	0.35439187
62	0xbd4f31bb	-0.050584536
63	0x3d0a0164	0.033692732
64	0xbe0d2056	-0.13781866
65	0x3ced1c87	0.028944267
66	0x3e866fbc	0.26257122
67	0x3ec14568	0.37748265
68	0x3dd6e18c	0.104922384
69	0x3d313979	0.0432677
70	0x3eadd065	0.33948055
71	0x3e0d1c22	0.13780263
72	0xbdde5cce	-0.10857545
73	0x3e159805	0.14608772
74	0x3e2adc30	0.16685557
75	0x3ed85797	0.42254326
76	0xbdcff81f	-0.10154747
77	0x3db210e8	0.08694631
78	0x3e0b22d1	0.135875
79	0xbdde8c2e	-0.10866581
80	0x3cba6912	0.02275518
81	0xbd984f23	-0.07436969
82	0xbdee5b84	-0.11638549
83	0xbe1ea483	-0.15492444
84	0x3e2a4ee0	0.16631651
85	0xbdad771b	-0.08469983
86	0x3e70e618	0.23525274
87	0xbdda37e9	-0.10655195
88	0x3d246bd1	0.040141884
89	0x3c89505a	0.016761947
90	0xbd53f744	-0.051749483
91	0x3e2e320b	0.17011277
92	0xbd858102	-0.06518747
93	0x3daeaa26	0.08528547
94	0xbd4b3a0b	-0.0496159
95	0xbdaf7762	-0.08567692
96	0xbc9a4c64	-0.018835254
97	0xbd1182c5	-0.035525102
98	0xbd66ca31	-0.05634517
99	0x3e23dc8b	0.16002099

fully_connected_layers.2.weight f4 [100, 100]
0	0xbdb684bb	-0.08912035
1	0xbbc55535	-0.0060221204
2	0x3d52fdf8	0.051511735
3	0xbc9d0d91	-0.019171508
4	0xbd8eb706	-0.06968503
5	0x3d193a9d	0.037409414
6	0xbd2af66d	-0.041738916
7	0x3d699b84	0.057033077
8	0xbdaa0b84	-0.08302978
9	0x3c8b493c	0.017002694
10	0x3db556b8	0.08854431
11	0x3d718195	0.05896147
12	0xbddc1a99	-0.107472606
13	0xbdbbb194	-0.0916473
14	0x3d1b8043	0.037964117
15	0xbc89503f	-0.016761897
16	0xbce727a0	-0.028217137
17	0x3d766e41	0.06016374
18	0x3dbc7e15	0.09203736
19	0xbd2a9d41	-0.041653875
20	0x3db6a70e	0.08918582
21	0xbc47b66f	-0.012189492
22	0x3dcbebc2	0.099570766
23	0xbd1446f8	-0.036200494
24	0xbd15eb9a	-0.03660164
25	0xbd0b61f1	-0.03402895
26	0xbdbdeaa5	-0.092732705
27	0xbd9e6ce5	-0.07735614
28	0x3d67d372	0.056598134
29	0x3d9901f0	0.07471073
30	0x3dca41f4	0.09875861
31	0x3c12ee25	0.008967911
32	0x3b42ff7d	0.0029754334
33	0xbcc60159	-0.024170564
34	0x3cb6d115	0.022316495
35	0xbc5a8da3	-0.013339433
36	0x3d8c24a0	0.06842923
37	0x3d757fe6	0.059936427
38	0xbd0feb05	-0.03513624
39	0x3c03cf9a	0.008045102
40	0x3da24c25	0.0792468
41	0xbd8a0a33	-0.067402266
42	0xbe0ddfd3	-0.13854913
43	0xbd24abaf	-0.040202793
44	0x3d39247d	0.045200814
45	0xbd7d2e64	-0.06181182
46	0xbcdc09cf	-0.026860146
47	0x3d5f43aa	0.05450789
48	0xbd4986d6	-0.049200855
49	0x3b157020	0.0022802427
50	0xbd810c5f	-0.06301188
51	0xbcf2406d	-0.029571736
52	0x3d97b11a	0.07406826
53	0xbdab4db4	-0.0836443
54	0xbd1ab1eb	-0.037767332
55	0x3d667646	0.056265138
56	0xbd816bde	-0.06319402
57	0x3da9a35d	0.08283112
58	0x3a010214	0.0004921269
59	0x3d396ed9	0.04527173
60	0x3dc5def7	0.09661668
61	0xbc8050fd	-0.015663618
62	0x3d2be761	0.041968707
63	0x3c4e32e9	0.01258538
64	0x3e03ad86	0.12859163
65	0x3d799a5d	0.060938228
66	0x3d1c460b	0.038152736
67	0x3dd76401	0.10517121
68	0xbc2ab4b4	-0.01041906
69	0x3d99d0be	0.075105175
70	0xbdae2f0f	-0.085050695
71	0x3d10d487	0.035358932
72	0xbc025a84	-0.007956151
73	0xbb1693c0	-0.002297625
74	0xb9e74a8a	-0.0004411529
75	0xbc8b7ea1	-0.017028155
76	0xbd36c163	-0.04461802
77	0xbbfe8bc9	-0.0077681285
78	0xbce441fc	-0.027863495
79	0x3cd04d97	0.025427623
80	0x3db5ff50	0.088865876
81	0x3daddb4b	0.084890924
82	0x3dba033a	0.09082647
83	0xbdb744dc	-0.08948681
84	0x3d424015	0.047424395
85	0x3e08c91f	0.13357972
86	0x3d60af26	0.054854535
87	0x3d3dbee0	0.04632461
88	0x3ce61f72	0.028091166
89	0xbc9627a0	-0.018329442
90	0xbd2172e0	-0.039416194
91	0x3d5bed56	0.053693138
92	0x3d39c73e	0.045356028
93	0x3d886c00	0.06661224
94	0xbdbaffd3	-0.09130826
95	0xbd973bd0	-0.07384455
96	0x3d82fb9e	0.063956484
97	0xbd80bf0c	-0.06286439
98	0xbcc6537f	-0.024209736
99	0xbdfe3784	-0.124129325
100	0xbde5f465	-0.11228255
101	0xbcc8da69	-0.024518209
102	0xbdc2fedc	-0.09521267
103	0xbd8380c5	-0.06421045
104	0x3dc9fc0f	0.098625295
105	0x3e0ad717	0.13558613
106	0x3da2ff8e	0.079588994
107	0x3bb52857	0.0055284905
108	0x3d79e258	0.061006874
109	0x3dfa78f9	0.12230105
110	0xbd1b8762	-0.037970908
111	0x3daf36d1	0.08555377
112	0xbce46b99	-0.027883338
113	0xbe245033	-0.16046219
114	0x3d8089c3	0.06276276
115	0x3dc9fea5	0.09863023
116	0x3bb0a180	0.005390346
117	0x3db0272c	0.086012214
118	0x3d8b4eab	0.06802114
119	0xbcc4d457	-0.024027033
120	0x3d43fdae	0.04784935
121	0x3c98d094	0.018654145
122	0x3e40b8bd	0.18820472
123	0x390d7b60	0.00013492769
124	0xbd8efb48	-0.06981522
125	0xbca94064	-0.020660587
126	0xbda8073f	-0.08204507
127	0xbe006787	-0.12539493
128	0x3e647666	0.2231079
129	0x3d1d2f88	0.038375407
130	0x3da052c7	0.078282885
131	0x3db7e16e	0.08978544
132	0xbd57ac28	-0.052654415
133	0xbe2c853c	-0.168477
134	0xbe6a590d	-0.22885533
135	0x3d127e21	0.035764817
136	0x3cd532e3	0.026025241
137	0x3de08780	0.109633446
138	0xbde94f87	-0.11392122
139	0x3e1b34a1	0.15156795
140	0x3cff7293	0.031182563
141	0xbd228261	-0.03967512
142	0x3d9c35e8	0.07627469
143	0x3d8a42a4	0.06750992
144	0x3df65313	0.12027564
145	0xbb017010	-0.0019750632
146	0x3d074d3a	0.033032633
147	0x3d2184dd	0.03943335
148	0x3c4c82db	0.01248237
149	0xbd2ccef4	-0.042189553
150	0xbe4c760b	-0.19966905
151	0xbdaaaf9d	-0.08334277
152	0xbcb8c7f7	-0.022556288
153	0xbcc44a84	-0.023961313
154	0x3d56e536	0.052464686
155	0x3cb3318d	0.021874214
156	0x3d86dc45	0.06584982
157	0xbd9e72f5	-0.0773677
158	0xbdb3eee4	-0.08785799
159	0xbda31b18	-0.07964152
160	0xbd60b385	-0.054858703
161	0xbe4a8bcb	-0.1977989
162	0xbd7590ed	-0.059952665
163	0xbb2c8001	-0.0026321413
164	0x3df38576	0.1189069
165	0xbd297b89	-0.041377578
166	0x3e011fce	0.12609789
167	0xbd0d690d	-0.034524012
168	0x3d09d074	0.033646062
169	0x3d597c2f	0.053096946
170	0xbdec5f16	-0.11541574
171	0x3dab2a9d	0.08357737
172	0x3d870d8d	0.065943815
173	0xbe1446ca	-0.14480129
174	0x3b08b966	0.002086246
175	0x3d59e4cc	0.053196713
176	0xbd51fd2a	-0.051266827
177	0xbdfac291	-0.12244142
178	0x3db9b160	0.09067035
179	0x3d203128	0.03910938
180	0x3d48b39e	0.04899942
181	0x3da95cc5	0.082696475
182	0xbab23535	-0.0013596179
183	0x3cf41ae8	0.029797986
184	0xbde6ec47	-0.11275535
185	0x3dba7247	0.09103828
186	0x3d00b2a9	0.031420384
187	0x3cdb32fb	0.026757708
188	0xbe0bff2f	-0.13671564
189	0x3dd80c36	0.10549204
190	0xbdc5f3de	-0.096656546
191	0xbd11eb75	-0.03562494
192	0x3d15393c	0.036431536
193	0x3de89b29	0.113577195
194	0x3cef0cb3	0.02918086
195	0xbddaba6a	-0.10680087
196	0x3dc13aee	0.09435068
197	0x3d4ecd15	0.05048855
198	0x3dd0e54d	0.10199986
199	0xbe6c67ff	-0.23086546
200	0x387da1aa	6.0470462e-05
201	0x3ce0bcfb	0.027433863
202	0x3d8b914b	0.06814822
203	0x3cc50671	0.024050923
204	0x3bc04589	0.0058676642
205	0xbcdf821b	-0.027283719
206	0x3b0f6059	0.0021877496
207	0x3da56ce9	0.080774136
208	0x3bc6b168	0.006063629
209	0xbd6b03e4	-0.057376757
210	0xbdc9102d	-0.098175384
211	0xbd8426e3	-0.064527296
212	0x3ca4c796	0.020114701
213	0x3e06cff5	0.13165267
214	0xbd1b612d	-0.03793447
215	0xbd5f8bae	-0.05457657
216	0xbdc3c38d	-0.09558783
217	0x3d5c6b09	0.053813014
218	0xbd4eeb0e	-0.050517134
219	0xbda9101a	-0.08255024
220	0xbc93e327	-0.01805265
221	0x3dd452dc	0.10367367
222	0xbda3005b	-0.07959052
223	0x3da13bd8	0.078727424
224	0xbd6f0d93	-0.058362555
225	0xbd6369dd	-0.05552088
226	0x3e04511a	0.12921563
227	0x3d97ebca	0.0741802
228	0xbe25e630	-0.16201091
229	0xbc9eb2ef	-0.019372432
230	0xbd9c4b9b	-0.07631608
231	0xbdc027f8	-0.093826234
232	0x3daa179d	0.08305285
233	0x3e0aab3c	0.13541883
234	0x3e5fe67b	0.21865265
235	0xbc766b30	-0.015040204
236	0x3d93a8bc	0.07209918
237	0xbdad2514	-0.08454338
238	0x3d4385b6	0.04773494
239	0x3d67d129	0.056595955
240	0x3db71079	0.08938689
241	0x3d653e9a	0.055967905
242	0xbbfe416e	-0.0077592647
243	0xbd6f6924	-0.05844988
244	0x3dd24e0f	0.10268795
245	0xbd4807f3	-0.048835706
246	0x3aa87285	0.0012851512
247	0x3d9732f3	0.07382765
248	0x3cc1750c	0.023615383
249	0x3e048af2	0.12943628
250	0x3c4283e3	0.011872265
251	0x3cf97ca7	0.030454947
252	0x3d87b9cb	0.06627234
253	0x3ca0c10f	0.019623308
254	0x3d20344c	0.039112374
255	0x3d5cbec6	0.053892873

fully_connected_layers.2.bias f4 [100]
0	0xbdcb9ee3	-0.099424146
1	0xbd1cd45d	-0.038288463
2	0x3d7e41f7	0.062074628
3	0xbe07f821	-0.13278247
4	0xbd7a0501	-0.06103993
5	0x3b6d7a5b	0.003623626
6	0xbd103193	-0.035203528
7	0xbc2d95b3	-0.010594773
8	0xbd18f11f	-0.037339326
9	0xbd95ad57	-0.073084526
10	0x3d51b142	0.051194437
11	0xbccaccc2	-0.02475584
12	0xbd9e7e0a	-0.07738884
13	0xbc979f60	-0.018508613
14	0xbcaaf33d	-0.020867938
15	0xbc86dd6b	-0.016463002
16	0xbd86b0a2	-0.06576659
17	0xbc5d97fa	-0.013525004
18	0xbcafa542	-0.021441106
19	0x3cb62e3b	0.022238841
20	0x3d9c9038	0.07644695
21	0x3d0943c5	0.033511896
22	0x3e052d2e	0.13005516
23	0x3e1699d5	0.1470712
24	0xbdc09378	-0.094031274
25	0x3e8729ce	0.26399082
26	0x3e75ba6f	0.239969
27	0x3dd274a2	0.10276152
28	0x3e0b9d91	0.13634326
29	0x3e503caf	0.20335649
30	0xbdab7882	-0.083725944
31	0x3ceb79a1	0.02874452
32	0x3e37f5e7	0.17964898
33	0x3d144d7c	0.036206707
34	0x3e2b4996	0.1672729
35	0x3e477000	0.19476318
36	0x3e418eaa	0.18902078
37	0xbc99976a	-0.018748958
38	0xbce8c41b	-0.028413823
39	0x3d53e633	0.051733207
40	0xbdaf1a1b	-0.08549901
41	0x3e730971	0.2373407
42	0xbd4cb760	-0.049979568
43	0x3db34004	0.087524444
44	0xbd5985e7	-0.053106215
45	0x3e19e8d8	0.15030229
46	0x3e8c9916	0.27460545
47	0x3e036f37	0.12835394
48	0xbd662fc6	-0.056197904
49	0xbda8755d	-0.0822551
50	0xbc450ae9	-0.012026527
51	0x3e5c3936	0.21506199
52	0xbd94f21a	-0.0727274
53	0x3e6c666b	0.23085944
54	0x3dde9572	0.10868348
55	0x3d21a74a	0.03946618
56	0x3e55d140	0.20880604
57	0xbd21b4f8	-0.039479226
58	0x3bddd706	0.0067700176
59	0xbdba6f02	-0.09103204
60	0xbd81921b	-0.063266955
61	0x3e730329	0.23731674
62	0x3e1d06da	0.15334645
63	0xbc85537c	-0.01627516
64	0x3e74d07a	0.23907652
65	0x3e1840fb	0.14868538
66	0xbd9720c3	-0.07379296
67	0x3da065bc	0.07831904
68	0x3cc044ed	0.023470366
69	0xbdb33194	-0.08749691
70	0x3da75425	0.08170346
71	0x3c8f2316	0.017472785
72	0xbd9c0bcb	-0.07619437
73	0x3e15aad6	0.1461595
74	0x3edea42f	0.43484637
75	0x3d9f2e31	0.07772482
76	0xbd83eb4a	-0.06441362
77	0x3d1a32cf	0.03764611
78	0xbdc50975	-0.096209444
79	0xbdba9973	-0.09111299
80	0x3da3db15	0.08000771
81	0xbda97df7	-0.08275979
82	0xbbb745a6	-0.0055930195
83	0x3cac56f7	0.021037562
84	0x3dbd6e91	0.092496045
85	0x3e0b8565	0.13625105
86	0x3e6f03c4	0.2334128
87	0x3deb296c	0.1148251
88	0x3eb5e409	0.3552554
89	0xbd935158	-0.071932495
90	0x3e857e64	0.2607299
91	0x3d805b95	0.06267468
92	0xbd9af323	-0.07565906
93	0xbd15117b	-0.036393624
94	0xbdad336f	-0.08457076
95	0x3e80314a	0.25037605
96	0x3d8ec267	0.06970673
97	0x3e3d7346	0.18501005
98	0x3e0b0759	0.13577022
99	0xbdcdbc2e	-0.10045658

fully_connected_layers.4.weight f4 [5, 100]
0	0xbda06f57	-0.078337364
1	0xbeff83d8	-0.49905276
2	0x3e89996c	0.26874864
3	0xbd854fda	-0.06509371
4	0x3d517039	0.051132414
5	0xbf1b2c89	-0.6061483
6	0xbd0eee5d	-0.03489529
7	0x3de6e0cf	0.112733476
8	0xbd6b00a7	-0.05737367
9	0x3dc2b8ad	0.0950788
10	0xbec535dd	-0.38517657
11	0x3d8e6325	0.06952504
12	0xbdb592a2	-0.088658586
13	0x3cc608ae	0.02417406
14	0xbe06222b	-0.13098972
15	0xbcd3207e	-0.02577233
16	0x3c03a040	0.008033812
17	0xbeec70c5	-0.46179786
18	0xbecf169c	-0.40446937
19	0xbd5e4457	-0.054264393
20	0xbea1b7b0	-0.31585455
21	0xbbdd9c8b	-0.006763046
22	0x3e293860	0.16525412
23	0x3d98030d	0.07422457
24	0xbe081126	-0.13287792
25	0x3ecdf6f2	0.40227467
26	0x3f43db23	0.7650625
27	0x3e44884f	0.19192623
28	0x3dafa68b	0.085766874
29	0x3f185097	0.5949797
30	0x3d380ecd	0.04493599
31	0xbe54806a	-0.20752111
32	0x3e5bc1aa	0.21460596
33	0x3e8e4835	0.27789465
34	0xbf1a47c9	-0.60265785
35	0x3f1ece12	0.6203319
36	0x3e83622a	0.2566083
37	0xbce91b76	-0.028455477
38	0xbcb5ec30	-0.02220735
39	0xbdfd9760	-0.12382388
40	0x3d21763d	0.0394194
41	0x3e92ccaf	0.28671786
42	0xbd2c352f	-0.042042907
43	0x3e38b0e7	0.18036233
44	0xbda6ef1b	-0.081510745
45	0xbf33c1c2	-0.70217526
46	0x3f35d335	0.710254
47	0x3e8dab9f	0.2767
48	0xbd80c0ac	-0.06286749
49	0xbd67436d	-0.056460787
50	0xbed7632f	-0.4206786
51	0xbd03e474	-0.03220029
52	0xbdc75b75	-0.09734241
53	0x3e67398d	0.22580548
54	0x3ce9e5fb	0.028552046
55	0x3ee81c71	0.453342
56	0xbe77218c	-0.24133891
57	0x3d3d855c	0.04626976
58	0xbdbe110a	-0.09280594
59	0xbf2e62c2	-0.6811944
60	0x3d9407f3	0.07228079
61	0x3d82e352	0.06391014
62	0x3e993819	0.29925612
63	0x3d88fe6d	0.06689153
64	0x3f54a84e	0.8306931
65	0xbe23c42a	-0.159928
66	0x3db56f3f	0.08859109
67	0xbec710ca	-0.38879997
68	0x3d8c5403	0.068519615
69	0xbcb6721a	-0.022271205
70	0xbd688848	-0.056770593
71	0xbe0337e6	-0.12814292
72	0x3dca9e37	0.09893458
73	0x3e542f5c	0.20721191
74	0x3f4a85e5	0.79110557
75	0x3db07e26	0.08617811
76	0x3b87859a	0.0041357996
77	0x3e7400a7	0.23828374
78	0xbaad3067	-0.0013213278
79	0xbd5d81bf	-0.054078814
80	0xbeffa4ea	-0.49930507
81	0xbd206d01	-0.039166454
82	0x3efd4743	0.4946843
83	0xbed9e402	-0.4255677
84	0xbf2949c7	-0.661282
85	0xbddd60d6	-0.108094856
86	0xbe78cca1	-0.2429681
87	0xbe741bae	-0.23838684
88	0x3ef5d0fd	0.48011008
89	0xbd0b61f7	-0.034028973
90	0x3f7de1cd	0.9917267
91	0xbbdff69a	-0.006834817
92	0x3d80494b	0.062639795
93	0x3e3ef628	0.18648589
94	0xbc2723c0	-0.010201395
95	0x3d24001e	0.040039174
96	0xbf4cbe14	-0.79977536
97	0x3e01b6b8	0.12667358
98	0x3ec39102	0.3819657
99	0xbd10af3b	-0.035323363
100	0x3d3f7207	0.046739604
101	0x3eb75ccf	0.35812995
102	0xbe2cff9e	-0.16894385
103	0x3ec5145c	0.38492095
104	0x3d851bdc	0.064994544
105	0x3ea036e7	0.31291887
106	0xbd9401d7	-0.072269134
107	0x3ecd3000	0.40075684
108	0xbd8d9405	-0.06912998
109	0xbd2c2e13	-0.042036127
110	0x3e5861a0	0.21130991
111	0xbaf34595	-0.0018560166
112	0xbdad2f0d	-0.0845624
113	0x3d137844	0.036003366
114	0x3ef29d48	0.4738562
115	0xbd08460f	-0.033269938
116	0xbbb9fb9c	-0.005675746
117	0x3ea13358	0.31484485
118	0x3f2478b2	0.64246666
119	0xbad8812c	-0.0016517988
120	0xbd2244cc	-0.03961639
121	0xbd8b1787	-0.06791597
122	0xbef498ac	-0.4777273
123	0xbe96e7fd	-0.29473868
124	0x3cdf0f2d	0.027228916
125	0xbd0f22bf	-0.034945246
126	0xbea91dc3	-0.3303052
127	0x3c8d62f0	0.017259091
128	0x3ebd88a5	0.37018314
129	0xbf087bb3	-0.5331375
130	0xbd969d83	-0.07354262
131	0x3e6336a7	0.22188817
132	0xbee93db1	-0.4555488
133	0xbdd10c88	-0.10207468
134	0x3e949e24	0.29026902
135	0xbddf4e50	-0.10903609
136	0xbf153079	-0.5827709
137	0x3d8e8fee	0.06961046
138	0xbdd8f10c	-0.10592851
139	0x3e15e69b	0.1463875
140	0x3dbf744d	0.093483545
141	0xbf0cbe3e	-0.54977787
142	0x3dc3e1cf	0.09564554
143	0xbec97018	-0.39343333
144	0x3dc40baf	0.09572541
145	0xbd7970e6	-0.060898684
146	0xbd423328	-0.047412068
147	0x3de9a41f	0.11408257
148	0xbd3671c7	-0.0445421
149	0xbaf14c00	-0.0018409491
150	0xbe565db9	-0.2093419
151	0x3e8eeb13	0.27913722
152	0xbdfa16f3	-0.122114085
153	0xbef1f201	-0.47254947
154	0x3e528590	0.20558763
155	0x3f0c0abc	0.5470388
156	0xbe7ea472	-0.24867418
157	0xbd6a83e0	-0.057254672
158	0x3e013007	0.12615977
159	0x3f0a8e4b	0.5412337
160	0x3d82c161	0.0638454
161	0x3eabcb8d	0.33553734
162	0x3e4605a8	0.19338095
163	0xbe783770	-0.24239898
164	0xbeedc6ee	-0.46440834
165	0xbe85c6a9	-0.26128128
166	0xbba09f67	-0.0049018147
167	0xbd82967c	-0.06376359
168	0x3dc6d8cf	0.09709322
169	0xbcc0e742	-0.023547772
170	0x3c9bec56	0.019033592
171	0xbe414da1	-0.1887727
172	0xbdf6f3f5	-0.1205825
173	0x3e09c8af	0.13455461
174	0xbf5c360e	-0.8601998
175	0x3e18f79a	0.14938203
176	0xbd7adae7	-0.061243918
177	0xbe81ff44	-0.25390065
178	0xbd620cd3	-0.05518801
179	0x3c670df6	0.01410245
180	0x3eec0335	0.46096197
181	0x3f0dceeb	0.55393857
182	0x3f1cdaca	0.61271346
183	0x3e822823	0.25421247
184	0x3f03c958	0.514791
185	0xbe81d9a1	-0.2536135
186	0xbd613030	-0.054977596
187	0x3afe2b9f	0.0019391662
188	0xbf2332b0	-0.6374922
189	0xbc8f1687	-0.017466797
190	0xbea97631	-0.33097985
191	0x3d6c59c6	0.057702802
192	0x3da39a83	0.07988455
193	0x3ee388f4	0.44440424
194	0x3ccd009a	0.0250247
195	0xbf1cc5ec	-0.61239505
196	0x3eee138a	0.46499282
197	0xbd51aac7	-0.051188257
198	0x3e8b4a81	0.2720528
199	0xbc2d7e46	-0.010589188
200	0xbe30f5ee	-0.17281315
201	0xbe161a86	-0.14658555
202	0x3d4b7fcd	0.049682427
203	0xbeb5925c	-0.35463226
204	0x3da08c5b	0.07839271
205	0x3e24a217	0.16077457
206	0x39a4d333	0.00031437873
207	0xbdce76e2	-0.10081269
208	0xbdfed54b	-0.12443026
209	0xbd9cc8c0	-0.076554775
210	0xbe891470	-0.26773405
211	0x3a07c403	0.00051790493
212	0xbb8d50b3	-0.0043125986
213	0x3dc134d5	0.09433905
214	0xbee50de6	-0.44737166
215	0xbd779e15	-0.060453493
216	0x3d96bf27	0.07360678
217	0xbe2c9002	-0.1685181
218	0xbe4fab29	-0.20280136
219	0xbd496d5f	-0.04917657
220	0xbebf4ea2	-0.3736468
221	0x3e5de81b	0.21670572
222	0x3ec7d84f	0.39032218
223	0x3ed19092	0.4093061
224	0xbc2fb4eb	-0.010724287
225	0xbec1e956	-0.37873334
226	0xbd6a3d53	-0.05718739
227	0xbf3b05b2	-0.73055565
228	0x3e9e26cb	0.30888972
229	0xbe38fdd7	-0.18065582
230	0x3b30a267	0.0026952268
231	0xbc2bc15b	-0.010483111
232	0xbcd80153	-0.026367819
233	0x3da90be8	0.08254224
234	0x3f01507e	0.50513446
235	0xbec8b359	-0.3919933
236	0x3e36d433	0.17854385
237	0x3ccb1fad	0.024795378
238	0x3d34ff17	0.044188585
239	0xbecd714f	-0.4012551
240	0x3d29453d	0.041325796
241	0xbe19e23f	-0.15027712
242	0xbdf6a3f5	-0.12042991
243	0x3e844651	0.25834897
244	0x3d4844ad	0.04889362
245	0x3ec03883	0.37543115
246	0xbf1a712f	-0.60328954
247	0xbeb16744	-0.34649098
248	0x3cd4054a	0.025881428
249	0xbc8ad8ba	-0.016949046
250	0x3e058541	0.13039114
251	0x3eb8fc4f	0.36129996
252	0xbcfa0f24	-0.030524798
253	0x3e8e0c3f	0.27743718
254	0x3e11f3e5	0.14253195
255	0x3da87e3b	0.082272016

fully_connected_layers.4.bias f4 [5]
0	0x3e4e5ad4	0.20151836
1	0xbe71f2fd	-0.23627849
2	0x3e73cc4a	0.23808399
3	0x3cdd55b5	0.027018407
4	0xbd8ce7bf	-0.068801396
