Assignment 3/Dataset1a/Dataset2/WithoutPCA/mlffnn/mlffnn_model_7.pth (torch, 48974 bytes, 6 tensors)

fully_connected_layers.0.weight f4 [60, 81]
-0.08587318 -0.046255447 -0.16015293 -0.050916605 0.0031029752 0.00016117864 0.14562644 -0.0885764
-0.283633 -0.35377276 0.25941995 0.15406808 0.014984736 -0.1392321 -0.088634945 0.054871034
0.0019300011 -0.13924217 -0.25352296 -0.21765304 0.16131265 0.122412615 -0.047232974 -0.15516765
-0.053192187 0.09345216 0.17662822 -0.027432175 0.21090865 0.041615378 0.027937125 -0.02972134
0.04203105 -0.04672588 0.05725264 0.044629175 -0.2656906 -0.11066842 0.00013129294 0.10814572
0.19310921 0.12065408 0.07602589 -0.20900233 -0.2625976 0.039093666 -0.14722563 0.17796752
0.09508615 0.0986656 -0.02250156 0.030964449 0.04956399 -0.029500624 0.009138219 -0.19153424
-0.19515091 0.0211525 -0.21016127 -0.03485242 -0.30913657 -0.19894353 0.03401667 -0.008811222
-0.25107524 -0.002479463 -0.16841128 0.29947487 -0.059412535 -0.12650175 -0.09323245 0.04715634
-0.09242609 0.05965157 -0.09846489 -0.07082591 0.14975823 -0.05758594 -0.2555789 -0.18843421
0.21690108 -0.075367816 3.3820615e-06 0.052442677 -0.057673965 0.032573357 -0.008371699 -0.05681045
-0.013217495 0.066458546 0.0647735 -0.045764297 -0.05642621 -0.03756383 -0.06907039 -0.050952222
0.0031689222 -0.0440945 -0.049880136 -0.03019878 -0.086138345 -0.026112191 0.06637448 0.089867204
0.066259876 0.033634212 0.10444488 -0.021130731 -0.020589756 0.0012056454 -0.04889285 -0.041222073
-0.07038563 0.005363332 -0.025574598 -0.069030985 -0.06493266 -0.0055104713 0.049349915 0.0075609502
0.091540635 0.01763854 -0.08155204 -0.07120835 0.06700005 -0.0429868 0.11149137 0.105758876
-0.055824567 0.09379366 -0.089985184 0.047074355 0.008036253 -0.10309435 0.07445018 0.090389416
0.03610563 0.0043621203 -0.11255743 0.11495179 0.06377221 0.022086035 -0.020288806 0.013941253
0.026079845 0.111551106 0.09908705 -0.044508576 -0.1010447 0.07007398 -0.08294753 0.012532375
-0.038543053 0.060222622 -0.010578357 -0.041334096 -0.06956285 0.05098201 -0.09837065 -0.054227542
0.02160642 -0.1099193 -0.015845543 -0.1562622 -0.19509827 0.058121547 0.15644383 0.20203091
0.02777811 0.039299954 -0.16209055 -0.11271639 0.024004254 -0.020066015 -0.09042974 -0.20618698
-0.17153084 -0.15395176 -0.13754185 0.11090098 -0.023490839 0.06466021 -0.0031599456 0.077554196
0.073211 -0.036387328 -0.14959529 -0.121273264 -0.08852501 0.047254067 -0.0892533 -0.12802903
-0.010387248 0.012787394 0.075620264 0.058602296 -0.08521135 -0.07814039 0.10781954 0.044460487
0.09329033 -0.08251211 0.17812149 -0.1150539 0.05010595 -0.05308321 -0.15367365 0.13346767
-0.14181781 0.12625013 0.2010041 0.12658499 0.047204226 -0.034600817 -0.06218541 -0.1734659
0.099654876 -0.05407421 -0.031090712 0.04709422 0.16224955 0.027548967 -0.014131661 -0.0733411
-0.12023925 0.074833155 0.06709207 -0.10797454 -0.0140520325 0.05131966 -0.06264945 -0.023184188
-0.09487417 -0.11612707 0.14082335 -0.008555385 -0.13412508 0.109168924 0.015979743 0.036494065
0.0010855221 -0.14428186 -0.08534035 -0.031136721 -0.11806027 0.07220115 0.011996912 0.21676172
0.03042844 0.020816328 0.099703625 -0.05473725 0.13220125 0.10418403 -0.078020155 0.017816644
00000000: 47de afbd 5a76 3dbd 21ff 23be ee8d 50bd
00000010: 495b 4b3b 1002 2939 191f 153e 8b67 b5bd
00000020: 5838 91be b421 b5be b1d2 843e 06c4 1d3e
00000030: 8a82 753c dc92 0ebe 3d86 b5bd 73c0 603d
00000040: 17f8 fc3a 8095 0ebe c3cd 81be 70e0 5ebe
00000050: 252f 253e 77b3 fa3d 5d77 41bd 45e4 1ebe
00000060: 0de0 59bd d963 bf3d 07de 343e 71b9 e0bc
00000070: 70f8 573e e374 2a3d 66dc e43c 2b7a f3bc
00000080: c028 2c3d a363 3fbd bf81 6a3d 15cd 363d
00000090: 9908 88be 20a6 e2bd aeab 0939 817b dd3d
000000a0: 6cbe 453e 7c19 f73d 76b3 9b3d b504 56be
000000b0: 3173 86be ae20 203d 51c2 16be 1e3d 363e
000000c0: 87bc c23d 3111 ca3d 3155 b8bc 28a9 fd3c
000000d0: 9c03 4b3d 4bab f1bc 78b8 153c 8d21 44be
000000e0: a4d5 47be 0248 ad3c 8434 57be 69c1 0ebd
000000f0: 2647 9ebe dab7 4bbe 1055 0b3d f25c 10bc
00000100: ef8c 80be 7c7e 22bb 0274 2cbe c554 993e
00000110: 8f5a 73bd ad89 01be a8f0 bebd 0227 413d
00000120: e449 bdbd 3455 743d f6a7 c9bd 2d0d 91bd
00000130: 395a 193e 3cdf 6bbd 3ddb 82be e6f4 40be
00000140: 511b 5e3e 715a 9abd 60f7 6236 22ce 563d
00000150: 893b 6cbd a46b 053d 7329 09bc 13b2 68bd
00000160: 318e 58bc 6b1b 883d f8a7 843d 5873 3bbd
00000170: 2b1f 67bd 88dc 19bd c774 8dbd 47b3 50bd
00000180: b1ad 4f3b 6f9c 34bd 1d4f 4cbd 6f63 f7bc
00000190: 4d69 b0bd 3ce9 d5bc 58ef 873d 4c0c b83d
000001a0: 42b3 873d 07c4 093d 32e7 d53d 5b1a adbc
000001b0: d9ab a8bc bf06 9e3a de43 48bd 7ad8 28bd
000001c0: 5726 90bd e4be af3b d281 d1bc 1e60 8dbd
000001d0: 6afb 84bd 2f91 b4bb 2323 4a3d d9c1 f73b
000001e0: a879 bb3d b37e 903c c204 a7bd afd5 91bd
000001f0: 5237 893d ed12 30bd 9655 e43d 1c98 d83d
00000200: 4da8 64bd e416 c03d 274a b8bd 0ad1 403d
00000210: 7daa 033c 2123 d3bd 5679 983d 161e b93d
00000220: 7fe3 133d 1ef0 8e3b 8384 e6bd d86b eb3d
00000230: 019b 823d c6ed b43c b634 a6bc da69 643c
00000240: 66a5 d53c e874 e43d 27ee ca3d a04e 36bd
00000250: 86f0 cebd f282 8f3d 65e0 a9bd 9754 4d3c
00000260: 52df 1dbd ffab 763d d850 2dbc f14d 29bd
00000270: f876 8ebd 83d2 503d 8d76 c9bd b31d 5ebd
00000280: f2ff b03c 5f1d e1bd 83ce 81bc 3303 20be
00000290: d7c7 47be dc10 6e3d d032 203e 31e1 4e3e
000002a0: eb8e e33c fdf8 203d 11fb 25be dad7 e6bd
000002b0: 92a4 c43c 7c61 a4bc 3a33 b9bd ae22 53be
000002c0: c8a5 2fbe 88a5 1dbe c5d7 0cbe 0e20 e33d
000002d0: dc6f c0bc 926c 843d 1717 4fbb bcd4 9e3d
000002e0: a6ef 953d e10a 15bd 822f 19be 1e5e f8bd
000002f0: 9a4c b5bd 7b8d 413d 6fca b6bd 0b1a 03be
00000300: 472f 2abc 3882 513c ccde 9a3d f608 703d
00000310: 4a83 aebd 1208 a0bd 7ed0 dc3d 331c 363d
00000320: 000f bf3d 1cfc a8bd 7b65 363e 61a1 ebbd
00000330: e63b 4d3d c86d 59bd a05c 1dbe c0ab 083e
00000340: b038 11be b747 013e 05d4 4d3e 7f9f 013e
00000350: 3859 413d 96b9 0dbd 21b6 7ebd 0ba1 31be
00000360: db17 cc3d eb7c 5dbd f3b1 febc dee5 403d
00000370: bf24 263e 5fae e13c 7b88 67bc dc33 96bd
00000380: ff3f f6bd 2042 993d 9167 893d c121 ddbd
00000390: 7f3a 66bc 9034 523d 5b4e 80bd c4ec bdbc
000003a0: 644d c2bd 07d4 edbd ff33 103e e32b 0cbc
000003b0: 1658 09be f593 df3d f3e7 823c cd7a 153d
000003c0: 1448 8e3a a0be 13be ecc6 aebd 7012 ffbc
000003d0: 95c9 f1bd 32de 933d b28e 443c c9f6 5d3e
000003e0: 1045 f93c 0187 aa3c 6a31 cc3d 2b34 60bd
000003f0: c45f 073e 705e d53d 08c9 9fbd 36f4 913c

fully_connected_layers.0.bias f4 [60]
0.23619781 -0.08142047 0.27012756 0.023152733 0.079616554 -0.062383458 0.043518532 -0.10315419
0.4810818 0.0007944908 -0.30182347 0.45125738 -0.13934852 -0.08331824 0.086857304 -0.337296
0.15681218 0.43503758 0.19886541 0.19475296 -0.047926094 -0.10286976 0.14209007 -0.10027668
-0.003856545 -0.06674907 0.2819632 -0.08417235 -0.15400442 -0.102890715 0.23428568 -0.06190022
0.20097803 -0.14754358 -0.03756637 -0.10249685 0.022296004 0.20482728 0.613186 0.031195033
-0.031557214 0.47217342 0.10262194 0.36284325 -0.112949856 0.04686675 0.17018098 -0.31366852
0.17408094 -0.04039217 -0.084929965 -0.18918803 -0.0016573985 0.10952053 -0.106815286 0.0056903055
-0.02178299 -0.25021842 0.2073448 0.10324617
00000000: d7dd 713e c6bf a6bd 294e 8a3e cdaa bd3c
00000010: 010e a33d cc85 7fbd 7d40 323d 8142 d3bd
00000020: 5b50 f63e 6045 503a 9b88 9abe 350b e73e
00000030: 61b1 0ebe c1a2 aabd 3ee2 b13d 10b2 acbe
00000040: 5f93 203e 3fbd de3e 60a3 4b3e 526d 473e
00000050: 274e 44bd 61ad d2bd 0f80 113e dc5d cdbd
00000060: 17be 7cbb bdb3 88bd 7b5d 903e 8e62 acbd
00000070: 56b3 1dbe 5eb8 d2bd 96e8 6f3e 168b 7dbd
00000080: 2fcd 4d3e aa15 17be 32df 19bd dee9 d1bd
00000090: 1ca6 b63c 3ebe 513e c2f9 1c3f ba8c ff3c
000000a0: 2342 01bd b7c0 f13e 742b d23d 97c6 b93e
000000b0: 4152 e7bd 59f7 3f3d ec43 2e3e 2999 a0be
000000c0: 4642 323e 4372 25bd c3ef adbd 82ba 41be
000000d0: 113d d9ba 4d4c e03d f9c1 dabd be75 ba3b
000000e0: 3e72 b2bc a11c 80be 3252 543e ba72 d33d

fully_connected_layers.2.weight f4 [100, 60]
0.1056078 0.12455662 -0.039537933 0.065087594 0.06252294 -0.030818734 0.118884906 -0.09393637
0.09954968 -0.057485733 0.016543599 -0.06120235 -0.070517935 -0.0028398742 -0.08808247 -0.046228364
-0.029685995 -0.09260059 0.0027171248 0.049152065 0.01051227 -0.12663566 -0.107588015 -0.058865126
0.004282811 -0.12133182 0.12041932 -0.000523178 -0.08868075 0.100756586 -0.06698537 -0.081588656
-0.062106475 -0.1259034 0.013203309 0.039117914 0.08233991 -0.03057819 -0.0898746 0.024021514
-0.11552264 -0.11967341 -0.11763311 0.020537404 0.02044899 0.07831453 0.06784212 -0.06789143
0.047381494 -0.07890616 0.08744088 -0.09357633 -0.06345201 0.040075116 -0.09870387 0.049099896
-0.0558947 0.10077945 -0.12873699 0.11605477 0.035572674 -0.03173086 0.041951776 -0.09744636
-0.124243386 -0.0017503421 -0.11605357 -0.042590834 0.0640825 0.18501712 0.0638114 0.055209544
-0.13306849 0.06973628 -0.035423927 0.06264562 0.12689298 0.022619773 0.07435373 0.12452157
-0.010711284 -0.036242772 0.08441471 -0.08747352 0.043312337 -0.038921244 0.043151677 -0.040139716
0.008284802 -0.033618536 0.14481494 -0.05464907 0.036092993 0.0022740448 -0.1204893 0.0921105
-0.06920305 -0.030837618 0.12791762 -0.0726536 0.08986806 -0.020508828 -0.08080359 -0.039388597
0.06156352 -0.00048401527 0.035683405 -0.10840429 -0.10773814 -0.049481343 -0.02777161 0.0579092
0.096760236 0.004036319 -0.10000071 -0.060821388 -0.15898003 -0.100551814 -0.11075117 0.065332495
-0.1370635 -0.034319405 -0.2087635 0.06001902 -0.04639005 0.07214394 0.0059781475 0.044610336
0.2931371 -0.02923108 -0.12561843 0.084673434 0.09311771 -0.060059234 0.051869668 -0.04057375
0.06276745 -0.16940518 0.13175222 0.0415892 -0.022040829 0.0851717 -0.07127832 -0.0011257897
-0.041865688 0.10421945 -0.030475242 0.04633462 -0.24336411 0.06941343 -0.029225191 0.017916482
-0.050691813 0.0872287 -0.020258062 -0.22268774 0.16323498 -0.23424353 0.19351305 -0.05795997
0.21283974 0.08662208 -0.11094535 0.06845454 0.04308299 0.1582465 -0.0031961459 0.108335145
0.121168934 0.10833418 0.026388563 -0.057711553 0.07352252 -0.037785582 0.0077114 -0.03164722
0.14824727 -0.25794205 0.09963462 0.09957017 -0.031923316 -0.101957686 -0.016417012 0.095360875
0.018645808 -0.018441623 -0.062064055 -0.108253755 -0.28676197 0.04966015 0.23625882 -0.05649729
0.22451046 -0.067197904 0.05833353 0.11732234 -0.100336224 -0.0035399292 -0.034125313 -0.10751246
0.030731484 0.007954725 -0.042524345 0.0925511 0.054923132 -0.012731102 -0.17685251 -0.039662536
0.21556982 0.15415882 -0.08655123 0.04772265 0.072189614 -0.01663885 0.14729509 0.20950894
-0.110193826 0.03055567 -0.23325704 0.121327385 -0.17540924 -0.16861029 0.19191474 0.051821414
-0.09735637 0.11051385 -0.00035910023 0.19760932 0.017716171 0.09009132 0.058193922 0.13323624
-0.031123243 -0.041117612 0.06692055 0.036032803 -0.17415942 0.25406277 -0.088397 0.13004969
0.30027902 0.0919466 -0.094949126 -0.1259886 0.020927388 -0.059659302 0.0839201 -0.03452659
0.15075412 0.114456296 0.30943787 0.07596744 -0.08618789 0.09481379 -0.036128376 0.31606364
00000000: e748 d83d 8b17 ff3d 87f2 21bd a54c 853d
00000010: 070c 803d 9277 fcbc ee79 f33d b661 c0bd
00000020: b4e0 cb3d 2976 6bbd 7186 873c 51af 7abd
00000030: b56b 90bd 2f1d 3abb 9564 b4bd f459 3dbd
00000040: 0b30 f3bc 61a5 bdbd ca11 323b ad53 493d
00000050: a83b 2c3c c7ac 01be 1b57 dcbd 8f1c 71bd
00000060: d356 8c3b d17c f8bd 689e f63d e225 09ba
00000070: 419e b5bd 7859 ce3d a02f 89bd f417 a7bd
00000080: 5c63 7ebd d2ec 00be b152 583c 1b3a 203d
00000090: d4a1 a83d 1d7f fabc 2d10 b8bd c4c8 c43c
000000a0: 2297 ecbd 5517 f5bd a1e9 f0bd 0f3e a83c
000000b0: a484 a73c 5e63 a03d cff0 8a3d a90a 8bbd
000000c0: 1913 423d 8e99 a1bd 3414 b33d f2a4 bfbd
000000d0: 21f3 81bd ce25 243d 4125 cabd f91c 493d
000000e0: d7f1 64bd 7565 ce3d a1d3 03be 20ae ed3d
000000f0: a7b4 113d 38f8 01bd a0d5 2b3d f591 c7bd
00000100: 5173 febd bc6b e5ba 7ead edbd ba73 2ebd
00000110: b03d 833d 2175 3d3e 8daf 823d 6723 623d
00000120: 1b43 08be e5d1 8e3d ae18 11bd 594c 803d
00000130: 3cf0 013e 1a4d b93c c546 983d 2a05 ff3d
00000140: 627e 2fbc 4d73 14bd 9fe1 ac3d 5125 b3bd
00000150: 4768 313d e26b 1fbd d0bf 303d 8b69 24bd
00000160: fabc 073c 97b3 09bd 5e4a 143e b4d7 5fbd
00000170: 3fd6 133d 2408 153b 18c3 f6bd 6ea4 bc3d
00000180: 54ba 8dbd 2c9f fcbc d6fc 023e 69cb 94bd
00000190: bf0c b83d 2102 a8bc 5a7c a5bd f055 21bd
000001a0: 082a 7c3d 6ec3 fdb9 c328 123d 1203 debd
000001b0: d0a5 dcbd f3ac 4abd 4a81 e3bc 3332 6d3d
000001c0: 3b2a c63d 1943 843b 2ccd ccbd d91f 79bd
000001d0: a9cb 22be 1cee cdbd 82d1 e2bd 0bcd 853d
000001e0: 605a 0cbe 8192 0cbd 19c6 55be 81d6 753d
000001f0: 7e03 3ebd 34c0 933d 56e4 c33b 54b9 363d
00000200: 1116 963e 0576 efbc 1ea2 00be 4469 ad3d
00000210: 7fb4 be3d ac00 76bd 4a75 543d a930 26bd
00000220: 398c 803d 8d78 2dbe 0eea 063e 7059 2a3d
00000230: f88e b4bc 806e ae3d 5efa 91bd 3c8f 93ba
00000240: 5b7b 2bbd 0271 d53d 37a7 f9bc 5fc9 3d3d
00000250: 7134 79be a128 8e3d ab69 efbc 96c5 923c
00000260: 38a2 4fbd f6a4 b23d 3cf4 a5bc 4108 64be
00000270: 1227 273e 89dd 6fbe 4928 463e 6f67 6dbd
00000280: a9f2 593e eb66 b13d 5137 e3bd e531 8c3d
00000290: ca77 303d 5f0b 223e 6e76 51bb d1de dd3d
000002a0: 6b27 f83d 50de dd3d d42c d83c f362 6cbd
000002b0: fa92 963d 0ec5 1abd e9af fc3b 84a0 01bd
000002c0: 22ce 173e fb10 84be 3c0d cc3d 72eb cb3d
000002d0: 06c2 02bd 31cf d0bd f87c 86bc 904c c33d
000002e0: 18bf 983c e312 97bc e136 7ebd 25b4 ddbd
000002f0: 77d2 92be 7168 4b3d d5ed 713e b469 67bd
00000300: 12e6 653e 0e9f 89bd 24ef 6e3d b246 f03d
00000310: 147d cdbd 28fe 67bb fcc6 0bbd 7e2f dcbd
00000320: 98c0 fb3c 8954 023c 022e 2ebd 6e8b bd3d
00000330: 14f7 603d 1d96 50bc d318 35be 2f75 22bd
00000340: 56be 5c3e cfdb 1d3e c541 b1bd d378 433d
00000350: 26d8 933d 334e 88bc 86d4 163e 8389 563e
00000360: 4dad e1bd e24f fa3c efda 6ebe 7e7a f83d
00000370: 7b9e 33be 2da8 2cbe 4c85 443e b142 543d
00000380: c762 c7bd 1655 e23d 9e45 bcb9 195a 4a3e
00000390: 8121 913c cc81 b83d c05c 6e3d 156f 083e
000003a0: 2cf6 febc f16a 28bd a40d 893d 2297 133d
000003b0: d956 32be 8414 823e 7d09 b5bd bf2b 053e
000003c0: 2cbe 993e 804e bc3d b074 c2bd 2803 01be
000003d0: ea6f ab3c 505d 74bd 4dde ab3d c16b 0dbd
000003e0: 4a5f 1a3e 1068 ea3d a46e 9e3e d194 9b3d
000003f0: 4783 b0bd bb2d c23d 59fb 13bd 18d3 a13e

fully_connected_layers.2.bias f4 [100]
-0.09167731 0.1311976 0.16549355 -0.06557189 0.10565157 -0.032904543 0.2871785 -0.012895573
0.13949333 -0.09746609 0.17530566 -0.11155069 0.14683747 -0.07702813 -0.08176903 0.13419038
-0.02265641 0.03420331 0.19569378 -0.027757324 0.2860309 0.05789835 0.11644168 0.31330296
-0.0886283 0.021044228 -0.031182336 -0.026247583 0.099437684 -0.115876 0.37947622 -0.075540565
0.024449375 -0.06138899 0.407827 0.043622468 0.07161386 -0.10103628 0.16048011 -0.07971144
-0.09159709 0.3569396 -0.07790565 -0.09089865 -0.118720144 -0.13925694 -0.14279786 -0.08317037
0.31107205 -0.06780955 0.010003741 0.27517128 0.066112004 -0.05255596 -0.053294178 0.18060525
-0.12543647 -0.10038577 -0.095749415 0.35885635 -0.0069647226 -0.09292402 0.10199406 0.082568675
-0.08490929 0.06107462 -0.091438964 -0.04446458 0.07324103 -0.053254 -0.01684307 0.3359487
-0.14822164 -0.11956037 -0.088389 -0.096426524 0.43280613 0.047056448 0.2344496 0.056575246
0.064280696 -0.07368289 -0.047341727 0.117195256 0.10310062 -0.056830466 0.33438957 0.07915473
0.33318904 -0.029802669 -0.09012007 0.23583324 -0.066664465 0.28025022 0.2059011 0.15907319
0.1846396 -0.061389297 -0.09380299 0.08786148
00000000: 50c1 bbbd aa58 063e 2477 293e 8e4a 86bd
00000010: da5f d83d eac6 06bd 0f09 933e f447 53bc
00000020: 57d7 0e3e 4d9c c7bd 5483 333e b074 e4bd
00000030: 905c 163e edc0 9dbd 8576 a7bd 3469 093e
00000040: ef99 b9bc c518 0c3d f363 483e 5463 e3bc
00000050: a472 923e d226 6d3d fa78 ee3d 3f69 a03e
00000060: c182 b5bd f264 ac3c 1972 ffbc 2c05 d7bc
00000070: fca5 cb3d 6550 edbd b54a c23e 03b5 9abd
00000080: 0e4a c83c 0673 7bbd b3ce d03e 79ad 323d
00000090: 4aaa 923d 1cec cebd e654 243e c03f a3bd
000000a0: 4197 bbbd cac0 b63e ff8c 9fbd 1229 babd
000000b0: 8c23 f3bd 5f99 0ebe 9a39 12be 3a55 aabd
000000c0: d644 9f3e bcdf 8abd bbe6 233c 40e3 8c3e
000000d0: bb65 873d eb44 57bd ff4a 5abd 95f0 383e
000000e0: 6b72 00be 0e97 cdbd 4518 c4bd 05bc b73e
000000f0: 5438 e4bb f34e bebd 43e2 d03d c419 a93d
00000100: ece4 adbd 6129 7a3d 5a44 bbbd 7e20 36bd
00000110: 65ff 953d de20 5abd 7afa 89bc 7801 ac3e
00000120: 6ac7 17be 11dc f4bd 4b05 b5bd 457b c5bd
00000130: c498 dd3e 43be 403d 8e13 703e 72bb 673d
00000140: 99a5 833d 0ee7 96bd 66e9 41bd 1104 f03d
00000150: 6b26 d33d 10c7 68bd 1c35 ab3e e01b a23d
00000160: c197 aa3e ba24 f4bc df90 b8bd 457e 713e
00000170: 6187 88bd f57c 8f3e bdd7 523e 15e4 223e
00000180: 2a12 3d3e 5873 7bbd c81b c0bd b8f0 b33d

fully_connected_layers.4.weight f4 [5, 100]
0.0598485 -0.15824634 0.21254836 -0.1714896 -0.45535624 0.0079752095 0.11125032 -0.024712456
-0.6477394 0.0126849655 -0.8048256 -0.0015695156 -0.5211212 -0.011924446 -0.015230002 -0.2673477
0.08480472 -0.5944821 -0.0353448 -0.04015214 1.1698247 0.051255837 -0.6563795 0.08706849
-0.04021651 -0.17247196 0.028883765 -0.05079484 0.15642299 -0.0017658225 0.42531163 0.07590299
-0.41841465 0.07508657 -0.2403099 0.049766533 -0.07014517 0.05338249 0.4505088 -0.35249233
0.08445384 0.7568155 0.06976629 0.048739217 -0.07032709 0.007705477 0.13504492 -0.10356179
0.61638033 -0.08177775 -0.34674817 0.83685154 0.09116764 0.0927814 0.02746129 0.07417776
0.041116826 0.0100629935 0.01536932 -0.36910823 -0.23040009 -0.09673726 -0.040793043 0.57668704
0.0505056 -0.3681092 -0.008494007 -0.18256538 -0.03843232 -0.08179673 0.42487514 0.21064234
-0.0013259873 -0.038817357 -0.06644871 -0.00605371 0.24885699 0.15516405 -0.18326725 -0.043727748
0.3255604 -0.14009175 0.05546539 0.10712159 0.29619783 -0.098284334 0.6357313 0.07043418
0.009907362 0.05394795 0.0652189 0.47417313 -0.5811552 0.40975806 -0.69642305 -0.07100236
-0.046748072 -0.18875173 0.0177653 -0.16524498 0.0791286 -0.28450286 -0.19007815 0.5308337
-0.40182152 -0.081469506 -0.096018665 0.015979266 0.3501147 -0.058553144 0.62459224 -0.078043856
0.29313222 -0.0005795608 -0.05935025 -0.036195457 -0.043199226 0.62056106 -0.31491995 -0.16753049
-0.18156189 -0.089677595 0.54681706 -0.19395067 -0.008403951 -0.031762015 -0.057054866 0.075237945
0.71077144 -0.07897654 -0.70261395 0.076376066 0.18808886 0.06886369 -0.7947777 -0.22333615
0.5092394 -0.03226774 -0.20408791 0.42704067 0.086029306 -0.57757616 0.16316544 0.003339018
-0.07632286 0.041130383 0.7115894 0.11528944 -0.59304243 -0.09689635 0.41034696 0.21828735
-0.23244926 0.194026 -0.0588956 -0.13254641 -0.098656744 -0.06703504 -0.08687705 -0.38630936
0.36629146 0.017548332 -0.12748991 -0.14473943 -0.09201356 0.11866216 -0.010516298 0.039336607
0.040711977 -0.089326106 -0.15815952 -0.728374 0.06595838 -0.005938101 0.003661108 -0.07851505
-0.6082746 -0.20891035 0.557284 0.30277658 -0.28148696 0.050491143 -0.029821897 -0.26493204
-0.25877786 -0.08502829 -0.33254358 -0.21720046 -0.60900545 0.113531046 0.03511424 -0.39201808
0.5672417 -0.26496905 -0.33650577 0.2554185 0.116857275 0.11868278 -0.028075676 -0.27458844
-0.07127166 -0.07194887 0.43734455 -0.29214406 0.1373382 0.078594826 0.24619122 0.062579095
0.06300263 -0.044920497 0.28325287 -0.046614707 0.4192657 -0.06699941 0.01445214 -0.0470339
0.049686577 0.18253168 -0.18958437 -0.07370875 -0.670892 -0.01492483 0.60408586 0.20996001
-0.02222395 -0.19277562 -0.2650357 -0.08077826 -0.3904867 -0.044391803 0.4251304 0.06272418
0.22501715 0.01319412 0.6937242 0.12810504 -0.11399358 -0.04032962 -0.035648447 -0.23148946
-0.089714244 -0.68164766 -0.13262525 -0.114276595 -0.025703825 -0.012271238 -0.41394222 -0.0037989495
-0.30081242 -0.04645121 0.5508356 -0.1312291 0.11462626 0.0089123 -0.07667539 -0.21085176
00000000: b323 753d 540b 22be 47a6 593e f89a 2fbe
00000010: 7424 e9be 74aa 023c 35d7 e33d c771 cabc
00000020: 40d2 25bf 9ad4 4f3c 0d09 4ebf 34b8 cdba
00000030: 3368 05bf c05e 43bc 4287 79bc cce1 88be
00000040: 19ae ad3d fb2f 18bf b6c5 10bd 9276 24bd
00000050: d1bc 953f a4f1 513d 7d08 28bf f750 b23d
00000060: 11ba 24bd 7d9c 30be a59d ec3c 400e 50bd
00000070: 592d 203e 2c73 e7ba 72c2 d93e 0773 9b3d
00000080: 723a d6be fdc6 993d cc13 76be fed7 4b3d
00000090: 45a8 8fbd 99a7 5a3d 17a9 e63e e079 b4be
000000a0: 23f6 ac3d a9be 413f a1e1 8e3d c6a2 473d
000000b0: a607 90bd 3a7e fc3b 3749 0a3e 3418 d4bd
000000c0: 1acb 1d3f 187b a7bd fa88 b1be e73b 563f
000000d0: 1ab6 ba3d 2d04 be3d 80f6 e03c 82ea 973d
000000e0: 1e6a 283d 41df 243c 9acf 7b3c c1fb bcbe
000000f0: 00ee 6bbe 2f1e c6bd 9b16 27bd c3a1 133f
00000100: f6de 4e3d cf78 bcbe 732a 0bbc 6bf2 3abe
00000110: 356b 1dbd 0b85 a7bd 3c89 d93e a0b2 573e
00000120: c0cc adba f3fe 1ebd 4316 88bd 335e c6bb
00000130: 5ed4 7e3e 53e3 1e3e 69aa 3bbe de1b 33bd
00000140: daaf a63e 3674 0fbe ad2f 633d 9062 db3d
00000150: 3ea7 973e 4c49 c9bd 49bf 223f cc3f 903d
00000160: 7d52 223c 87f8 5c3d 7d91 853d d2c6 f23e
00000170: 96c6 14bf cfcb d13e c848 32bf af69 91bd
00000180: e87a 3fbd 2248 41be 8988 913c fb35 29be
00000190: 2d0e a23d 5caa 91be d9a3 42be b8e4 073f
000001a0: 8dbb cdbe 7cd9 a6bd 6fa5 c4bd f3e6 823c
000001b0: 3c42 b33e 6cd5 6fbd 47e5 1f3f 75d5 9fbd
000001c0: 6d15 963e abed 17ba 3f19 73bd b041 14bd
000001d0: acf1 30bd 17dd 1e3f 303d a1be 1d8d 2bbe
000001e0: 5ceb 39be e3a8 b7bd 34fc 0b3f 019b 46be
000001f0: bab0 09bc e318 02bd 5db2 69bd 5a16 9a3d
00000200: 1ef5 353f 74be a1bd 82de 33bf 0e6b 9c3d
00000210: 5e9a 403e 6808 8d3d 8d76 4bbf 3bb2 64be
00000220: 835d 023f 2e2b 04bd 6cfc 50be 13a5 da3e
00000230: 2230 b03d 08dc 13bf d714 273e 6dd3 5a3b
00000240: 294f 9cbd 5578 283d b92a 363f df1c ec3d
00000250: a1d1 17bf 9871 c6bd ff18 d23e b886 5f3e
00000260: 2e07 6ebe c0ae 463e 833c 71bd 3fba 07be
00000270: 8c0c cabd ab49 89bd 98ec b1bd 57ca c5be
00000280: 8e8a bb3e 85c1 8f3c b78c 02be 9336 14be
00000290: 9b71 bcbd 2605 f33d 8d4c 2cbc 6c1f 213d
000002a0: 9ac1 263d 9bf0 b6bd 92f4 21be b876 3abf
000002b0: 3015 873d 6794 c2bb 33ef 6f3b 80cc a0bd
000002c0: e2b7 1bbf 98ec 55be 2aaa 0e3f 8805 9b3e
000002d0: 0f1f 90be cdcf 4e3d 0d4d f4bc 2ca5 87be
000002e0: 887e 84be 5023 aebd 2743 aabe cc69 5ebe
000002f0: c8e7 1bbf f782 e83d f3d3 0f3d 98b6 c8be
00000300: c136 113f 06aa 87be 7c4a acbe 37c6 823e
00000310: de52 ef3d f50f f33d f6fe e5bc db96 8cbe
00000320: e0f6 91bd ee59 93bd a0eb df3e e893 95be
00000330: 63a2 0c3e 53f6 a03d 8d19 7c3e 7829 803d
00000340: 8607 813d 8efe 37bd 8506 913e 10ef 3ebd
00000350: fea9 d63e fd36 89bd abc8 6c3c 9ea6 40bd
00000360: 2784 4b3d 96e9 3a3e 6822 42be 9df4 96bd
00000370: 94bf 2bbf 4687 74bc 5fa5 1a3f c2ff 563e
00000380: 000f b6bc f966 45be c2b2 87be 136f a5bd
00000390: dfed c7be 2ed4 35bd b1aa d93e 8975 803d
000003a0: e56a 663e 262c 583c e997 313f f82d 033e
000003b0: 7775 e9bd ac30 25bd 1b04 12bd 930b 6dbe
000003c0: 1abc b7bd 7680 2ebf eace 07be d909 eabd
000003d0: d490 d2bc 4d0d 49bc 3cf0 d3be ccf7 78bb
000003e0: 1604 9abe a043 3ebd 9003 0d3f ec60 06be
000003f0: 2cc1 ea3d e504 123c fd07 9dbd 86e9 57be

fully_connected_layers.4.bias f4 [5]
0.3292332 -0.28623536 -0.18127735 -0.144605 0.15734185
00000000: 4191 a83e 718d 92be c5a0 39be 5513 14be
00000010: 391e 213e
