Assignment 3/Dataset1a/Dataset2/WithoutPCA/mlffnn/mlffnn_model_6.pth (torch, 43726 bytes, 6 tensors)

fully_connected_layers.0.weight f4 [60, 81]
0	0xbd51258c	-0.051061198
1	0xbcb88080	-0.022522211
2	0xbcb7ee7c	-0.022452585
3	0xbd5237ab	-0.05132262
4	0xbbf4db75	-0.0074724504
5	0xbd5cc18f	-0.05389553
6	0xbdb11790	-0.08647072
7	0x3d3f8a93	0.046763014
8	0x3d71be0f	0.059019145
9	0xbd89a3b2	-0.067206755
10	0x3dd71b2b	0.10503229
11	0x3cce5f25	0.025191853
12	0xbc81805f	-0.015808282
13	0x3dcbee7a	0.09957595
14	0x3dd16001	0.102233894
15	0x3da3dbc3	0.080009006
16	0xbce00caa	-0.027349789
17	0x3d8d1897	0.06889456
18	0xbd53e675	-0.051733453
19	0x3d82c75b	0.0638568
20	0x3dad7cb4	0.08471051
21	0xbd97cfb5	-0.07412664
22	0xbd03fe66	-0.032225035
23	0xbddca30b	-0.107732855
24	0xbcaa0b78	-0.020757422
25	0x3d64a929	0.055825386
26	0xbdb5ffbe	-0.088866696
27	0x3d524869	0.051338587
28	0x3db7237a	0.089423135
29	0xbc5ae836	-0.013361027
30	0x3d590a83	0.05298854
31	0x3cddb77c	0.027065031
32	0x3daed9e9	0.08537657
33	0x3dbb5424	0.09146908
34	0xbc84cf8b	-0.016212245
35	0xbd7e7871	-0.06212658
36	0xbd3e2578	-0.04642245
37	0x39f40fe9	0.0004655116
38	0x3d6419a5	0.05568852
39	0xbbb2679c	-0.00544448
40	0x3d0fecb7	0.03513786
41	0xbd464657	-0.048406925
42	0x3c85681f	0.016285
43	0xbb75b003	-0.0037488944
44	0xbd8541db	-0.065067016
45	0xbda2320b	-0.07919701
46	0x3c1f7e4e	0.009734703
47	0xbb93e7d6	-0.004513721
48	0x3dbefebd	0.09325931
49	0xbd8dfa0e	-0.0693246
50	0xbdd4c5d1	-0.10389293
51	0xbcd88eca	-0.026435275
52	0x3c895c94	0.016767778
53	0x3dda7e50	0.106686234
54	0xbc1b4dc5	-0.009478991
55	0xbd01c06a	-0.03167764
56	0x3d71e638	0.059057444
57	0xbde07db9	-0.1096148
58	0x3ce95435	0.028482536
59	0x3d05de51	0.03268272
60	0xbca24a71	-0.019810887
61	0xbde0120a	-0.10940941
62	0x3bd6da46	0.006556782
63	0xbde09f2e	-0.10967861
64	0xbd582048	-0.05276516
65	0x3b938c57	0.004502814
66	0x3da6b50d	0.081400014
67	0xbd4fcf2d	-0.050734688
68	0x3daeb9fa	0.08531566
69	0xbda971b2	-0.08273639
70	0x3d0afcaa	0.033932365
71	0x3d884e7f	0.06655597
72	0xbd23a3b0	-0.039951026
73	0x3c2b572f	0.010457798
74	0x3db8390a	0.08995254
75	0x3db3ae62	0.08773495
76	0x3ae6c16a	0.0017605249
77	0xbc802523	-0.015642708
78	0xbd1fe0c8	-0.039032727
79	0xbdc2e861	-0.09516979
80	0xbd97e5b3	-0.074168585
81	0xbcf30b75	-0.02966855
82	0x3d63f948	0.055657655
83	0x3de5e911	0.112260945
84	0x3dc43c32	0.09581794
85	0x3ddcb603	0.107769035
86	0x3dd65312	0.10465063
87	0x3e00050a	0.12501922
88	0x3d5aa4a1	0.05337966
89	0x3d88cd27	0.06679755
90	0x3d78007b	0.060547333
91	0xbd51db6e	-0.051234655
92	0xbb819ec1	-0.0039556925
93	0xbd2a7a65	-0.04162063
94	0xbd9d0d9a	-0.0766861
95	0xbae9d8a2	-0.0017841051
96	0x3d770127	0.060303833
97	0x3ce99d3d	0.02851736
98	0xbd0c7518	-0.034291357
99	0xbc1a6150	-0.009422615
100	0x3d194600	0.037420273
101	0xbcb5797a	-0.022152651
102	0xbd7152df	-0.058916923
103	0x3ca865cf	0.020556359
104	0xbdbf205d	-0.09332345
105	0xbd39abad	-0.04532974
106	0x3c39880f	0.011323943
107	0x3d637b1d	0.05553733
108	0x3d8ea946	0.0696588
109	0x3cb9fd21	0.02270371
110	0xbd3b4e94	-0.045729235
111	0x3c399fa7	0.011329568
112	0x3ce2bb2b	0.02767714
113	0x3db03b3d	0.08605049
114	0x3dd073c5	0.10178331
115	0x3de1afaf	0.11019837
116	0xbd75f5c6	-0.06004884
117	0xbd314cea	-0.04328624
118	0xbdaa2293	-0.08307376
119	0x3d6bb966	0.057549857
120	0x3d989bb1	0.07451571
121	0x3df71e37	0.1206631
122	0xbd0aa863	-0.033851992
123	0x3cf9aaaf	0.030476896
124	0xbb103d4e	-0.0022009197
125	0x3d37b64e	0.044851594
126	0x3db5582d	0.08854709
127	0x3d211219	0.0393239
128	0x3c6f9f67	0.014625407
129	0x3cd75f0f	0.026290445
130	0x3da5b96c	0.08092007
131	0x3d7acf76	0.061233006
132	0xbd9db621	-0.07700754
133	0x3cbc11f0	0.022957772
134	0x3d3814ba	0.04494164
135	0xbdb191e4	-0.086704046
136	0x3d09f1b5	0.033677775
137	0x3d671b8f	0.056422766
138	0xbdc0af15	-0.09408394
139	0x3da2d18d	0.07950125
140	0xbd8e69dd	-0.069537856
141	0x3c9fe1ff	0.019516943
142	0x3ddd619b	0.108096324
143	0x3cb93351	0.022607477
144	0x3dc3c6cc	0.09559402
145	0x3d0eaee3	0.034834754
146	0xbd88ff1b	-0.066892825
147	0x3d4338e7	0.04766169
148	0xbd8d7a9a	-0.0690815
149	0xbbc26de1	-0.0059335087
150	0x3d45a280	0.048250675
151	0x3d66dd14	0.05636318
152	0x3dec0fb2	0.11526431
153	0x3d10a6a4	0.03531517
154	0xbdbd521e	-0.09244178
155	0x3dd4c2b6	0.10388701
156	0x3d56e3a0	0.052463174
157	0xbcf61160	-0.030037582
158	0x3d1b7aaa	0.03795878
159	0x3d0bec94	0.034161165
160	0xbd3a967f	-0.04555368
161	0xbdaf05a6	-0.08545999
162	0xbdc7e50a	-0.097604826
163	0xbd83fa50	-0.06444228
164	0x3c5fc178	0.013656966
165	0xbd1f200f	-0.038848933
166	0xbe3f7756	-0.18697867
167	0xbe13247a	-0.14369383
168	0x3dee1399	0.11624832
169	0x3d10c7c1	0.03534675
170	0x3cbe5a48	0.023236409
171	0xbda4333e	-0.08017586
172	0x3de43c3b	0.111443006
173	0xbdb83994	-0.08995357
174	0xbe0e0387	-0.13868533
175	0xbde12b0e	-0.1099454
176	0x3d88583d	0.06657455
177	0x3a5a753d	0.000833351
178	0xbda09afc	-0.07842061
179	0x3c8e51e3	0.017373031
180	0xbe246e11	-0.16057612
181	0xbe8d81ff	-0.27638242
182	0x3d25bb98	0.040462106
183	0xbd8ca9ab	-0.06868299
184	0xbe3a860f	-0.18215202
185	0xbdbc1c69	-0.09185106
186	0xbe96e718	-0.29473186
187	0xbd451ab6	-0.048121177
188	0xbde5e05a	-0.11224432
189	0xbcbf709a	-0.023369122
190	0x3dd251c7	0.10269504
191	0x3dc3528a	0.095372275
192	0xbdfb066e	-0.12257086
193	0x3e2da3fd	0.16957088
194	0xbb3cf2fe	-0.0028831358
195	0x3e55fe99	0.20897903
196	0x3e3e9add	0.18613763
197	0x3df29829	0.118454285
198	0x3da2bef4	0.07946578
199	0xbdb11c37	-0.0864796
200	0xbdf1feb9	-0.118161626
201	0x3df091ea	0.11746581
202	0xbdbe348a	-0.09287365
203	0xbe622d9b	-0.2208771
204	0xbe0bbb36	-0.13645634
205	0x3e8e88cb	0.2783874
206	0x3e323b11	0.17405345
207	0xbe081f9a	-0.13293305
208	0x3e862295	0.2619826
209	0x3e21bc24	0.15794426
210	0x3d9f98ad	0.077927925
211	0xbe9de177	-0.3083608
212	0xbe30bbde	-0.17259166
213	0xbe6e24e5	-0.23256262
214	0x3d0574fc	0.032582268
215	0xbdc05a2a	-0.093921974
216	0xbe5b2b5e	-0.21403262
217	0xbc4b199a	-0.012396241
218	0x3dbb0c12	0.091331616
219	0xbd1902b1	-0.037356082
220	0xbeb43e66	-0.35203856
221	0x3d42a9c8	0.047525197
222	0x3dd2c893	0.10292163
223	0x3d9692cd	0.07352219
224	0xbde7bccb	-0.11315306
225	0xbe8e8f91	-0.27843907
226	0xbe2f24f0	-0.17103934
227	0x3d98732f	0.074438445
228	0xbdcf6567	-0.10126763
229	0xbe6571fe	-0.22406766
230	0x3e364a2e	0.17801735
231	0x3dfae01b	0.12249776
232	0x3d0a6918	0.03379163
233	0xbda15082	-0.07876684
234	0xbe2bc483	-0.16774182
235	0xbe837e56	-0.25682324
236	0x3e67685c	0.22598404
237	0xbe149f49	-0.14513887
238	0xbee6ae03	-0.45054635
239	0x3c810d6a	0.015753467
240	0x3cdffc72	0.027342055
241	0x3dab82dd	0.083745696
242	0xbe7454f6	-0.23860535
243	0x3c3d6d03	0.011561635
244	0xbcf36ac0	-0.029713988
245	0xbc1dfee8	-0.009643294
246	0xbcb8a35b	-0.022538831
247	0xbe482f83	-0.19549374
248	0xbd1163c5	-0.03549554
249	0x3db826a5	0.08991746
250	0xbdebe404	-0.115181
251	0xbdfae22a	-0.122501686
252	0x3e1871d0	0.14887166
253	0xbda33477	-0.07968991
254	0x3cc4a982	0.024006609
255	0x3d2ec4d1	0.042668168

fully_connected_layers.0.bias f4 [60]
0	0xbdd25637	-0.102703504
1	0xbd2cc16c	-0.04217665
2	0x3ebfacbe	0.3743648
3	0x3db5e82a	0.088821724
4	0xbd6be71e	-0.057593457
5	0xbdb96dce	-0.09054147
6	0x3c394e31	0.011310146
7	0x3d2eb837	0.04265615
8	0x3edbd974	0.4293934
9	0x3cf34f64	0.029700942
10	0xbddf9daf	-0.10918748
11	0x3f031376	0.5120157
12	0xbd046120	-0.032319188
13	0x3c7e320a	0.01551486
14	0x3ea795ea	0.32731563
15	0xbdc61af4	-0.0967311
16	0xbdd11345	-0.102087535
17	0xbe305546	-0.17220029
18	0x3ae9a8ec	0.0017826832
19	0x3ecc1633	0.39860687
20	0xbdb3cdd5	-0.08779494
21	0xbe186ae7	-0.1488453
22	0xbd83a81b	-0.06428548
23	0xbd55ff13	-0.05224521
24	0xbdd065ba	-0.10175653
25	0x3e03b763	0.12862925
26	0x3e90c9f0	0.28279066
27	0x3efd878a	0.4951747
28	0xbe255bc5	-0.16148289
29	0x3de8a876	0.113602564
30	0xbca7dfc7	-0.020492448
31	0xbe20228e	-0.15638182
32	0xbe66a12e	-0.22522423
33	0xbc067686	-0.008206969
34	0xbd69b046	-0.057052873
35	0x3d394e6f	0.045240816
36	0xbd31ea64	-0.043436423
37	0xbe87a599	-0.26493528
38	0xbed4da2d	-0.41572705
39	0xbc664e02	-0.014056684
40	0xbd2af2ea	-0.041735567
41	0xbbb63424	-0.005560415
42	0xbd998482	-0.07495977
43	0xbec8dac9	-0.3922942
44	0x3f0c260c	0.54745555
45	0x3e156f37	0.14593206
46	0xbd65a8c4	-0.05606915
47	0x3ed02958	0.40656543
48	0xbb273533	-0.0025513887
49	0xbd625dde	-0.0552653
50	0x3e949eaf	0.29027316
51	0xbd590b1c	-0.05298911
52	0xbbdedfe1	-0.006801591
53	0x3da979dd	0.08275197
54	0x3d7b7411	0.061389986
55	0xbe94eebd	-0.29088393
56	0xbd96be5d	-0.07360528
57	0x3c1e42a4	0.009659443
58	0xbdc70402	-0.09717561
59	0xbd3ac225	-0.045595307

fully_connected_layers.2.weight f4 [80, 60]
0	0x3d1472b6	0.03624221
1	0xbd9479b6	-0.07249777
2	0x3db75817	0.08952349
3	0x3d3c87ba	0.046027876
4	0xbc91290e	-0.017719772
5	0x3d06910f	0.032853182
6	0x3ce44bc2	0.027868155
7	0x3dbf86c9	0.0935188
8	0xbdd6e34b	-0.104925714
9	0x3d4d7d5a	0.050168373
10	0xbc8b1adf	-0.016980587
11	0x3e04ad27	0.12956677
12	0x3d142ab5	0.03617354
13	0x3dd45990	0.10368645
14	0x3d87aed7	0.06625145
15	0xbd5dd286	-0.05415585
16	0xbc9fc510	-0.019503146
17	0x3d2b0204	0.04174997
18	0x3c6c3ba4	0.014418516
19	0x3c813b0c	0.015775226
20	0x3d83df77	0.06439107
21	0x3d91a428	0.071113884
22	0xbd1a2f27	-0.037642624
23	0xbdeaa5bc	-0.114573926
24	0x3d4bbc0c	0.049739882
25	0xbd71d39b	-0.059039693
26	0x3db7fdd9	0.089839645
27	0xbde027ad	-0.109450676
28	0xbcd78d73	-0.026312565
29	0xbd5f820b	-0.054567378
30	0xbc346a4e	-0.011011673
31	0xbcc5e3fd	-0.024156565
32	0x3db5d0d9	0.08877725
33	0xbd052753	-0.032508206
34	0xbe01acbd	-0.1266355
35	0x3cf5577c	0.029948942
36	0xbdb3b963	-0.08775594
37	0xbd34329a	-0.04399357
38	0x3dad112e	0.084505424
39	0xbcb626f1	-0.022235366
40	0xbd87c349	-0.066290446
41	0x3da0cc1b	0.0785143
42	0x3c726e8d	0.014796865
43	0xbe0b2ff9	-0.13592519
44	0x3de09fe5	0.109679975
45	0x3ddd0571	0.107920535
46	0xbd3b2b63	-0.045695674
47	0xbc0dd06c	-0.008655649
48	0xbbd34371	-0.0064472486
49	0x3dd7213e	0.10504387
50	0xbda3508e	-0.07974349
51	0x3dd1d0f5	0.102449335
52	0xbda4443d	-0.08020828
53	0x3bbc2ab9	0.0057423976
54	0x3cda0ba6	0.026616883
55	0xbab85caf	-0.0014065708
56	0xbdb30402	-0.08740999
57	0x3d6bad0a	0.05753807
58	0xbd0cc85f	-0.034370776
59	0x3be9961a	0.007128489
60	0xbcb4382a	-0.021999437
61	0x3b6714b7	0.003526015
62	0x3e19908b	0.14996545
63	0xbcc5e495	-0.024156848
64	0xbd9adb67	-0.07561379
65	0x3bb05275	0.0053809234
66	0x3e59e4fb	0.21278755
67	0xbd1e81ba	-0.038697936
68	0xbe138c6d	-0.14409037
69	0xbe11d904	-0.14242941
70	0xbe26812f	-0.16260217
71	0xbdc4cb98	-0.09609145
72	0xbd16d352	-0.036822625
73	0x3d88e97f	0.06685161
74	0xbdb5c34e	-0.08875142
75	0xbcc454b6	-0.023966175
76	0xbb8383ce	-0.004013515
77	0xbd88ba9a	-0.066762164
78	0xbd084d58	-0.033276886
79	0x3d8ca72d	0.06867824
80	0x3c144017	0.009048483
81	0x3d084976	0.033273183
82	0x3dc6d7f9	0.09709162
83	0xbbf46db5	-0.007459367
84	0x3c8d0ce8	0.017218068
85	0xbe891eef	-0.26781413
86	0x3e39f495	0.18159707
87	0xbdc767c9	-0.09736592
88	0xbe02e64c	-0.12783164
89	0xbd80e46a	-0.062935665
90	0xbd818e5d	-0.06325982
91	0x3dd47282	0.10373403
92	0x3d9671e4	0.07345942
93	0xbdb97d81	-0.09057141
94	0xbdc034e4	-0.09385088
95	0xbdb226d1	-0.0869881
96	0x3d07f214	0.033189848
97	0xbdf86eae	-0.121304855
98	0x3e2bba0a	0.16770187
99	0xbd07642e	-0.033054523
100	0x3dd57da9	0.104243584
101	0xbe13d421	-0.1443639
102	0xbdc8af9b	-0.09799119
103	0xbc9f4c1e	-0.019445475
104	0x3d0dcc3e	0.03461861
105	0x3e082ae1	0.13297607
106	0xbe87c7b9	-0.26519564
107	0x3e4b6e4d	0.19866295
108	0x3e5e9575	0.21736701
109	0xbdb81abd	-0.08989475
110	0x3e528d12	0.20561627
111	0xbbb00320	-0.0053714663
112	0x3e04c585	0.12965973
113	0x3e17e7bd	0.14834495
114	0xbe13e7e9	-0.14443935
115	0xbe5520c4	-0.2081328
116	0xbd881e08	-0.06646353
117	0x3e4c0748	0.19924653
118	0xbe2a826c	-0.16651314
119	0xbddd3630	-0.10801351
120	0xbdef6845	-0.1168981
121	0xbcc0fe3e	-0.023558732
122	0x3b57d20c	0.0032931594
123	0x3e944172	0.2895618
124	0xbcb3ea2e	-0.021962252
125	0x3c6b4eb4	0.014362026
126	0x3e802337	0.25026867
127	0x3dbb4a00	0.09144974
128	0x3de10b93	0.10988536
129	0xbc467051	-0.012111739
130	0x3e2ebc44	0.17064005
131	0xbd86f939	-0.06590504
132	0xbd980e19	-0.07424564
133	0xbdebed8a	-0.11519916
134	0xbe07e0a3	-0.13269286
135	0xbe7b23aa	-0.24525324
136	0xbddf44c0	-0.10901785
137	0x3e07be8f	0.13256286
138	0x3ddc08b0	0.107438445
139	0xbd959198	-0.073031604
140	0x3d30d3f3	0.04317088
141	0x3e41f16c	0.18939751
142	0xbce2b01b	-0.027671864
143	0x3d095816	0.03353127
144	0x3dec7f1b	0.11547681
145	0x3ea0f11c	0.31433952
146	0xbd5159ae	-0.051110916
147	0x3d919b82	0.07109739
148	0x3d5c621b	0.0538045
149	0xbd43ce6f	-0.047804292
150	0x3daf4ef3	0.0855998
151	0xbde2ba68	-0.110707104
152	0xbce2655c	-0.027636223
153	0x3d8c4b8e	0.068503484
154	0xbd2ad8d0	-0.041710675
155	0xbe0e66a1	-0.13906337
156	0x3dea04a5	0.11426667
157	0xbe1f3109	-0.15546049
158	0x3d002363	0.031283747
159	0xbdbd8d2c	-0.09255442
160	0x3d15f376	0.036609136
161	0xbdc87ca5	-0.09789399
162	0x3d8e948c	0.06961927
163	0x3d7effe4	0.062255755
164	0x3ddb2c74	0.10701838
165	0x3b9d903a	0.004808453
166	0x3e141a3f	0.14463137
167	0x3d009c59	0.031399105
168	0x3d871647	0.06596046
169	0x3dbb20d8	0.09137124
170	0x3ca44f93	0.020057475
171	0x3d9401a7	0.07226878
172	0xbe0c48b3	-0.13699608
173	0xbd1dcf12	-0.038527556
174	0x3dd57f9f	0.104247324
175	0x3e83b4ae	0.25723785
176	0x3e28e905	0.1649514
177	0xbe6f02a8	-0.23340857
178	0x3e9619c9	0.29316548
179	0x3c2ed847	0.010671682
180	0xbd32b516	-0.04362973
181	0xbcbb1a01	-0.022839548
182	0x3e17b3df	0.14814709
183	0xbd7b2fb4	-0.06132479
184	0xbb24bc97	-0.0025136822
185	0x3d22c57a	0.03973911
186	0xbce125f9	-0.027483927
187	0x3dca96ae	0.09892021
188	0x3cc4ed10	0.024038821
189	0x3ceba0ad	0.02876314
190	0x3c8e933d	0.017404193
191	0xbdec1832	-0.115280524
192	0xbcce61da	-0.025193144
193	0xbd30a0fe	-0.043122284
194	0x3de0e998	0.109820545
195	0x3d29f8ea	0.04149715
196	0xbb334f5c	-0.0027360534
197	0x3d8f2667	0.069897465
198	0x3cd0d9d6	0.025494497
199	0x3e04d118	0.12970388
200	0x3dbf6b99	0.093466945
201	0x3e021fe1	0.12707473
202	0x3c6ef314	0.0145843215
203	0xbcd9da5b	-0.026593378
204	0xbdf2a5c9	-0.11848027
205	0xbc263fd9	-0.010147058
206	0xbd9be4f8	-0.07612032
207	0x3db934b3	0.09043255
208	0xbcd93710	-0.026515514
209	0x3d144c93	0.03620584
210	0x3da4fa76	0.08055584
211	0x3ded8abb	0.11598726
212	0xbe002b67	-0.12516557
213	0xb89fe8d1	-7.625076e-05
214	0x3d76a157	0.06021246
215	0xbd3a9491	-0.04555184
216	0xbd1d3d18	-0.03838834
217	0xbda66aa8	-0.08125812
218	0xbc278ab4	-0.0102259405
219	0xbe0258df	-0.12729214
220	0xbdd0c73c	-0.10194251
221	0x3c5545e5	0.013017152
222	0xbd38b96c	-0.045098707
223	0x3bfb1a31	0.0076630344
224	0x3b3110af	0.0027018
225	0x3c788fc6	0.015170997
226	0xbda6a82c	-0.08137545
227	0x3de060e1	0.10955978
228	0x3d44f300	0.048083305
229	0xbcd99937	-0.026562316
230	0xbd58be2a	-0.05291573
231	0x37c91fcc	2.3975874e-05
232	0x3dc14d02	0.09438516
233	0x3ce04abe	0.02737939
234	0xbd43dd69	-0.047818575
235	0x3d411c77	0.047146287
236	0x3d942f51	0.072355874
237	0xbc59c840	-0.013292372
238	0x3da804de	0.08204053
239	0x3c187374	0.00930487
240	0x3d0ffbd0	0.035152256
241	0x3d8d3aae	0.06895958
242	0x3b1826a7	0.0023216398
243	0xbdc11fa7	-0.09429865
244	0x3db10173	0.086428545
245	0x3d63b50c	0.05559258
246	0xbd383e2e	-0.044981174
247	0x3e0668b0	0.13125873
248	0x3ddb505d	0.107086875
249	0x3dd1bca3	0.10241058
250	0xbd7183a9	-0.05896345
251	0x3df1708a	0.11789043
252	0xbdf77a64	-0.12083891
253	0xbdb1de1e	-0.086849436
254	0x3d9a251a	0.07526608
255	0xbc77ff9f	-0.015136628

fully_connected_layers.2.bias f4 [80]
0	0x3d3c19db	0.045923095
1	0x3e8ee43c	0.27908504
2	0xbd0a1b7b	-0.033717614
3	0xbddc38f9	-0.10753054
4	0x3dcbf066	0.09957962
5	0x3f0f9c38	0.56097746
6	0x3e5a060f	0.21291374
7	0x3ef1cf7f	0.4722862
8	0xbd30e657	-0.04318842
9	0xbc5b471d	-0.013383654
10	0xbd0052ff	-0.03132915
11	0x3e5b505d	0.21417375
12	0xbceadaad	-0.028668726
13	0x3e3e61b8	0.18591964
14	0x3d038dab	0.032117527
15	0xbc2d33cd	-0.010571432
16	0xbc818398	-0.01580982
17	0x3dbaacaa	0.09114964
18	0xbd657401	-0.056018833
19	0xbdcd304d	-0.10018978
20	0x3ea8cd19	0.32968977
21	0x3e2c1d87	0.16808139
22	0xbd9d1625	-0.07670239
23	0x3e0ff3d9	0.14057864
24	0xbcdc748f	-0.026911048
25	0x3dd960c0	0.10614157
26	0x3e11d726	0.14242229
27	0x3d965c33	0.07341804
28	0xbd1e0264	-0.0385765
29	0xbdf25b2c	-0.11833796
30	0xba5adf61	-0.0008349326
31	0xbe254293	-0.16138677
32	0x3e189488	0.1490041
33	0x3e1c956c	0.15291375
34	0x3e84b014	0.25915587
35	0x3e9f9d9f	0.31174943
36	0xbd9d0dd4	-0.07668653
37	0x3e645702	0.22298816
38	0xbd8ec330	-0.06970823
39	0x3d02ed7b	0.03196476
40	0xbdbefa95	-0.093251385
41	0x3d94724f	0.07248365
42	0xbdd0cd19	-0.10195369
43	0x3d9e79ed	0.07738099
44	0x3e533ceb	0.20628707
45	0x3de31fea	0.110900715
46	0x3e4b887c	0.19876283
47	0xbdadc4c8	-0.08484799
48	0x3db77c60	0.089592695
49	0x3e1e29f5	0.15445693
50	0xbe4f2a6f	-0.20231031
51	0x3f390e09	0.7228704
52	0xbb979a1f	-0.004626527
53	0x3e4b5901	0.19858171
54	0x3e9d13c8	0.30679154
55	0x3e44a7c5	0.19204624
56	0xbdf89fd6	-0.12139861
57	0x3dae7f1b	0.08520337
58	0xbe03addf	-0.12859295
59	0x3dfd3022	0.12362696
60	0xbd702687	-0.058630493
61	0x3ce8ddf5	0.02842615
62	0xbe05d1db	-0.13068335
63	0x3dd917f2	0.1060027
64	0xbcc35f4f	-0.023849158
65	0xbdbf6940	-0.09346247
66	0x3e6cd957	0.23129784
67	0x3d94571e	0.07243179
68	0x3e9130c6	0.28357524
69	0xbdaaece0	-0.083459616
70	0x3e748dc2	0.23882201
71	0x3e3ba040	0.1832285
72	0x3e13a01b	0.14416544
73	0xbd5c35a5	-0.053762097
74	0x3e3ff245	0.18744762
75	0xbe666183	-0.22498135
76	0xbd9e7823	-0.07737758
77	0x3eb9270e	0.3616261
78	0xbdae843c	-0.085213155
79	0xbd8cc0f3	-0.0687274

fully_connected_layers.4.weight f4 [5, 80]
0	0x3e00d433	0.12580948
1	0x3f294918	0.6612716
2	0xbe9f9c85	-0.31174102
3	0x3d312965	0.043252368
4	0x3e9b03dc	0.30276382
5	0x3f408c1c	0.7521379
6	0xbe8c0f68	-0.27355504
7	0x3efb7901	0.49115756
8	0xbd662bb4	-0.056194022
9	0x3e376471	0.17909409
10	0xbdd695f2	-0.104778185
11	0x3ce1312c	0.027489267
12	0x3dd7e48b	0.10541638
13	0xbf17825b	-0.5918328
14	0x3eb4019e	0.35157484
15	0xbe912590	-0.2834897
16	0xbd7a944d	-0.061176587
17	0xbee22e19	-0.44175795
18	0xbd4bb1d9	-0.049730156
19	0xbec1e019	-0.37866285
20	0x3cbaea80	0.022816896
21	0xbe5419e4	-0.20713001
22	0x3de19b78	0.110159814
23	0x3aa179de	0.0012319644
24	0xbe7dbadd	-0.24778314
25	0x3e0cf337	0.13764654
26	0xbe43aa93	-0.19108038
27	0xbef2239b	-0.4729279
28	0xbe911947	-0.28339598
29	0x3d45963c	0.048238978
30	0xbd6bb84a	-0.0575488
31	0xbd36af32	-0.044600673
32	0xbdf2ebe4	-0.11861399
33	0x3d824c22	0.063621774
34	0xbd341681	-0.043966774
35	0x3f2005f1	0.62509066
36	0xbe92980c	-0.28631628
37	0x3e91a19d	0.28443614
38	0x3da51800	0.08061218
39	0x3dcca917	0.09993189
40	0x3da67435	0.081276335
41	0xbf20c1fc	-0.62795997
42	0x3cebb821	0.028774323
43	0x3e340bc9	0.1758262
44	0x3ec49122	0.38391978
45	0x3f054180	0.5205307
46	0x3f18795a	0.5956017
47	0xbdb599e1	-0.08867241
48	0xbdf7c8d4	-0.12098852
49	0x3e2cd603	0.16878514
50	0xbe8c2e50	-0.27379084
51	0x3f93754b	1.152017
52	0x3e6a6b67	0.22892533
53	0x3e551497	0.20808636
54	0xbea0a385	-0.31374756
55	0x3eaf9746	0.342951
56	0x3ee14ad3	0.440024
57	0xbd0a5637	-0.033773627
58	0x3c1e8095	0.009674211
59	0xbe1c0380	-0.1523571
60	0xbd81a711	-0.063306935
61	0xbe6bd095	-0.23028786
62	0x3e510bfa	0.20414725
63	0x3e140aa8	0.1445719
64	0xbf5fab3a	-0.87370646
65	0xbd4ea8d6	-0.050453983
66	0x3e969d50	0.29416895
67	0xbe9bc792	-0.30425698
68	0x3ef12bf5	0.4710385
69	0x3dc1565f	0.09440302
70	0xbacd9728	-0.0015685307
71	0xbe35bbd0	-0.17747426
72	0xbc3a87fb	-0.011384959
73	0xbd24c982	-0.040231235
74	0xbdc2b976	-0.0950803
75	0xbec38c9c	-0.38193214
76	0xbac84f26	-0.0015282377
77	0xbcfee188	-0.031113401
78	0xbac0ece6	-0.0014719039
79	0xbf111411	-0.56671244
80	0x3ce5de14	0.028059997
81	0x3d3c8e48	0.046034127
82	0x3e538647	0.20656691
83	0xbc9545ed	-0.01822182
84	0xbdd51614	-0.10404602
85	0xbf244375	-0.6416543
86	0xbeae6bce	-0.34066623
87	0xbf0954f7	-0.5364527
88	0xbd5bc9ca	-0.053659238
89	0xbe2f7558	-0.17134607
90	0x3d8eef35	0.06979219
91	0xbd5fd1c9	-0.054643426
92	0xbd2bcccd	-0.04194336
93	0x3e082192	0.13294056
94	0xbe887465	-0.26651302
95	0x3ed3afd4	0.41345084
96	0x3dc9ddcd	0.09856758
97	0x3edd947a	0.4327734
98	0x3ea814bc	0.3282832
99	0x3f3d7cdf	0.74018663
100	0xbf41d042	-0.757084
101	0xbf0045ce	-0.50106514
102	0x3cfb5e46	0.030684602
103	0xbdefcc1f	-0.11708855
104	0x3e942a77	0.28938648
105	0xbdeaa4b2	-0.114571944
106	0xbdd4fda8	-0.103999436
107	0xbe55f188	-0.20892918
108	0x3e921fd5	0.2853991
109	0xbc19a983	-0.009378794
110	0x3d0e6642	0.03476549
111	0x3e98e52e	0.2986235
112	0xbd5bf482	-0.053699978
113	0x3d0aacd4	0.033856228
114	0xbf21c201	-0.6318665
115	0xbe367223	-0.17816977
116	0x3e39e80e	0.18154928
117	0x3e4fa26b	0.20276801
118	0x3e0a1104	0.13483053
119	0xbd1eb66f	-0.0387482
120	0x3dae6712	0.08515753
121	0x3ea45163	0.32093343
122	0xbd9079b8	-0.07054466
123	0x3e40b8cc	0.18820494
124	0x3e143f5d	0.14477296
125	0x3dab3f9d	0.08361743
126	0xbdf44045	-0.11926321
127	0xbddac68e	-0.106824026
128	0x3ec92ac7	0.3929045
129	0xbe70d1b3	-0.23517494
130	0x3f6791cb	0.9045684
131	0xbf20ccbd	-0.62812406
132	0x3f079003	0.5295412
133	0xbe6628d2	-0.22476509
134	0x3e8e8c5a	0.27841455
135	0x3cef09f4	0.02917955
136	0x3efb8a1f	0.49128816
137	0xbe8278d4	-0.2548281
138	0xbd7a7348	-0.061145097
139	0x3d4add94	0.04952772
140	0xbda6ce6f	-0.08144843
141	0x3ddfc9e5	0.1092718
142	0x3e010b0f	0.12601875
143	0xbe71ea0a	-0.23624435
144	0x3f044162	0.51662266
145	0xbdcc319c	-0.099704
146	0xbece8d2e	-0.40342087
147	0x3c8ceee9	0.017203765
148	0xbe307493	-0.1723197
149	0xbd81f25a	-0.06345053
150	0xbe9e2d13	-0.30893764
151	0xbd25b667	-0.040457156
152	0x3d37759b	0.04478989
153	0x3d91e301	0.07123376
154	0xbe9aef38	-0.30260634
155	0x3f38eeb1	0.72239214
156	0x3c08487c	0.008318063
157	0xbf52263e	-0.820896
158	0x3daa5330	0.08316648
159	0x3f0ee780	0.5582199
160	0x3e422777	0.18960367
161	0xbd205128	-0.039139897
162	0x3c6f6f65	0.014613961
163	0x3d4bab3b	0.049723845
164	0xbd6b03d3	-0.057376694
165	0x3e0a73d7	0.13520752
166	0x3e1bdaec	0.15220231
167	0xbf24fbff	-0.64447016
168	0xbdafd532	-0.08585586
169	0x3e969909	0.29413632
170	0x3dbe0168	0.09277612
171	0x3e3fece1	0.18742706
172	0x3dce1128	0.10061866
173	0x3d07a3ed	0.033115316
174	0x3f1aa054	0.6040089
175	0xbb80fc2c	-0.003936311
176	0xbd269ebd	-0.04067873
177	0x3eb72664	0.35771477
178	0xbcfac0a8	-0.030609444
179	0x3e219da5	0.15782793
180	0x3ed39e56	0.41331738
181	0x3e087c8b	0.1332876
182	0x3c420d3f	0.011843978
183	0x3e3bc95f	0.18338536
184	0xbef747b7	-0.48296902
185	0x3eacc9e6	0.33747786
186	0x3cab0dfd	0.020880694
187	0x3e2841ca	0.16431347
188	0x3e42061f	0.18947648
189	0xbd2963b3	-0.041354846
190	0xbabc9cbd	-0.0014389973
191	0xbeb785b9	-0.3584421
192	0x3e8f6b68	0.28011632
193	0xbf136e0e	-0.57589805
194	0xbddc6f90	-0.10763466
195	0xbe4f9302	-0.20270923
196	0xbeb8a47a	-0.36062986
197	0x3eb4acae	0.35287994
198	0xbe4b9b0b	-0.19883363
199	0x3dc5859d	0.09644625
200	0x3d99bfd9	0.07507295
201	0x3ea91d28	0.33030057
202	0xbde47aea	-0.111562565
203	0xbe10bf3b	-0.14135449
204	0xbef37aea	-0.47554713
205	0xbe44ecb9	-0.19230928
206	0xbe3129b4	-0.17301065
207	0xbda76bfb	-0.081748925
208	0x3e4d805f	0.20068501
209	0x3d46a81a	0.048500158
210	0xbef18839	-0.47174242
211	0xbf3dd658	-0.7415519
212	0xbd5e389d	-0.05425321
213	0xbe4b8493	-0.19874792
214	0x3f060c0e	0.52362144
215	0xbe3ccfbb	-0.18438618
216	0xbe916417	-0.28396675
217	0x3e474403	0.19459538
218	0xbd1cf87a	-0.038322903
219	0x3f187613	0.59555167
220	0xbd07c39c	-0.033145532
221	0xbe0de491	-0.13856722
222	0xbf03aa65	-0.51431876
223	0x3ec145cb	0.3774856
224	0xbb99b37c	-0.0046905857
225	0x3ceae1a1	0.028672041
226	0xbe7341f4	-0.23755628
227	0x3dee7099	0.1164257
228	0xbea10c25	-0.31454578
229	0x3cb76e20	0.022391379
230	0xbead27db	-0.3381947
231	0x3eeff490	0.46866274
232	0x3e95e1f6	0.29273957
233	0xbdd960d2	-0.1061417
234	0xbda7ec85	-0.081994094
235	0xbdca52a5	-0.098790444
236	0x3cd94003	0.026519781
237	0x3eb650c0	0.35608482
238	0xbd0c6cca	-0.034283437
239	0x3d265952	0.040612526
240	0xbdc772f0	-0.097387195
241	0xbdbddb6a	-0.092703655
242	0xbee0c59f	-0.43900773
243	0xbe351c4e	-0.17686579
244	0xbc919f8a	-0.01777627
245	0xbedd5f6b	-0.4323686
246	0x3f58f487	0.8474812
247	0x3e88d117	0.26722023
248	0x3d83e1fb	0.06439587
249	0xbe0066bf	-0.12539195
250	0x3d8d9c1b	0.069145404
251	0x3c5dbe98	0.013534211
252	0x3cd6ba0b	0.02621176
253	0x3f47d792	0.7806331
254	0xbf2e4d65	-0.68086845
255	0x3eb5a7fe	0.3547973

fully_connected_layers.4.bias f4 [5]
0	0x3eb2b63e	0.34904665
1	0xbeaa45f9	-0.3325651
2	0x3d1f98e1	0.038964156
3	0x3dd35c4b	0.10320338
4	0xbd2a84f9	-0.04163072
