Assignment 3/Dataset1a/Dataset2/WithoutPCA/mlffnn/mlffnn_model_4.pth (torch, 33102 bytes, 6 tensors)

fully_connected_layers.0.weight f4 [60, 81]
000000 f4 ff 7a 3e ae f4 01 3e c8 d0 4b bd ff f2 f8 bc
       0.24511701 0.12690994 -0.049759656 -0.030389307
000010 ea ed cc 3d 0a 00 35 3e 8e ce 95 3e 99 3d 07 3e
       0.10006316 0.17675796 0.2925915 0.13207091
000020 a2 5d 45 3d ff 9e a5 be ab 9f 1d be 18 6e 86 be
       0.048185 -0.32347867 -0.1539294 -0.2625587
000030 30 7e 72 be 9b 8e e8 bd 82 6c d3 3d 25 05 d0 bc
       -0.23680949 -0.11355325 0.103234306 -0.025393078
000040 e0 e9 03 bc 9a 98 55 be c3 b9 8f be eb 8e 7c 3c
       -0.008051366 -0.20858994 -0.28071412 0.015414934
000050 d0 90 ea 3d 80 03 ac bd ce 18 22 3e 49 a4 13 be
       0.11453402 -0.08399105 0.15829775 -0.14418139
000060 7a 83 1c bc 23 5c ce 3d 98 84 b3 bd d8 77 5c bc
       -0.009552831 0.100761674 -0.087655246 -0.013456307
000070 a3 8a 0c bd 19 41 bc bd bb 6c 86 ba ea 53 86 bd
       -0.0343119 -0.09192104 -0.0010255793 -0.06558974
000080 b9 95 cb bd 79 c9 b4 bd a6 be 2c 3e a0 d4 fb bb
       -0.09940667 -0.0882749 0.16869602 -0.007685259
000090 cf bd 37 be b5 2e 41 be a1 11 14 3b ae 48 04 3d
       -0.179435 -0.18865474 0.0022593515 0.032295875
0000a0 e3 81 0f 3e 2d cb 5c 3d d9 d1 7e 3e a8 a5 18 bd
       0.14014392 0.0539047 0.24884738 -0.037267357
0000b0 e4 03 71 be 27 b4 4b 3e e7 88 59 3e aa 24 14 3e
       -0.2353664 0.19892941 0.2124363 0.14467111
0000c0 69 28 64 3e f8 83 c4 bd 50 ef c5 bd 64 bd 8b be
       0.2228104 -0.095954835 -0.09664786 -0.2729293
0000d0 c1 c3 65 3d f4 23 70 3a 37 37 01 be d5 12 23 be
       0.05609489 0.0009160631 -0.12618719 -0.15925153
0000e0 c3 52 10 be c0 50 20 be 52 93 93 bc e3 fa c4 3d
       -0.14094071 -0.15655804 -0.018014584 0.09618165
0000f0 d7 75 96 bd 28 71 79 bd 3d d6 2f bd f1 8b 87 3d
       -0.07346695 -0.06089893 -0.042928923 0.066184886
000100 40 db 3b be c8 53 1b be bc 86 39 be f8 45 36 3e
       -0.18345356 -0.15168679 -0.18117803 0.17800128
000110 b2 2c 70 be 2f f6 98 bc 88 a6 53 3c db 99 5b 3e
       -0.2345455 -0.018672077 0.012918122 0.2144541
000120 34 40 b4 bd 48 c6 3b 3c 06 c3 fa 3b 54 10 d1 bd
       -0.08801308 0.011460848 0.007652643 -0.102081925
000130 fc a5 a4 bd eb 8d 89 3c c3 33 32 be d2 b8 27 be
       -0.080394715 0.016791305 -0.17402558 -0.16379097
000140 cc c0 20 3e 03 94 39 bd dd a4 1f 3e 59 a0 b8 3c
       0.15698546 -0.04530717 0.15590234 0.022537397
000150 4e 63 94 bd e7 34 d7 bd bf ac 19 3d 61 65 e7 bd
       -0.07245503 -0.10508137 0.03751826 -0.11298633
000160 f8 86 d0 bc 66 4d ad bd 9e db 12 3e e0 2d a7 3d
       -0.025454983 -0.08462028 0.1434159 0.08163047
000170 f4 e3 6e 3d 1f 0a a6 3d 35 db 76 bd ec c3 f4 3d
       0.05832286 0.08107399 -0.060267646 0.11951432
000180 97 da f6 3c 2e a6 1f 3e aa 56 04 3e ed 6a 0e 3d
       0.030133529 0.15590736 0.12923685 0.03476994
000190 80 22 08 3d 3f ae 9b 3c 14 a9 38 bd 8c 93 6d bb
       0.033236027 0.019003985 -0.04508312 -0.0036251275
0001a0 28 07 ac 3d 29 e6 71 bc 53 c6 9b 3d 51 3a 2c bc
       0.083998024 -0.014764347 0.07606187 -0.010511951
0001b0 de 8a 17 3d 60 4e bc bb 29 be e6 bd f6 d9 8e 3c
       0.03699767 -0.0057466477 -0.11266739 0.017437916
0001c0 9f 45 33 3e 08 a5 ed 3b a5 69 06 3d 43 7a 08 3e
       0.17507027 0.0072523393 0.032815594 0.13327889
0001d0 a0 c9 c1 3d 9b 24 41 bd 2c 04 f1 bd bf 5e 47 be
       0.09462285 -0.04715405 -0.11768374 -0.19469737
0001e0 77 7a e3 3d 02 6e 02 3e 4f 24 86 3d f8 8b ab bc
       0.11107343 0.12737277 0.06549894 -0.020940766
0001f0 58 90 ae bd 71 23 e1 bd a6 e1 e0 bd 60 da 4c 3c
       -0.08523625 -0.10993088 -0.10980539 0.0125032365
000200 e7 69 69 3d a4 8a d1 3d 44 fd ab bc dd 4c 11 3d
       0.056985762 0.10231522 -0.02099479 0.035473693
000210 47 05 38 bd 14 db ce 3d 1e 34 8f bd 3f 71 cb 3d
       -0.044926908 0.101003796 -0.069923624 0.09933709
000220 b2 a6 92 3c 53 94 0a 3b 94 2d 5a 3e 54 11 f3 bc
       0.017901752 0.0021145537 0.21306449 -0.029671349
000230 55 3b 85 bd 1e 40 a1 3d 25 d2 f0 3d 5d 2a ef 3d
       -0.06505457 0.078735575 0.11758832 0.11678002
000240 3d a3 20 be d1 74 cb 3c 9a f9 c7 3d 8b c4 99 3d
       -0.1568727 0.024835976 0.097644046 0.07508191
000250 63 48 9c bd 21 54 97 ba 74 85 6b bd 9c 8c 3e be
       -0.07630994 -0.0011545458 -0.057500318 -0.18608326
000260 1d 21 67 be b7 20 3e bc c9 7e 96 3d f4 21 04 3e
       -0.22571225 -0.0116044795 0.07348401 0.12903577
000270 35 b4 ac bd 4d c3 86 bd 34 0d 2a be 0c 87 04 be
       -0.08432809 -0.065802194 -0.16606599 -0.12942141
000280 1e 0e e2 bd f4 3a b7 bc 3b 5d 0f bd 44 90 4d 3c
       -0.11037849 -0.022366978 -0.03500102 0.012546603
000290 43 85 8a ba 50 af 22 3c d2 c8 cd 3c 70 51 0e 3d
       -0.001056828 0.009929493 0.025120173 0.034745634
0002a0 a1 ff f0 3c 8e 6c 87 3d 64 70 a4 3d 54 c1 44 3d
       0.029418768 0.06612502 0.08029249 0.048035935
0002b0 b5 5f c9 bd ce ef 93 3c 7f 10 d8 bd 2f 87 d3 3c
       -0.09832708 0.018058684 -0.105500214 0.025821296
0002c0 39 b7 4c 3d 00 57 8d 3d 4e c5 84 3d 7a 9d 88 bd
       0.049979422 0.069013596 0.064829454 -0.06670661
0002d0 4e ae 78 bc ab de f1 3c 41 11 5f bd 45 6c 04 ba
       -0.015178276 0.029525122 -0.054459814 -0.0005051534
0002e0 61 91 4f bd 7d 82 81 bd 8f 12 e4 3d 8b 1a a6 bd
       -0.050675754 -0.06323717 0.11136352 -0.081105314
0002f0 0d e8 d3 bb c0 d3 9f 3c 07 5e 22 bd 2b aa 37 bd
       -0.0064668716 0.01951015 -0.039640453 -0.04484002
000300 4e d6 91 3c 86 34 43 3d e3 4d 16 3c 30 e8 06 3e
       0.017802384 0.047657512 0.009173843 0.1317451
000310 d9 ac 80 3d 3c 22 ba bc 56 4c 18 bd 72 5e ea bd
       0.06282968 -0.022721402 -0.037182175 -0.11443795
000320 3a 3a bb bd bd b0 1d 3d fa 4b 18 3d 41 ee 67 bd
       -0.09141965 0.03849863 0.037181832 -0.0566237
000330 2f 86 f7 3b 17 4d 4e 3d 97 cd c7 bd 86 c1 94 bb
       0.0075538377 0.050366487 -0.0975601 -0.0045396714
000340 f3 58 31 bc bc 1e c1 bc 3b a3 ab bc 01 14 9a 3c
       -0.01082443 -0.023574226 -0.020951858 0.018808367
000350 40 4d b7 bd 3c 45 f5 3d 92 f3 a5 bd f5 95 55 3d
       -0.08950281 0.11976096 -0.08103098 0.052144963
000360 e2 a1 27 3d 09 db 5f 3c ad 56 d9 bd a2 21 c6 bd
       0.040925868 0.013663062 -0.10612235 -0.09674384
000370 fe d2 eb bd 22 7d 93 bd d0 94 83 bd b3 1c b8 bd
       -0.11514853 -0.072016016 -0.06424868 -0.08989849
000380 93 92 9a bd ff 8e 0e 3c 5d bd 04 3d 92 4a 58 bd
       -0.07547488 0.008701085 0.032407153 -0.05280549
000390 d7 18 3f bc 59 27 bc bd 38 85 a4 bc 4d d4 f7 3d
       -0.011663637 -0.091871925 -0.020083055 0.1210104
0003a0 7d 5c 96 3c 1b a1 a8 bd 29 a5 a4 3d 1e d7 a4 bd
       0.018354649 -0.082338534 0.08039314 -0.08048843
0003b0 ec 6a 9f 3c c5 cc bd 3d 71 78 b8 3d c1 59 95 3d
       0.019460164 0.09267572 0.090073474 0.0729251
0003c0 b4 3c e9 3d 53 3c 9c bd 24 5f 58 3c ee 3b 95 3c
       0.11388531 -0.076286934 0.013206277 0.018217053
0003d0 30 ca 03 be e0 a4 11 be 34 4b 04 be e0 d4 15 be
       -0.12870097 -0.14223051 -0.12919313 -0.14631987
0003e0 8b d8 c3 3b e6 65 c6 bd 6e 27 ad bd 9c e6 7c bd
       0.0059767417 -0.09687404 -0.08454786 -0.061743364
0003f0 29 e8 90 bb db 30 ef 3d c7 6a ae 3b 4b ac 57 3d
       -0.004422207 0.1167924 0.0053227874 0.052654546

fully_connected_layers.0.bias f4 [60]
000000 b4 72 1c 3e db 3d 0a bd a0 04 da bc b4 bd 45 bb
       0.15278131 -0.033750396 -0.026613533 -0.0030172886
000010 63 aa 9f bd dd 4b 95 bd 00 49 8d 3e 69 8a 87 3e
       -0.077961706 -0.072898604 0.27594757 0.26472786
000020 88 13 2a 3e 56 50 4f bd 81 e7 ac 3c 07 70 26 bd
       0.16609013 -0.050613724 0.021106483 -0.04063418
000030 2c 0d d2 3e 6e 5f ab 3e b1 c3 8a 3d dc 13 b5 bd
       0.41025674 0.33471245 0.067756064 -0.088416785
000040 bf 4f 03 bd bc 28 8d be bf 2b d8 3e c7 ee b5 bc
       -0.032058474 -0.2757014 0.42220876 -0.022208584
000050 1e fe b8 bd c4 ad 82 bd 50 ea 96 bd d5 97 d0 bd
       -0.09032844 -0.063807994 -0.0736891 -0.1018521
000060 55 1c c9 bd 6a d4 f4 3e 1d 11 c1 3e d1 50 1e bb
       -0.09819857 0.4781831 0.3770837 -0.0024157057
000070 cf 23 b0 bc aa d6 a8 bc 16 29 26 3e 8b e0 ab bd
       -0.02150145 -0.020610172 0.1622661 -0.083924375
000080 0f 61 9a be 49 f4 12 3c d7 3c 1a bd f2 32 c3 bd
       -0.30152175 0.008969375 -0.037655678 -0.095312014
000090 f8 6c 4a bd 65 17 0f 3e cf 09 f3 bd 2f 65 83 bc
       -0.049420327 0.13973768 -0.11867105 -0.016039459
0000a0 bb 4f 0c 3f c6 74 5b be 5d 6f ab 3a 14 62 a8 bd
       0.5480916 -0.21431264 0.0013079453 -0.08221832
0000b0 64 31 8a 3e c8 d1 eb 3b b2 1b 02 be a9 0b 69 bd
       0.26990807 0.0071966387 -0.12705877 -0.056895886
0000c0 a6 5b 40 3e 08 16 b3 3e 40 4f bc 3e 7e 35 03 3e
       0.18784961 0.34977746 0.36779213 0.12813374
0000d0 e7 10 d3 bd b7 18 c9 bd cb 71 a5 bd bb a8 3d 3e
       -0.10305958 -0.09819167 -0.08078345 0.18521397
0000e0 4d 55 b6 bd 5e cc 8e be 62 0e b4 bd 11 55 9b 3c
       -0.089029886 -0.27890295 -0.08791806 0.018961461

fully_connected_layers.2.weight f4 [40, 60]
000000 06 b3 59 3b a2 e5 9a bd ae 3f bf 3d 61 51 8c bd
       0.0033218279 -0.0756333 0.09338318 -0.06851459
000010 65 0f fa bd c3 a4 df 3c b5 9c 38 3c 24 f1 e6 bd
       -0.122099675 0.027300244 0.011267831 -0.11276463
000020 dd 72 f1 3b a0 9d ae bd 7d b4 04 3e d0 47 b9 3d
       0.007368429 -0.08526158 0.12959476 0.090469
000030 c7 dc a2 3d d0 61 be bd 20 b4 a5 3d 5f c9 92 bd
       0.07952266 -0.09296 0.08090997 -0.07167315
000040 1f bb fe 3d 34 7e af bc 33 e8 1d 3e a0 73 90 3d
       0.12438034 -0.021422483 0.15420608 0.07053304
000050 8f 51 b1 3d 42 f3 e7 3d 9e c3 f4 3d bf 65 de bb
       0.08658134 0.113256946 0.119513735 -0.0067870314
000060 eb 03 f3 3d f6 81 05 bd af 93 a6 bd 2e e5 8e bd
       0.11865982 -0.032594644 -0.08133637 -0.06977306
000070 8a 94 51 3a 1b 27 23 3d e7 50 73 3c 55 81 00 3e
       0.00079948513 0.039832216 0.014850832 0.12549336
000080 bb a3 c8 bd f1 de f4 bb 0f a9 f0 3d 9f 51 cf 3d
       -0.09796854 -0.0074728657 0.11750995 0.1012299
000090 c2 43 0b bd 4d a8 93 3d 55 c9 b3 bd 01 1d 7c bd
       -0.034000166 0.07209835 -0.087786354 -0.061551098
0000a0 c3 21 dc 3d ed f8 d1 bd c5 1d 23 3e 6b 1e 85 3c
       0.10748627 -0.10252557 0.15929325 0.016249856
0000b0 4c 5b d9 3d 5c 7c ee bc 4a 69 7a ba 6a c4 be bd
       0.106131166 -0.029112034 -0.00095524325 -0.09314807
0000c0 1b 24 90 bd c7 d2 6b bb 48 16 7b bd 3a 70 10 be
       -0.070381366 -0.0035983787 -0.061300546 -0.14105311
0000d0 8e 06 c9 bd ea 6f 02 3e fd b3 c0 bd 7a f3 12 bd
       -0.09815703 0.12738004 -0.0940933 -0.03587673
0000e0 12 41 45 3d a4 0c f3 3b 76 ff be bd d6 fb d0 bc
       0.04815776 0.0074172784 -0.09326069 -0.02551071
0000f0 c6 eb f6 3e db ee d9 bd 4a 35 55 3d 39 aa 3c 3e
       0.48226756 -0.10641261 0.052052774 0.1842431
000100 26 3a 79 bd 1e 0b 32 3c 4c 4c 1b be be 7d 1f 3f
       -0.06084647 0.010866908 -0.15165824 0.6230124
000110 e8 2b ff 3e c6 8b c1 3d 3b cc 08 3f 93 91 9f bd
       0.49838185 0.09450488 0.5343663 -0.07791438
000120 1d 65 e4 3d 00 87 10 3a a7 b3 3c be f0 90 cb 3d
       0.11152098 0.00055132806 -0.18427907 0.09939754
000130 92 2d 1e 3e 04 50 55 bd b9 f9 1a 3e 55 b7 b7 bc
       0.15447071 -0.052078262 0.15134324 -0.022426287
000140 9d 2b e0 bc 3c ae 05 be 61 76 a8 bd 73 92 38 bc
       -0.027364546 -0.13054746 -0.08225704 -0.011265385
000150 e8 ac 40 3d 20 c6 d6 be d5 d3 7d bd 1f 3b 7d bd
       0.047039896 -0.41948032 -0.061969597 -0.06182396
000160 e2 6f dd 3d a3 52 d2 3d 64 a5 7f be ab 11 a4 3e
       0.108123556 0.10269668 -0.24965435 0.3204473
000170 ed 53 a8 3d 6c 51 72 be 04 45 79 3d 83 be af bd
       0.082191326 -0.23663872 0.060856834 -0.08581259
000180 9e 2b ff 3d 7e 68 83 3e 00 3d b9 be b1 20 d3 3e
       0.12459491 0.2566566 -0.36179352 0.4123588
000190 69 ac 7f 3e 8a e4 b3 3d 32 f8 5c bf 3e e4 46 be
       0.24968113 0.08783825 -0.86316216 -0.19423005
0001a0 23 4d 32 3d cd 82 67 3c 92 b9 75 3e 89 4b 7c bd
       0.043530595 0.014130306 0.2399657 -0.061595473
0001b0 15 ad 7a 3c da f0 6f 3e e5 97 7a 3d 2e 3a 19 be
       0.015300055 0.23431721 0.061180014 -0.149636
0001c0 8e 30 d7 be 2e 7c 02 3d a2 80 4f bd b4 23 58 bd
       -0.42029232 0.03185671 -0.050659783 -0.052768424
0001d0 46 ee 0b 3d 43 01 f8 3e f2 71 f7 3c d4 a2 bf 3d
       0.034162782 0.48438463 0.0302057 0.09357229
0001e0 55 4f da 3c 8f 6c 5e bc d7 44 6d bb 0f 69 99 3d
       0.026649157 -0.013575687 -0.0036204362 0.074907415
0001f0 b6 55 c5 3b 0d 38 b2 bd 01 da e8 bd d5 bd 66 3d
       0.0060221804 -0.08702097 -0.11369706 0.05633338
000200 17 12 2b 3e 08 81 8e 3d 03 8e ef 3d fd 4d 18 3d
       0.1670612 0.069582045 0.116970085 0.03718375
000210 d9 e9 e9 3d 40 6e aa 3d ab 61 d2 bd 23 84 99 3d
       0.11421556 0.0832181 -0.10272535 0.07495906
000220 48 da 23 bd 5d e2 02 be 5b 70 31 3e 2d 9b 4c 3c
       -0.04000309 -0.12781663 0.17328016 0.012488169
000230 79 16 de 3d 53 3b 77 bd a9 03 bc bb d8 9f f7 bd
       0.1084413 -0.06035931 -0.005737741 -0.12091035
000240 d4 21 58 3d c8 61 0c 3e 4c ed f9 3c 15 96 4f bd
       0.052766636 0.13709176 0.03050866 -0.05068024
000250 fd 5b fb 3d bb b0 81 3d 16 39 76 be dc 18 3f 3d
       0.12273405 0.06332537 -0.24045214 0.046654567
000260 23 3a 0a 3c 7d 96 86 bd ba 77 98 bd 9d ed 1a be
       0.008436712 -0.06571672 -0.07444711 -0.15129705
000270 67 5d f5 3c 93 9a 68 3e ff 6b fc bc dc 3b 42 bd
       0.029951764 0.22715215 -0.030813215 -0.047420368
000280 fd c9 77 3e 0f 38 97 3c 1d 90 d6 3e d8 be 3f be
       0.24198146 0.018459348 0.41906825 -0.18725145
000290 1f c3 e6 3d 7d 4d 02 3d 26 f3 75 3c 6c c4 b2 3d
       0.11267685 0.03181218 0.015011584 0.08728871
0002a0 cf 3c a0 bd a3 e8 a3 bd 4b 9f 90 3d 10 2d 40 bd
       -0.07824098 -0.08003356 0.07061633 -0.046917975
0002b0 57 4f 1b 3e e0 e8 8c 3d 7a 73 a3 3c d3 b2 2f 3e
       0.15166984 0.06880355 0.019952524 0.1715806
0002c0 85 c1 90 bd 17 a4 05 3c 9f 70 6a bd 27 71 d4 3d
       -0.07068161 0.008156798 -0.05723631 0.103731446
0002d0 fd 1c 11 be f3 01 26 3e 59 25 f7 3d 17 14 a3 3d
       -0.14171214 0.16211681 0.120676704 0.07962816
0002e0 70 d1 a7 3c be 35 30 3d b7 ed 5c 3e 32 36 87 3d
       0.02048561 0.043020003 0.21575056 0.06602134
0002f0 a5 37 8d 3e 67 5d ff bd 6b bc 03 3e dc 6d e8 bd
       0.27581516 -0.12468987 0.12864845 -0.11349079
000300 34 53 89 bc 76 f7 db 3e d1 8e a8 bc 34 52 b5 3d
       -0.016763307 0.42962235 -0.020575913 0.088535696
000310 6f a4 de bd cf 11 b3 be 0c 6c 5d 3e 44 0b c6 bd
       -0.10871207 -0.34974524 0.21623248 -0.096701175
000320 ce 81 3e 3d fc f1 52 bd 03 25 b8 bd 60 05 2d 3d
       0.04651051 -0.051500306 -0.089914344 0.042241454
000330 7d 99 e6 bd b7 0b 07 3f 98 5a ee 3d 73 e6 c5 bd
       -0.11259744 0.5275225 0.11638373 -0.09663095
000340 60 66 64 bc 7f 7e ba 3d 4a 2e 13 be 71 e2 1e be
       -0.013940424 0.091061585 -0.14373127 -0.15516068
000350 91 7a b1 3e c5 6d 2b 3e 64 dd 4a 3b 37 d2 34 bd
       0.34663823 0.16741093 0.0030954713 -0.04414579
000360 76 a4 7f 3c 5b 5f 18 3e 9b 29 89 3e 19 2f b9 be
       0.015603175 0.14880125 0.26789555 -0.36168745
000370 27 61 ac 3d 83 d7 26 3e dd 5b 9a 3e 02 94 e7 be
       0.08416968 0.16293149 0.3014821 -0.45230108
000380 11 b1 9b 3e d5 aa 9d bd af 2b a1 be 83 2d d7 bd
       0.30408528 -0.07698599 -0.3147864 -0.105067275
000390 39 a6 28 3e e7 60 3a 3c 74 56 3f 3d 32 68 4b 3e
       0.16469659 0.011375642 0.046713307 0.19863966
0003a0 94 5b ed bd 9a ae c4 bb 89 6d 30 bd 21 04 7c 3e
       -0.11589733 -0.0060022594 -0.04307321 0.2461095
0003b0 5d f6 fe 3d ab f7 76 3e e2 33 97 3d 11 9a 3b bb
       0.12449334 0.24117915 0.07382943 -0.0028625766
0003c0 aa b7 48 bd 27 2d 81 3e b8 bc c4 3c f8 d7 0d 3e
       -0.04900328 0.2522976 0.02401577 0.13851917
0003d0 b7 22 ef bd c8 a7 13 bd 18 1c 92 3d 33 6f 76 be
       -0.11676543 -0.03604868 0.07134265 -0.24065857
0003e0 83 18 3f be 69 55 4d 3e 80 6c 79 be b4 cb 45 3d
       -0.18661694 0.20052113 -0.24357796 0.04828997
0003f0 fc fa 7b 3e 93 95 01 3e d6 47 cd 3e 62 33 c1 bc
       0.24607462 0.12654714 0.4009387 -0.023584072

fully_connected_layers.2.bias f4 [40]
000000 65 64 c0 bc a8 57 94 3e a5 f7 8e 3d 50 aa 73 3e
       -0.023485372 0.28973126 0.06980828 0.23795438
000010 b5 c2 c4 3e 6c 44 7a 3e 61 60 35 3d 63 4b bf bd
       0.384298 0.24440163 0.044281367 -0.09340551
000020 1d b6 c6 3e 68 08 2c bc 9c 06 e6 3e e3 33 99 bd
       0.38810816 -0.010500051 0.44926918 -0.074806
000030 a6 b5 93 3e 0a f1 4c 3e 93 00 8b 3e 2a 91 82 3e
       0.28849524 0.20013824 0.27148876 0.25501376
000040 39 4f f3 bd 83 50 f2 3d f2 93 a7 bc 9b e1 5b bd
       -0.11880345 0.11831763 -0.020456288 -0.05368195
000050 a0 93 bc bd 0f f4 e6 3d 06 a2 45 3e 85 26 d3 3e
       -0.09207845 0.11277019 0.19300088 0.41240326
000060 84 5e 26 3c 08 a3 a1 bd 0e 02 a5 bd 7d ac f3 bd
       0.01015437 -0.07892424 -0.080570325 -0.11898134
000070 f5 c6 c9 bd 5b 09 a9 3c 3e a0 d7 bc 67 fa f3 bd
       -0.09852401 0.020634344 -0.026321527 -0.11912995
000080 5f 84 0d b9 b8 77 07 3d 16 69 47 3d f1 c8 b6 bd
       -0.0001349612 0.033073157 0.048684202 -0.08925045
000090 63 ce 09 3d 06 65 d4 3e ae 0d a4 3e 81 24 b4 bd
       0.03364409 0.41483325 0.32041687 -0.08796025

fully_connected_layers.4.weight f4 [5, 40]
000000 20 d8 4e be d5 2c 62 3f 68 70 a6 3c 1f 9e e2 3e
       -0.20199633 0.8834966 0.020317271 0.44261262
000010 88 2c 71 be c3 c6 bc 3d 94 e7 19 bf d2 09 ad 3a
       -0.23552144 0.09217598 -0.60118985 0.0013201779
000020 96 21 8d 3f fc 8e d7 be ae 2a 07 3f 3b 40 97 bd
       1.1025875 -0.42101276 0.527995 -0.07385298
000030 41 c7 bd 3e a8 45 b1 be da fb e4 bd bd 9f 9a be
       0.3706608 -0.34623456 -0.111808494 -0.30199996
000040 ca c5 17 be 4d 97 77 bf 12 64 09 bf d1 13 79 be
       -0.14821544 -0.9671524 -0.5366832 -0.24323966
000050 67 de 1c bd b2 99 8a 3e 39 ee 19 be 34 be 87 3f
       -0.038298037 0.27070385 -0.15032281 1.060492
000060 8f d8 bb bc 23 00 94 bd 1f 98 13 be ec a7 21 be
       -0.022930412 -0.072265886 -0.14413498 -0.15786713
000070 4c 00 ec bc 0f db c6 be ae ee d4 bd 73 91 40 bd
       -0.028808735 -0.38839003 -0.10397087 -0.04701371
000080 2f a7 57 bf 7b 06 a3 be 17 ca ff bd 5c a1 b8 be
       -0.84239477 -0.31840882 -0.124897175 -0.36060607
000090 92 80 aa bf e3 76 07 3f a1 51 60 3f 40 da 56 bd
       -1.3320487 0.5291578 0.87624556 -0.052454233
0000a0 1e b7 16 be 90 4f 70 be d1 80 1f be 9f c5 c2 3e
       -0.14718291 -0.2346785 -0.15576483 0.38041398
0000b0 ae 3a 66 bf 95 12 12 bf 27 0a 68 3f a7 0e 0b 3d
       -0.8993329 -0.57059604 0.9064049 0.03394952
0000c0 52 93 88 3d b6 1f 84 3e de 2a 1e bf cd cd 0d be
       0.06668724 0.25805444 -0.6178416 -0.13848038
0000d0 f4 bc 0a bf 3c d4 ba be 84 a6 29 3f 45 fb a7 bd
       -0.5419457 -0.36490047 0.6626971 -0.08202223
0000e0 cd bb 90 bd 72 d8 1f be 16 75 e0 3d df 3d 25 3f
       -0.0706707 -0.15609911 0.10959832 0.6454753
0000f0 c1 b2 12 bd 23 64 9a 3e 19 b2 4a bf 96 59 3c be
       -0.035815004 0.30154523 -0.79178005 -0.1839355
000100 63 ab 12 3f 64 54 00 3e d7 8b c3 3d c1 50 d9 3d
       0.57292765 0.12532192 0.09548157 0.10611106
000110 4f 18 9d 3c 9f ef d3 be a7 06 70 3d bc 3c 3d 3d
       0.01917663 -0.41393754 0.058600094 0.0462005
000120 5b 5a 55 3f d7 2c 33 be c9 a7 86 3d 3c 77 64 3f
       0.83340997 -0.17497574 0.06574971 0.8924444
000130 f5 5e 80 3f a0 7c 76 bf b0 a9 8f bf 3b 8f ee bd
       1.0028979 -0.9628391 -1.122366 -0.11648413
000140 a9 53 4b 3d 7c 8f 97 bf f6 61 b8 be 3b 02 e7 bd
       0.04964033 -1.1840663 -0.36012238 -0.11279722
000150 16 f3 01 3f fc f4 d5 3e 46 4c 0b 3f 6c 23 fe bd
       0.50761545 0.4178847 0.5441326 -0.124091
000160 ae e1 18 bf cb 12 09 3e 55 fb 29 be cf b4 14 be
       -0.5971936 0.13386075 -0.16599782 -0.14522098
000170 01 69 7d bd 76 30 40 3f 80 d9 2c 3f 9c 3c 7f 3f
       -0.061867718 0.75073946 0.6751938 0.9970186
000180 6a ce 06 3e 9e ed 6e bd 98 66 a8 bc a6 f1 90 3d
       0.13164678 -0.05833208 -0.020556733 0.07077341
000190 0b b4 97 bc 7f 3d e7 bd 75 3a ee be 8a 49 13 bf
       -0.018518468 -0.11291026 -0.46528974 -0.57534087
0001a0 d3 7b 37 be 97 0f 09 be 4a 1e b2 bd 27 e6 0d bd
       -0.17918329 -0.13384853 -0.086971834 -0.03464332
0001b0 3f 83 09 bd 29 04 ff 3d 18 3c e8 bd 58 54 ab 3d
       -0.03357243 0.12451965 -0.11339587 0.08365697
0001c0 c2 9e 1f bf 74 b6 6e 3e f1 8f 05 3f cf 6b ea be
       -0.6235162 0.23311788 0.5217276 -0.45785376
0001d0 6d 78 bf 3e 9e 63 2f 3e eb f4 bf be 2b 67 f2 3c
       0.37396565 0.17127845 -0.37491545 0.02959021
0001e0 39 97 03 3e 17 b5 69 3f fc f3 3a be f0 16 92 bf
       0.12850656 0.91291946 -0.18257135 -1.141325
0001f0 70 ef d9 be a7 02 53 3e c1 d6 00 3f 12 0f 29 bc
       -0.4256549 0.2060648 0.5032769 -0.010318534
000200 51 80 a5 bf 3b fb 1e 3f 01 07 fd be d1 78 c4 bc
       -1.2929784 0.621021 -0.49419406 -0.023983391
000210 49 a5 09 bf 94 b6 16 3f 6f 21 ec be c4 9d f2 be
       -0.5376783 0.5887234 -0.46119258 -0.4738599
000220 a2 c4 f4 bd 63 b4 91 3f 19 e3 02 3f 9e 2c b6 bd
       -0.11951567 1.1383175 0.51127774 -0.08895229
000230 1e 7b e7 bd a9 f0 55 be b4 19 01 3f d3 18 00 bf
       -0.113027796 -0.20892586 0.50429845 -0.5003788
000240 c1 26 74 3f 77 8d c6 3d e6 8f e1 bd 37 78 fe 3d
       0.95371634 0.09694951 -0.110137746 0.12425273
000250 fe 44 9b bd f7 8e ee bd 38 b7 9f 3b 20 ea fd bd
       -0.075815186 -0.11648362 0.0048741363 -0.123981714
000260 7f eb e5 3e c6 bc 69 bd c4 81 36 bf 28 d1 da 3d
       0.44906232 -0.057064794 -0.71291757 0.10684425
000270 9f b7 18 bf f7 6a 8c 3d a3 db 8f 3f 88 df f3 bd
       -0.59655184 0.068563394 1.1238903 -0.119078696
000280 bc 38 c6 3d ed 18 f1 be 3c 42 0f 3f 7f fb e3 3e
       0.0967879 -0.4708933 0.5596044 0.44527814
000290 42 cc 9a 3f 77 61 b3 3e eb 4b a5 bf 4e be 08 3e
       1.2093585 0.35035297 -1.2913793 0.13353845
0002a0 29 f5 3a 3f 00 8a 31 bf 5c 9d 15 3f db 62 2a bd
       0.73030335 -0.69351196 0.58443236 -0.041598182
0002b0 85 ab 01 3f 49 0d 43 bf f7 15 5c bf 4d 14 e6 be
       0.50652343 -0.76192147 -0.85971016 -0.44937363
0002c0 0e e0 ff 3d 9a 9c 39 ba a0 f8 42 3e 75 be 20 bc
       0.12493907 -0.00070805254 0.19040155 -0.0098110335
0002d0 cf b2 50 bc aa 61 11 be f2 e8 2d 3f b6 f6 26 be
       -0.012737944 -0.14197412 0.6793357 -0.1630505
0002e0 de 7a 6f bf c9 36 17 3c 7d 39 39 bd 72 f4 ae 3d
       -0.93546855 0.00922937 -0.04522084 0.08542718
0002f0 68 14 c9 bd 85 38 df 3e 2e cd 1e 3e 02 47 37 bd
       -0.09818345 0.43597808 0.15507957 -0.044745453
000300 db 1d b0 3e fb 48 8b be 2c 02 f1 3e 68 b4 98 bd
       0.34397778 -0.27204117 0.4707197 -0.07456285
000310 e7 0a 51 3f 29 6f a7 3e 9f f5 15 bf 2e dd dc 3c
       0.8165726 0.32701996 -0.58577913 0.026960935

fully_connected_layers.4.bias f4 [5]
000000 23 5a 19 3f d6 ca bd be c8 f0 6e be f8 b2 9a bd
       0.5990316 -0.37068814 -0.23334038 -0.07553667
000010 aa 94 08 3e
       0.13337961
