Assignment 3/Dataset1a/Dataset2/WithoutPCA/mlffnn/mlffnn_model_10.pth (torch, 56792 bytes, 6 tensors)

fully_connected_layers.0.weight f4 [80, 81]
-0.073128425 -0.18670684 -0.07379492 -0.079757094 0.03395852 -0.051042162 0.07257969 0.20233746
-0.15647614 -0.059495572 0.060852528 -0.16770552 0.010176077 -0.098051876 -0.25535387 -0.1514483
-0.2707411 -0.15583512 0.08870511 0.20591213 0.118563 0.070458084 -0.17292996 -0.030233465
-0.22505799 -0.045449927 -0.14334105 -0.19146958 -0.11853741 -0.13539472 0.070996456 0.03476849
0.14238264 0.050524537 0.024417989 -0.05870217 0.10564487 0.024652772 0.16001415 0.10464639
0.07483468 0.03227481 0.014407418 0.07290238 -0.12724657 -0.039138082 -0.24088892 0.17358626
0.19932652 0.023170399 0.17746651 -0.008365374 -0.06043877 -0.11415228 0.023790287 -0.050116584
0.17400394 0.08823089 0.083982736 -0.0016586935 -0.015946047 -0.07452524 -0.16348784 -0.03749038
0.05221086 -0.1282269 0.1017199 0.053968925 -0.08038617 0.028891886 -0.15131658 -0.1649861
0.04299824 -0.21640839 0.107213974 -0.04169311 -0.11514475 -0.08431273 0.027310697 -0.10389509
-0.07964982 -0.04535608 -0.18605365 -0.27102438 0.03225346 0.039055098 0.093295 0.019648897
-0.034876764 -0.15793087 -0.10078952 -0.11145074 -0.16595103 0.046790894 -0.024359051 -0.15546378
0.004076748 -0.057311133 0.008623322 -0.15150966 -0.13970919 0.11895159 0.04382602 -0.12699032
-0.11629906 -0.08170429 -0.14481829 -0.06218747 0.06090085 -0.038182475 0.03582501 -0.0077504907
0.053588532 0.16039906 0.0016266139 -0.02222253 -0.07585946 -0.10248393 0.007974489 0.06777724
-0.124012634 0.18469357 0.0559681 0.13812537 -0.08161987 -0.18925472 -0.09558681 -0.19640435
-0.0074102343 0.20244516 -0.030882856 -0.04843049 0.03469785 -0.084166236 -0.17808764 -0.0058930283
-0.14554308 0.08373879 0.055573236 -0.0134254685 -0.042162396 0.050182104 -0.0555921 -0.116640225
-0.16792686 -0.10870638 -0.13736194 -0.21119493 0.08749717 -0.07926929 0.025872828 -0.20180872
-0.039586145 0.024079239 -0.1843683 -0.114851974 0.06483683 -0.04975822 -0.07871308 0.083859965
-0.21094422 -0.09050751 -0.15285596 -0.19060971 -0.11924429 -0.10079014 -0.13021109 -0.081577
-0.07974685 -0.00024320348 0.058118768 0.046010576 -0.028475964 -0.06576222 0.08850134 -0.021535065
0.022289187 -0.006466338 -0.029118275 0.014653036 -0.056768004 0.09497727 -0.07112582 -0.18290131
-0.08028022 0.09356329 0.08517125 0.012908974 -0.071984276 -0.020874292 -0.10244922 -0.05361081
-0.03678067 -0.14274682 0.09384532 0.09532518 -0.038146053 -0.03952017 0.09811137 -0.091581255
-0.0022649453 -0.020792466 0.043052737 -0.09985469 -0.021647234 -0.05398438 0.0024140652 -0.030768534
-0.011773767 -0.0967059 -0.02155161 -0.07839091 0.11173541 -0.054993365 -0.11176414 -0.12910445
0.01128826 -0.024047403 0.016003601 -0.060524225 -0.042728297 -0.025472965 0.17711888 0.09871548
-0.012641881 0.004078016 -0.08457161 -0.13216077 -0.109337814 -0.043758538 0.048176706 0.076537356
-0.08004592 -0.19929826 -0.12764588 -0.015139156 0.06399162 -0.11422272 0.05489256 -0.042685166
-0.013573772 -0.034387235 -0.07328126 0.07896397 -0.15168793 -0.14370595 -0.043187574 0.06848722
-0.045530494 0.12844928 0.06937544 -0.040212385 0.027501367 -0.10013007 -8.1665894e-05 -0.075753406
00000000: 5bc4 95bd 1430 3fbe cb21 97bd b057 a3bd
00000010: 1718 0b3d 9611 51bd a9a4 943d 8d31 4f3e
00000020: 483b 20be a1b1 73bd 8040 793d ffba 2bbe
00000030: 8fb9 263c 6ccf c8bd bebd 82be 4315 1bbe
00000040: 949e 8abe 3e93 1fbe 06ab b53d a1da 523e
00000050: 28d1 f23d 544c 903d 8d14 31be 2cac f7bc
00000060: 9a75 66be b429 3abd ffc7 12be 9a10 44be
00000070: bec3 f2bd eaa4 0abe 9766 913d 6769 0e3d
00000080: c1cc 113e d1f2 4e3d 3c08 c83c b071 70bd
00000090: 565c d83d 9cf4 c93c c0da 233e d950 d63d
000000a0: ed42 993d 9732 043d 170d 6c3c d84d 953d
000000b0: ed4c 02be 414f 20bd 96ab 76be 99c0 313e
000000c0: 401c 4c3e d9cf bd3c c8b9 353e ec0e 09bc
000000d0: a58e 77bd acc8 e9bd d9e3 c23c 0c47 4dbd
000000e0: 172e 323e 66b2 b43d 24ff ab3d 8568 d9ba
000000f0: 49a1 82bc b0a0 98bd 5b69 27be 838f 19bd
00000100: 0edb 553d ea4d 03be 8652 d03d 850e 5d3d
00000110: 81a1 a4bd adae ec3c bcf2 1abe 1ef2 28be
00000120: ec1e 303d 299a 5dbe 0093 db3d 65c6 2abd
00000130: 03d1 ebbd 27ac acbd afba df3c f3c6 d4bd
00000140: 721f a3bd 4cc7 39bd d984 3ebe b5c3 8abe
00000150: 341c 043d 3df8 1f3d 7311 bf3d b9f6 a03c
00000160: f0da 0ebd a1b8 21be bc6a cebd 4940 e4bd
00000170: 11ef 29be cfa7 3f3d a28c c7bc e631 1fbe
00000180: 3e96 853b 14bf 6abd d548 0d3c 5925 1bbe
00000190: ed0f 0fbe e49c f33d ea82 333d c009 02be
000001a0: 342e eebd 9454 a7bd 3f4b 14be 4ab8 7ebd
000001b0: 2b73 793d 3a65 1cbd 3fbd 123d d4f7 fdbb
000001c0: a67f 5b3d a73f 243e 1b34 d53a 060c b6bc
000001d0: 345c 9bbd 18e3 d1bd 6ea7 023c cbce 8a3d
000001e0: 56fa fdbd 5020 3d3e ce3e 653d bd70 0d3e
000001f0: 5228 a7bd fdcb 41be 04c3 c3bd 391e 49be
00000200: 8dd1 f2bb c94d 4f3e 0bfe fcbc 0d5f 46bd
00000210: 551f 0e3d 595f acbd 9b5c 36be 4e1a c1bb
00000220: 3f09 15be 3e7f ab3d c3a0 633d 7ff6 5bbc
00000230: 7ab2 2cbd c08b 4d3d 8bb4 63bd 12e1 eebd
00000240: 05f5 2bbe 73a1 debd 9ca8 0cbe 7c43 58be
00000250: b731 b33d f057 a2bd 41f3 d33c f2a6 4ebe
00000260: 1525 22bd d341 c53c 0bcb 3cbe 8337 ebbd
00000270: 2cc9 843d 46cf 4bbd 5334 a1bd c6be ab3d
00000280: c301 58be 005c b9bd 4686 1cbe 312f 43be
00000290: 5a36 f4bd 106b cebd 0e56 05be d811 a7bd
000002a0: 5152 a3bd 7004 7fb9 f20d 6e3d 9675 3c3d
000002b0: 6d46 e9bc 58ae 86bd 3140 b53d 4e6a b0bc
000002c0: d097 b63c 93e3 d3bb 7389 eebc 4a13 703c
000002d0: 9185 68bd 7183 c23d 6aaa 91bd 7b4a 3bbe
000002e0: f569 a4bd 1c9e bf3d 446e ae3d 2980 533c
000002f0: 7e6c 93bd 9000 abbc e6d0 d1bd 0297 5bbd
00000300: 54a7 16bd 392c 12be fa31 c03d d939 c33d
00000310: 093f 1cbd e7df 21bd 9dee c83d f48e bbbd
00000320: 7a6f 14bb f654 aabc 1158 303d 9e80 ccbd
00000330: 8a55 b1bc ba1e 5dbd 4b35 1e3b 4b0e fcbc
00000340: c2e6 40bc be0d c6bd 018d b0bc 6a8b a0bd
00000350: 89d5 e43d b940 61bd 99e4 e4bd f533 04be
00000360: 65f2 383c 0fff c4bc fc19 833c 40e8 77bd
00000370: de03 2fbd aeac d0bc a75e 353e 572b ca3d
00000380: e41f 4fbc e1a0 853b e133 adbd 2755 07be
00000390: 81ec dfbd 273c 33bd f054 453d 9ebf 9c3d
000003a0: 1eef a3bd d814 4cbe 9ab5 02be 390a 78bc
000003b0: 0a0e 833d 9aed e9bd 05d7 603d a4d6 2ebd
000003c0: 8764 5ebc a1d9 0cbd 7c14 96bd ddb7 a13d
000003d0: 1554 1bbe a727 13be 74e5 30bd 0743 8c3d
000003e0: 2f7e 3abd 3588 033e b614 8e3d beb5 24bd
000003f0: 8c4a e13c fe10 cdbd 0b44 abb8 9a24 9bbd

fully_connected_layers.0.bias f4 [80]
0.36415836 0.49709916 0.37681478 0.01265567 0.22241306 0.119018264 -0.080052726 0.012541191
-0.027338762 -0.20539895 -0.06332848 0.5684181 -0.280094 -0.084458664 -0.048182845 -0.049016796
-0.06124328 -0.110875174 0.3256111 -0.012379985 0.12236678 -0.09399488 0.018353157 0.55937123
0.17820539 -0.11577129 -0.054700408 -0.09840016 -0.21049154 0.2102683 0.014503034 -0.33104104
0.07963598 0.11103331 0.016692307 -0.013173926 -0.17062367 -0.006081619 -0.14792393 -0.04072343
0.35296932 -0.061209165 -0.031674396 -0.03218725 -0.014178621 -0.07266083 0.16733716 -0.20577946
0.097104475 0.005125698 0.3101346 0.3486327 0.038712617 0.15137966 0.055789925 0.01878824
0.03176678 -0.037554894 -0.12607272 -0.058917157 -0.27385 -0.032846905 -0.0050286762 0.43775198
-0.28981215 -0.016061533 -0.08090785 0.3240101 0.31764105 -0.0070415945 -0.1674368 0.11889993
-0.0003835887 0.19297263 -0.0005500255 -0.10667389 -0.24501608 0.12715983 0.21119031 0.050196726
00000000: f772 ba3e c883 fe3e deed c03e ba59 4f3c
00000010: 40c0 633e d9bf f33d aff2 a3bd 9179 4d3c
00000020: 8af5 dfbc 1a54 52be 5db2 81bd d983 113f
00000030: 7b68 8fbe aaf8 acbd 605b 45bd d6c5 48bd
00000040: 3cda 7abd 8612 e3bd 80b6 a63e 6cd5 4abc
00000050: 6f9b fa3d 6380 c0bd 5c59 963c f432 0f3f
00000060: 797b 363e 8019 edbd 890d 60bd 0686 c9bd
00000070: 188b 57be 9350 573e 229e 6d3c 367e a9be
00000080: 3018 a33d 6f65 e33d 4ebe 883c 73d7 57bc
00000090: f9b7 2ebe 5148 c7bb 5f79 17be 9dcd 26bd
000000a0: 65b8 b43e 76b6 7abd 03bd 01bd c7d6 03bd
000000b0: 724d 68bc 34cf 94bd 6f5a 2b3e dab7 52be
000000c0: b6de c63d 79f5 a73b f6c9 9e3e fc7f b23e
000000d0: 1f91 1e3d 4503 1b3e fa83 643d cce9 993c
000000e0: e21d 023d 29d3 19bd 3519 01be 1e53 71bd
000000f0: 1136 8cbe 7a8a 06bd 98c7 a4bb 0721 e03e
00000100: 4262 94be 7a93 83bc 04b3 a5bd a7e4 a53e
00000110: d9a1 a23e 2dbd e6bb 8d74 2bbe ce81 f33d
00000120: 671c c9b9 9e9a 453e 962f 10ba d777 dabd
00000130: 7fe5 7abe 3036 023e 4642 583e 159b 4d3d

fully_connected_layers.2.weight f4 [80, 80]
0.0022359325 0.072583765 -0.10046025 0.021298336 -0.09588909 -0.012810238 -0.0179412 0.0083906315
0.078054935 0.110287234 -0.050497394 -0.002211942 -0.06832705 -0.09114795 -0.029781984 -0.022640519
-0.028752409 0.009919393 -0.037910588 -0.04378953 -0.08868969 0.056907482 -0.013287753 -0.031341136
-0.046810932 -0.06672072 0.04871168 0.071994066 0.06653982 -0.05236954 0.06188047 -0.029501615
-0.05024131 0.090446815 0.07931449 0.005742157 0.018158779 0.10610548 -0.0056946827 0.07557518
0.041467883 -0.04010455 0.032166842 0.008848262 0.016229577 -0.0641087 -0.10722887 0.09278953
-0.07001008 0.03568545 -0.07065028 -0.009328443 0.021531563 -0.06859417 -0.08963124 0.10992179
0.02903904 -0.023063857 0.10678647 -0.028070148 0.07806078 -0.09944477 -0.0021325606 -0.097356096
0.03763671 0.033336177 0.082957976 -0.06378096 0.08407142 -0.0394983 -0.080627196 -0.093779795
-0.10150736 -0.061376095 0.06700054 -0.06375858 -0.06206049 0.038751904 0.03304104 0.053302884
0.20414577 0.111715265 0.16880576 0.012382141 0.16687898 0.037478805 0.26002964 0.04363336
-0.07311446 -0.33359703 0.03391577 0.33752757 -0.25108197 0.057200946 -0.19106023 -0.18313603
-0.04178648 -0.08644397 0.08513029 0.061658952 0.03304381 0.079179764 0.08198655 0.2590061
0.15149213 -0.016029026 0.06929547 0.18626189 -0.07294221 0.040610366 -0.08132588 0.14975058
0.052827418 0.30887157 -0.28094643 0.14131196 -0.1013836 -0.10784587 -0.03955581 -0.08537812
0.1745273 -0.12990876 -0.16257314 -0.055967826 0.16731273 0.06271875 0.15636618 -0.2880101
-0.1489294 0.06907229 0.18009818 0.121358894 0.17735994 0.03235344 0.029317547 -0.07127682
0.26558957 0.19371198 -0.05272203 0.08633686 -0.13314985 -0.04374219 -0.00020549432 0.17393751
-0.09336729 -0.10865998 0.015240852 0.07853199 -0.05585828 0.22698447 -0.09069808 -0.08049601
-0.07091135 0.14143822 0.021631576 -0.10477674 -0.08512442 -0.11819198 0.075985424 0.22803518
-0.0013233287 0.06715721 0.089595236 -0.06611248 0.061431423 0.039286304 -0.09368153 0.07288877
-0.10289121 -0.08754615 0.09155405 -0.00029647787 0.07609364 -0.07486885 0.04824842 0.02934548
0.054795817 0.03603571 -0.069267176 0.09282319 -0.10470738 -0.033730038 -0.106531665 -0.070341855
0.032669414 -0.10555246 -0.019075371 0.06885641 0.06478084 -0.03770921 -0.023016844 0.064450085
-0.10234033 -0.06280367 -0.057065412 0.104231395 0.04909211 -0.061893903 0.0822647 -0.0471843
-0.04834894 0.04585172 -0.036693845 -0.011688226 -0.064763494 -0.10463904 -0.0430411 -0.1057261
-0.05855416 -0.08254683 -0.07096752 -0.057976753 0.05509975 -0.013530092 0.087552786 -0.05928531
-0.062092386 0.06423449 0.11095342 -0.08551097 0.02243956 0.032205928 -0.05286031 0.092230625
0.075756416 -0.015180038 -0.10919436 -0.09776647 -0.003755802 -0.038612094 -0.013331944 0.014160437
-0.054497994 -0.028425734 0.07455568 0.070518255 0.016626555 0.10987211 -0.036126986 0.066109404
-0.0048783273 0.032135528 -0.069312856 0.007470541 -0.03995442 0.043526094 0.02638887 -0.05826536
0.086685 -0.08398664 -0.10198327 0.15633042 -0.06313093 0.10181089 -0.13579307 -0.041244384
00000000: b988 123b cca6 943d 1bbe cdbd d979 ae3c
00000010: 8061 c4bd 08e2 51bc 6cf9 92bc dc78 093c
00000020: 44db 9f3d 46de e13d 5bd6 4ebd 3bf6 10bb
00000030: 0def 8bbd c7ab babd 59f9 f3bc 9c78 b9bc
00000040: 2c8a ebbc f384 223c 2248 1bbd a65c 33bd
00000050: f1a2 b5bd d217 693d e0b4 59bc 905f 00bd
00000060: d2bc 3fbd dfa4 88bd e685 473d a071 933d
00000070: 0746 883d 7181 56bd 6076 7d3d 5fad f1bc
00000080: d5c9 4dbd 2e3c b93d a36f a23d b428 bc3b
00000090: b8c1 943c d44d d93d 769a babb 29c7 9a3d
000000a0: 3ada 293d ab44 24bd 61c1 033d 4df8 103c
000000b0: e4f3 843c 6c4b 83bd cf9a dbbd 7008 be3d
000000c0: 7261 8fbd e82a 123d 18b1 90bd 53d6 18bc
000000d0: f662 b03c 1a7b 8cbd 9590 b7bd ad1e e13d
000000e0: 48e3 ed3c 6af0 bcbc ddb2 da3d 5ef3 e5bc
000000f0: 55de 9f3d b3a9 cbbd 6ec2 0bbb a262 c7bd
00000100: f328 1a3d 848b 083d dfe5 a93d 989f 82bd
00000110: a32d ac3d f8c8 21bd df1f a5bd 9f0f c0bd
00000120: 17e3 cfbd 8065 7bbd 9437 893d dc93 82bd
00000130: 2433 7ebd 51ba 1e3d 0b56 073d 2054 5a3d
00000140: 970b 513e f9ca e43d 6bdb 2c3e 77de 4a3c
00000150: 53e2 2a3e 6083 193d 9b22 853e e5b8 323d
00000160: 09bd 95bd 3bcd aabe 43eb 0a3d 6ad0 ac3e
00000170: d18d 80be 8a4b 6a3d 4ba5 43be 0388 3bbe
00000180: 4d28 2bbd 8909 b1bd ca58 ae3d 198e 7c3d
00000190: f258 073d 0029 a23d 90e8 a73d 739c 843e
000001a0: c120 1b3e 4e4f 83bc c9ea 8d3d 70bb 3e3e
000001b0: ba62 95bd 0e57 263d 2f8e a6bd 3758 193e
000001c0: 9061 583d 6a24 9e3e 36d8 8fbe 15b4 103e
000001d0: 34a2 cfbd 4cde dcbd 4605 22bd b9da aebd
000001e0: 49b7 323e cd06 05be 9379 26be 853e 65bd
000001f0: 0754 2b3e b072 803d 751e 203e 0f76 93be
00000200: f380 18be c675 8d3d a86b 383e 038b f83d
00000210: d89d 353e 0a85 043d 5a2b f03c 95f9 91bd
00000220: 5bfb 873e 6f5c 463e 0ef3 57bd 61d1 b03d
00000230: 6f58 08be 032b 33bd f679 57b9 ad1c 323e
00000240: 5a37 bfbd 2089 debd c4b4 793c 61d5 a03d
00000250: a7cb 64bd 9e6e 683e eabf b9bd 18db a4bd
00000260: f839 91bd 2ed5 103e b434 b13c 3095 d6bd
00000270: b655 aebd a30e f2bd 3f9e 9b3d 0e82 693e
00000280: 8b73 adba b889 893d b57d b73d fb65 87bd
00000290: 849f 7b3d adea 203d 1adc bfbd b546 953d
000002a0: a0b8 d2bd 654b b3bd b180 bb3d 9670 9bb9
000002b0: fbd6 9b3d d754 99bd 23a0 453d ef65 f03c
000002c0: 9471 603d 2e9a 133d f3db 8dbd 161a be3d
000002d0: d370 d6bd 8228 0abd 462d dabd 640f 90bd
000002e0: 5dd0 053d e32b d8bd f443 9cbc 9704 8d3d
000002f0: d1ab 843d f974 1abd d28d bcbc 68fe 833d
00000300: cf97 d1bd 369f 80bd 6cbd 69bd 4577 d53d
00000310: cf14 493d 7684 7dbd 657a a83d 5344 41bd
00000320: 8a09 46bd 03cf 3b3d 494c 16bd f97f 3fbc
00000330: b9a2 84bd fe4c d6bd dd4b 30bd ed86 d8bd
00000340: 7dd6 6fbd 500e a9bd 6b57 91bd 0879 6dbd
00000350: 47b0 613d 52ad 5dbc e04e b33d 27d5 72bd
00000360: 9654 7ebd 5f8d 833d 8c3b e33d 6020 afbd
00000370: 2bd3 b73c 5dea 033d 0d84 58bd 69e3 bc3d
00000380: 2e26 9b3d b2b5 78bc 4ba1 dfbd c939 c8bd
00000390: e723 76bb b727 1ebd 3a6e 5abc 2d01 683c
000003a0: 4a39 5fbd 16dd e8bc a6b0 983d e06b 903d
000003b0: 6a34 883c a104 e13d e4f9 13bd 5e64 873d
000003c0: 60da 9fbb 8ba0 033d e6f3 8dbd 71cb f43b
000003d0: 3fa7 23bd 6b48 323d 792d d83c a8a7 6ebd
000003e0: e887 b13d 3001 acbd 9bdc d0bd 1515 203e
000003f0: ca4a 81bd 3a82 d03d 570d 0bbe dfef 28bd

fully_connected_layers.2.bias f4 [80]
-0.10908054 0.33558077 -0.0107201785 0.07184614 0.18666738 -0.05401151 0.15082933 0.060610104
-0.013921611 -0.093600705 -0.007869413 -0.007199108 0.24450369 0.36853653 0.24524856 0.16411912
0.15885885 -0.10977152 -0.09511646 0.24439177 0.10823544 0.035062935 0.1428593 -0.105149366
0.23928341 -0.07643885 0.16279377 -0.011231615 0.36148873 -0.07267143 -0.024149237 0.33388856
0.29646832 0.19170372 -0.036941808 -0.062046465 0.011602682 0.0075510233 0.16811916 0.26468349
-0.10572196 0.0727221 -0.1129545 0.16766639 -0.07347855 0.10955918 0.13958544 -0.0998791
-0.025656855 -0.08368956 -0.050321456 0.14899637 -0.028644249 -0.02408069 0.096745625 0.1888284
-0.06887535 -0.037310973 0.10453787 0.11868531 0.11241768 -0.027686339 0.27173638 0.04512492
-0.005461533 0.3986418 0.114748634 -0.095963374 -0.06727669 0.08739313 0.10570615 0.04100622
0.28759056 0.10131172 0.24106468 0.15640406 -0.027131889 -0.091476135 -0.09847939 0.08305073
00000000: 9e65 dfbd 3ed1 ab3e b0a3 2fbc 1224 933d
00000010: bc25 3f3e 2c3b 5dbd 0173 1a3e 4d42 783d
00000020: 7817 64bc bab1 bfbd b6ee 00bc 7fe6 ebbb
00000030: 2d5f 7a3e d2b0 bc3e 7022 7b3e d80e 283e
00000040: e5ab 223e e4cf e0bd 6bcc c2bd d641 7a3e
00000050: 8baa dd3d 279e 0f3d b549 123e 8d58 d7bd
00000060: b606 753e f98b 9cbd 69b3 263e cf04 38bc
00000070: 0d15 b93e c2d4 94bd 9fd4 c5bc 71f3 aa3e
00000080: b2ca 973e fb4d 443e 4b50 17bd 6f24 7ebd
00000090: 2d19 3e3c 936e f73b 6e27 2c3e 9884 873e
000000a0: c184 d8bd 53ef 943d b054 e7bd bdb0 2b3e
000000b0: ec7b 96bd 9060 e03d 7cef 0e3e 6a8d ccbd
000000c0: 532e d2bc 6f65 abbd df1d 4ebd 8192 183e
000000d0: 58a7 eabc de44 c5bc 9222 c63d 3b5c 413e
000000e0: 850e 8dbd 64d3 18bd f317 d63d 4911 f33d
000000f0: 3e3b e63d 76ce e2bc 0821 8b3e e8d4 383d
00000100: a9f6 b2bb c71a cc3e 5501 eb3d 7288 c4bd
00000110: 5cc8 89bd 2bfb b23d 777c d83d 23f6 273d
00000120: 123f 933e 857c cf3d a9d9 763e 6328 203e
00000130: b243 debc d757 bbbd 90af c9bd 8016 aa3d

fully_connected_layers.4.weight f4 [5, 80]
-0.08647259 1.0134355 0.0971826 0.3611587 0.6306354 0.039995912 0.7631849 -0.42135578
-0.074756846 0.13050531 -0.089834265 0.37188753 0.723988 0.37493807 0.36882055 0.06258846
0.044406302 -0.030171135 0.10282431 0.5702964 0.30178225 0.015857747 -0.4736309 -0.0014845796
-0.08198934 0.05505681 0.051644802 0.012424299 0.6926731 0.03862555 -0.481311 0.5150884
0.26288515 -0.07072944 -0.082840584 0.06278133 0.15134743 0.16328385 0.19654888 0.29498076
0.07115509 -0.863279 0.12699816 0.06255174 0.081090614 -0.34630594 0.20079628 -0.10576409
-0.10521286 0.109892145 -0.80044127 -0.6046322 -0.10734188 0.089787774 -0.062298693 0.4432579
0.06658956 0.06785392 -0.10954372 -0.04800419 -0.032092944 -0.13488983 0.8215901 -0.1625474
-0.06456879 0.27159 0.13286845 0.022885574 0.048701517 -0.4313355 0.40765837 -0.4212055
-0.10210794 -0.41806334 -0.60747164 0.334793 0.0069447253 -0.05158019 -0.0970453 -0.202658
-0.012445036 -0.40616515 -0.005481836 -0.04626329 0.20056547 0.06728137 -0.3451717 0.16315359
0.06444974 0.1104366 0.052474376 0.16558065 -0.08369991 -0.8754674 -0.38203043 -0.5713742
0.29934457 0.035324406 -0.09299214 0.31476653 -0.041924015 0.5766867 0.8820304 0.024237242
-0.2563596 -0.14999814 -0.15799887 0.10199491 -0.34673724 -0.008301761 0.59715897 -0.4984224
0.20569642 -0.24142182 -0.09611258 -0.064250745 0.05248127 0.51512206 -0.23437247 0.16833061
0.08749651 0.6684939 0.34241927 -0.2812455 -0.07751092 0.12720203 -0.06586943 -0.011750354
0.10281587 0.02848373 0.5025336 -0.04842057 0.6553324 0.0416283 -0.44801813 -0.47734845
0.03625517 -0.004103559 -0.24481553 -0.16775869 0.27923933 0.10332054 -0.32714146 0.007993069
-0.027051069 -0.5826597 0.730169 0.051362205 0.049522523 -0.037744455 -0.6115626 -0.7760266
-0.16554584 0.21725829 0.015880615 -0.44353563 -0.308773 -0.051525287 0.05543286 0.51321167
-0.094442956 -0.45207357 0.026621709 0.18560928 0.14402227 0.040266417 -0.018944958 -0.053704172
-0.056989864 0.12226181 -0.039990503 -0.096697174 -0.36620766 0.15494953 -0.16924633 0.29524285
-0.38817304 0.019563964 0.01604551 -0.2650871 -0.03680174 0.055049002 -0.004648113 -0.011466548
0.616967 0.07968529 0.17775257 -0.095684364 0.041510705 -0.033135675 -0.023564046 -0.012617574
-0.6241245 -0.6175712 0.03916757 -0.10624892 0.08967022 -0.3840263 0.521762 -0.78642267
0.07835792 0.62245023 -0.09711058 -0.115921564 0.07554791 -0.1080807 -0.15409683 0.089862116
0.017011948 0.042169765 -0.05128776 0.32465398 -0.3597536 0.048746374 -0.16309908 0.12846681
0.03295173 0.021031657 0.64771664 0.098419294 0.34914994 -0.00809586 0.018827152 0.23598073
-0.042925082 -0.49489966 -0.14058565 0.04016478 -0.06979748 0.120544225 -0.05048917 0.01768165
-0.69665426 -0.29948258 0.9187101 0.24411821 0.09130798 0.102843426 0.045787238 -0.12141826
-0.06512692 -0.14058948 0.014519181 -0.08958482 -0.6435796 -0.08530715 0.29398617 -0.4975713
-0.08091564 -0.031550705 0.011530256 -0.10907476 0.24156938 -0.105969444 -0.37332875 0.41974425
00000000: 8b18 b1bd 41b8 813f ac07 c73d cbe9 b83e
00000010: 5271 213f c1d2 233d 1660 433f f2bb d7be
00000020: 1e1a 99bd 2fa3 053e 07fb b7bd 0b68 be3e
00000030: 4757 393f e2f7 bf3e 0cd6 bc3e 612e 803d
00000040: 62e3 353d 7529 f7bc 8d95 d23d f2fe 113f
00000050: 3483 9a3e 1be8 813c c07f f2be 3a96 c2ba
00000060: 07ea a7bd 4083 613d 8089 533d 498f 4b3c
00000070: 0653 313f d335 1e3d 656e f6be d5dc 033f
00000080: e298 863e 99da 90bd 53a8 a9bd 7f93 803d
00000090: d2fa 1a3e e233 273e 1c44 493e b807 973e
000000a0: c3b9 913d daff 5cbf ce0b 023e 201b 803d
000000b0: d612 a63d 034f b1be 8a9d 4d3e d89a d8bd
000000c0: d779 d7bd 220f e13d b8e9 4cbf 2dc9 1abf
000000d0: 0fd6 dbbd a7e2 b73d ea2c 7fbd b3f2 e23e
000000e0: 1b60 883d fff6 8a3d 7558 e0bd 0ba0 44bd
000000f0: e473 03bd 8f20 0abe bb53 523f d372 26be
00000100: a43c 84bd d80d 8b3e ab0e 083e 877a bb3c
00000110: 3e7b 473d 02d8 dcbe 99b8 d03e 3fa8 d7be
00000120: f81d d1bd 660c d6be 4383 1bbf fd69 ab3e
00000130: 9490 e33b c045 53bd b0bf c6bd 9485 4fbe
00000140: 44e6 4bbc e1f4 cfbe f9a0 b3bb 937e 3dbd
00000150: 0961 4d3e d1ca 893d 58ba b0be bc11 273e
00000160: 3afe 833d 962c e23d 5fef 563d f98d 293e
00000170: dc6a abbd a21e 60bf 7e99 c3be 9445 12bf
00000180: b143 993e 53b0 103d aa72 bebd 1429 a13e
00000190: 84b8 2bbd bda1 133f bfcc 613f 2e8d c63c
000001a0: 9141 83be 1d99 19be 75ca 21be b5e2 d03d
000001b0: 8b87 b1be 1c04 08bc 69df 183f 3931 ffbe
000001c0: 15a2 523e 4837 77be acd6 c4bd e595 83bd
000001d0: 9af6 563d 0adf 033f 56ff 6fbe dc5e 2c3e
000001e0: 5f31 b33d 6b22 2b3f 9451 af3e 69ff 8fbe
000001f0: 0cbe 9ebd 4041 023e 8de6 86bd 8f84 40bc
00000200: 2091 d23d b656 e93c 0ba6 003f a654 46bd
00000210: ddc3 273f 7082 2a3d a262 e5be 0467 f4be
00000220: 4d80 143d 2677 86bb ecb0 7abe efc8 2bbe
00000230: 75f8 8e3e b899 d33d 167f a7be 5cf5 023c
00000240: 349a ddbc 3029 15bf 5bec 3a3f 2d61 523d
00000250: 21d8 4a3d ee99 1abd 5e8f 1cbf aea9 46bf
00000260: d984 29be f578 5e3e 1018 823c 1a17 e3be
00000270: 7f17 9ebe 2e0c 53bd 910d 633d d761 033f
00000280: 4f6b c1bd 3076 e7be c515 da3c 5c10 3e3e
00000290: 937a 133e 66ee 243d 7532 9bbc e8f8 5bbd
000002a0: 346e 69bd 6664 fa3d 15cd 23bd 2b09 c6bd
000002b0: 927f bbbe 17ab 1e3e e94e 2dbe 122a 973e
000002c0: 9ebe c6be 9b44 a03c e071 833c 7fb9 87be
000002d0: 6cbd 16bd 107b 613d 334f 98bb 30de 3bbc
000002e0: 8df1 1d3f 0b32 a33d c504 363e 2af6 c3bd
000002f0: 2107 2a3d 46b9 07bd 6309 c1bc f1b9 4ebc
00000300: a0c6 1fbf 2519 1ebf 2d6e 203d 0999 d9bd
00000310: 05a5 b73d 189f c4be 3292 053f ff52 49bf
00000320: 1e7a a03d e658 1f3f e9e1 c6bd 4968 edbd
00000330: ddb8 9a3d 6a59 ddbd 8fcb 1dbe a109 b83d
00000340: a45c 8b3c 34ba 2c3d 1d13 52bd 0c39 a63e
00000350: a031 b8be 47aa 473d 7203 27be ce8c 033e
00000360: 65f8 063d 954a ac3c c2d0 253f 0e90 c93d
00000370: c8c3 b23e 7fa4 04bc 663b 9a3c efa4 713e
00000380: 36d2 2fbd 7d63 fdbe aff5 0fbe d383 243d
00000390: fbf1 8ebd e4df f63d bbcd 4ebd 1cd9 903c
000003a0: ef57 32bf c855 99be 9630 6b3f 20fa 793e
000003b0: aeff ba3d 939f d23d 668b 3b3d 23aa f8bd
000003c0: 4361 85bd b0f6 0fbe dce1 6d3c 3f78 b7bd
000003d0: a2c1 24bf 84b5 aebd 5b85 963e aac1 febe
000003e0: 19b7 a5bd 503b 01bd 66e9 3c3c 9662 dfbd
000003f0: f75d 773e 8206 d9bd f224 bfbe b8e8 d63e

fully_connected_layers.4.bias f4 [5]
0.22811939 -0.11608204 -0.07913828 -0.15716012 -0.012822475
00000000: 2198 693e 6cbc edbd 4013 a2bd 95ee 20be
00000010: 5c15 52bc
