Assignment 3/Dataset1a/Dataset2/WithoutPCA/mlffnn/mlffnn_model_2.pth (torch, 30798 bytes, 6 tensors)

fully_connected_layers.0.weight f4 [40, 81]
0	0xbd902899	-0.070389934
1	0xbd7d4675	-0.06183477
2	0xbdb926ee	-0.090406284
3	0xbd96a85d	-0.073563315
4	0xbcbc9da4	-0.023024388
5	0xbddf48c5	-0.109025516
6	0xbcf2fc39	-0.029661285
7	0x3d6137e7	0.054984953
8	0x3d33c620	0.04389012
9	0xbdd263d2	-0.102729455
10	0x3d496bc7	0.04917505
11	0xbd839565	-0.06424979
12	0x3d1c5c8b	0.038174193
13	0x3ce8aff2	0.02840421
14	0xbd2a8752	-0.041632958
15	0x3dca13b7	0.098670416
16	0xbc63f655	-0.013913711
17	0xbd34fb04	-0.0441847
18	0x3d1dd647	0.03853443
19	0x3bc931ab	0.006139954
20	0xbb82c555	-0.003990809
21	0x3d88bbf4	0.06676474
22	0x3d1b5999	0.037927244
23	0xbdc3c584	-0.095591575
24	0xbbca1472	-0.006166988
25	0x3bac2a39	0.005254057
26	0x3d138e20	0.036024213
27	0x3dc315fe	0.09525679
28	0x3c120164	0.008911464
29	0xbb978155	-0.004623572
30	0x3d603807	0.05474093
31	0x3dbc93be	0.09207867
32	0x3d303000	0.043014526
33	0x3c5e7939	0.013578706
34	0x3de2053b	0.11036154
35	0xbc909cb2	-0.017652843
36	0xbbbe5672	-0.005808645
37	0xbcacc56b	-0.02109023
38	0xbd62e9ce	-0.055398755
39	0xbd94afe2	-0.072601095
40	0xbb8dbf39	-0.004325774
41	0xbc85de87	-0.01634146
42	0x3d428a24	0.047495022
43	0x3cca066b	0.024661263
44	0xbce843c0	-0.028352618
45	0xbd3d59d5	-0.04622825
46	0xbdadabf0	-0.0848006
47	0xbd98d317	-0.07462137
48	0xbddba914	-0.107256085
49	0xbd087de7	-0.033323195
50	0xbd8b6f24	-0.06808308
51	0xbdaab0f7	-0.083345346
52	0xbdc41c7e	-0.09575747
53	0x3da1f8fd	0.07908819
54	0x3b5dba00	0.0033832788
55	0xbde01b24	-0.10942677
56	0x3d3ef267	0.04661789
57	0x3d802ba9	0.062583275
58	0xbdbf7a9e	-0.09349559
59	0xbd785b07	-0.060633685
60	0x3d4a8f0b	0.049452823
61	0xbd25835d	-0.04040848
62	0xbdbe3e55	-0.09289233
63	0xbcb949c7	-0.022618188
64	0xbd86502d	-0.06558261
65	0xbc4fdb80	-0.01268661
66	0x3da33f45	0.07971052
67	0xbd08205d	-0.03323399
68	0x3d183b00	0.03716564
69	0x3bfaf08e	0.007658071
70	0xbc4836f2	-0.012220131
71	0x3d916ee2	0.07101227
72	0x3d3184c0	0.04333949
73	0x3dc0d050	0.094147325
74	0xb8131c72	-3.5074023e-05
75	0x3d10f7d2	0.03539259
76	0xbd27744e	-0.0408824
77	0xb935b1c7	-0.00017327732
78	0x3bdbfde4	0.0067136157
79	0x3d8a3d32	0.06749953
80	0x3db13ca5	0.08654145
81	0xbd98a395	-0.07453076
82	0x3cfa2aa9	0.03053792
83	0x3ce48d9f	0.027899561
84	0x3dda21a7	0.1065095
85	0xbdd886c3	-0.10572579
86	0x3b997257	0.00468282
87	0xbddf846e	-0.10913931
88	0x3cf61c5f	0.030042825
89	0x3d012bee	0.031536035
90	0x3dcb5f7d	0.09930322
91	0xbcdc5ee2	-0.026900712
92	0x3d9b1f56	0.07574336
93	0xbc47ca80	-0.012194276
94	0x3ba5661d	0.0050475732
95	0xbd57e6c2	-0.052710302
96	0x3daef7ed	0.08543382
97	0x3d2e0565	0.042485613
98	0x3d10d912	0.035363264
99	0xbd10c375	-0.035342652
100	0xbb352df3	-0.0027645796
101	0x3dde93db	0.10868045
102	0xbd544c5c	-0.051830634
103	0xbd6f34ba	-0.058399893
104	0xbcfb1f06	-0.030654442
105	0xbb4b36d4	-0.0031008022
106	0xbd83749a	-0.06418724
107	0xbdd34345	-0.10315565
108	0x3cb692c2	0.022286776
109	0x3d117f73	0.035521936
110	0xbd616697	-0.055029478
111	0x3d6d7bc9	0.05797938
112	0xbd8bd31c	-0.06827375
113	0xbd772455	-0.060337383
114	0x3d692402	0.056919105
115	0x3d5ccf1f	0.053908464
116	0x3d8bfb63	0.068350576
117	0xbdb87634	-0.090069205
118	0x3d3a6cf2	0.045514055
119	0xbde08198	-0.10962218
120	0x3b7f3f94	0.0038947808
121	0x3d4f5d8f	0.050626334
122	0xbdc17f00	-0.094480515
123	0xbccf6fd7	-0.025321884
124	0xbcb5c8e4	-0.022190519
125	0xbcd0efa5	-0.025504896
126	0x3c22e4db	0.009942259
127	0xbdac8843	-0.08424427
128	0x3b581450	0.0032971092
129	0xbbdcec4c	-0.006742036
130	0x3cd821ee	0.026383366
131	0x3d055302	0.032549866
132	0xbc866c66	-0.01640911
133	0x3d35ce1c	0.044386014
134	0x3cf592bf	0.0299772
135	0xbd4c7e96	-0.04992541
136	0xbdc221bf	-0.09479093
137	0x3dadd2de	0.08487485
138	0xbd31730b	-0.043322604
139	0xbddce1ac	-0.10785231
140	0x3cc13486	0.023584615
141	0x3d65f922	0.056145795
142	0x3da0f371	0.07858933
143	0xbdcad494	-0.09903827
144	0xbd145c6b	-0.03622095
145	0xbddd39e1	-0.10802055
146	0x3c653de5	0.013991808
147	0xba86e6a2	-0.0010292123
148	0x3d493c0b	0.049129527
149	0x3cb5cb60	0.022191703
150	0x3d0f518b	0.034989875
151	0x3d337f59	0.04382262
152	0x3d1d1fe6	0.0383605
153	0x3d0ea916	0.03482922
154	0x3c734f3b	0.014850433
155	0xbd4f5e79	-0.050627206
156	0x3dca85fd	0.098888375
157	0xbd765619	-0.060140703
158	0xbd7afc56	-0.061275803
159	0x3c8ec371	0.017427178
160	0x3cff9c2b	0.031202396
161	0xbd5f266d	-0.054480005
162	0x3e44c994	0.19217521
163	0x3e2171c2	0.15766051
164	0xbd80a49f	-0.06281399
165	0x3e1bbb9a	0.15208283
166	0x3e38630b	0.18006532
167	0x3e4a6051	0.19763304
168	0x3ca46234	0.020066358
169	0xbd05a170	-0.032624662
170	0x3d0522d0	0.032503903
171	0x3dbb0639	0.09132046
172	0x3dbe2b87	0.09285646
173	0x3ddf64f6	0.10907929
174	0x3df2bfd3	0.11852994
175	0x3d921178	0.07132238
176	0xbd85ea81	-0.06538869
177	0xbd4dc5c6	-0.05023744
178	0x3d364745	0.04450156
179	0x3d38bda6	0.045102738
180	0x3d22febe	0.039793722
181	0x3e549dd7	0.20763336
182	0x3ddca01d	0.10772727
183	0x3e679fb0	0.2261951
184	0x3e678c28	0.22612059
185	0x3bc9ceb9	0.0061586765
186	0xbdfcba78	-0.123402536
187	0xbd50725d	-0.050890315
188	0x3cf9fd5d	0.03051632
189	0x3e415220	0.18878984
190	0x3d9983ec	0.07495865
191	0xbcf40ba0	-0.0297907
192	0xbd4ea426	-0.050449513
193	0x3d9b1391	0.07572091
194	0xbd718880	-0.058968067
195	0xbd27f9a2	-0.041009553
196	0xbd97af6c	-0.07406506
197	0x3e16c4ee	0.1472356
198	0x3d96be55	0.07360522
199	0x3d408df7	0.04701039
200	0x3e199a89	0.15000357
201	0x3caa34dd	0.02077716
202	0x3d694598	0.056951135
203	0x3d52b1c0	0.051439047
204	0xbd0763a2	-0.033054
205	0x3c291ad2	0.010321336
206	0x3c845467	0.016153527
207	0xbbab1ec5	-0.005222174
208	0xbe477ac3	-0.19480424
209	0xbdb750e8	-0.089509785
210	0xbc2e044c	-0.010621142
211	0x3d860344	0.065435916
212	0xbd2cfe13	-0.04223449
213	0x3d94806a	0.072510555
214	0x3e1a92a4	0.15095001
215	0xbd641d99	-0.05569229
216	0x3e850347	0.25979063
217	0x3d899852	0.06718506
218	0x3ba0c2d4	0.004906038
219	0x3caebd04	0.021330364
220	0x3e229b6c	0.15879601
221	0x3e06e309	0.13172545
222	0xbe7f16e9	-0.24911083
223	0xbe24c865	-0.1609207
224	0x3da96b26	0.0827239
225	0x3dc1ebb7	0.09468787
226	0x3df3c5f8	0.11902994
227	0xbdce0228	-0.10059005
228	0x3d791ea9	0.060820255
229	0xbb213079	-0.0024595542
230	0xbd431f9a	-0.04763756
231	0x3c037e0f	0.00802566
232	0x3da2104c	0.07913265
233	0x3e841684	0.25798428
234	0x3e10f46a	0.14155737
235	0xbd8c3b7e	-0.06847285
236	0xbe11d34b	-0.14240758
237	0x3dba4184	0.09094527
238	0x3b3cb487	0.0028794126
239	0xbcb1745e	-0.021661934
240	0x3c62fd83	0.013854387
241	0x3de76c2e	0.112999305
242	0x3db6432d	0.088995315
243	0xbe441f3a	-0.19152537
244	0xbdf91082	-0.12161352
245	0xbd8b5e3a	-0.06805082
246	0xbe23e7b1	-0.16006352
247	0x3c304f2c	0.010761064
248	0x3db0e442	0.08637287
249	0x3d8a61f3	0.067569636
250	0xbda15c54	-0.07878938
251	0xbe089936	-0.13339695
252	0xbdc67e97	-0.09692114
253	0x3cb650c2	0.022255305
254	0xbccc208b	-0.024917861
255	0xbdf34edd	-0.11880276

fully_connected_layers.0.bias f4 [40]
0	0xbdb6e694	-0.08930698
1	0xbcdfc402	-0.027315143
2	0xbe506402	-0.2035065
3	0x3f06267d	0.5240248
4	0xbf33a756	-0.7017721
5	0x3bfe1323	0.007753746
6	0x3d148fa5	0.036269803
7	0x3dde3e2e	0.108517036
8	0x3eb517d1	0.35369733
9	0x3e98c275	0.2983586
10	0xbd4b65e3	-0.049657714
11	0x3e00628a	0.1253759
12	0xbe3468de	-0.17618129
13	0x3b139465	0.002251887
14	0x3c841641	0.016123893
15	0x3f4a81ae	0.79104125
16	0xbec995f1	-0.3937221
17	0x3d3df63e	0.046377413
18	0xbdc86275	-0.09784404
19	0x3d9b673b	0.07588049
20	0x3f009fa0	0.5024357
21	0x3cd9bd8b	0.026579639
22	0xbd2fe091	-0.042938773
23	0x3eb40275	0.35158125
24	0x3d0ca8f0	0.0343408
25	0x3ddecbcf	0.10878717
26	0x3d893fa3	0.06701591
27	0x3d0353fc	0.032062516
28	0xbe02a592	-0.12758473
29	0xbf0085a8	-0.50203943
30	0x3e7dfa8a	0.24802604
31	0xbdd9f708	-0.106428206
32	0xbd8262d5	-0.06366507
33	0xbc591ca1	-0.013251455
34	0x3efdea42	0.49592787
35	0x3e53835d	0.2065558
36	0xbc89e5a9	-0.016833143
37	0x3cba81ea	0.022767026
38	0x3ce1437c	0.027498
39	0xbdac42e0	-0.08411193

fully_connected_layers.2.weight f4 [80, 40]
0	0xbd2e5ce0	-0.04256904
1	0xbdb99d83	-0.09063246
2	0xbda96719	-0.082716174
3	0xbd689917	-0.056786623
4	0xbef23ae0	-0.47310543
5	0xbad44973	-0.0016196206
6	0x3d16a07a	0.036774136
7	0x3d23fd32	0.040036388
8	0xbd824aa4	-0.06361893
9	0x3d5b4731	0.05353469
10	0x3e2e0a7e	0.1699619
11	0x3b783dc6	0.0037878617
12	0x3d6f03d0	0.058353245
13	0x3dc104d9	0.09424753
14	0xbda1de03	-0.079036735
15	0x3ef0e79a	0.47051698
16	0x3bdd2b7e	0.0067495694
17	0x3de87c24	0.11351803
18	0x3d1b3aff	0.03789806
19	0xbeaebc4d	-0.34128037
20	0x3e5475e7	0.20748101
21	0x3e6f6af8	0.23380649
22	0xbde1da19	-0.11027927
23	0x3e83fbb4	0.25777972
24	0xbc5dff79	-0.013549679
25	0xbdcee2a4	-0.10101822
26	0x3e9374df	0.28800103
27	0xbdfc931e	-0.12332748
28	0xbd900fff	-0.07034301
29	0xbe2f9abc	-0.1714887
30	0xbe423ab6	-0.18967709
31	0x3def08e1	0.116716154
32	0x3bfc3398	0.00769658
33	0x3e676855	0.22598393
34	0x3e9b8254	0.3037287
35	0x3e851787	0.25994512
36	0xbbf8ec3e	-0.0075965216
37	0xbd4bc08f	-0.049744185
38	0x3e102eb4	0.14080316
39	0x3e0e0976	0.13870797
40	0xbe116b3a	-0.1420106
41	0x3dae823a	0.085209325
42	0x3da22e9b	0.079190455
43	0xbca00c3f	-0.01953709
44	0xbc6c962c	-0.014440101
45	0x3e06d1d3	0.13165979
46	0x3c703ec4	0.014663402
47	0x3da5d36a	0.08096965
48	0x3c8e931d	0.017404133
49	0x3d2a8f64	0.041640654
50	0x3e194c69	0.14970554
51	0x3d9bed8c	0.07613668
52	0xbd20d3dc	-0.039264545
53	0xbd7d4ffe	-0.061843865
54	0x3cd03feb	0.025421103
55	0xbdd6d1e9	-0.10489256
56	0x3dfcbc4f	0.123406045
57	0xbd23e3d9	-0.040012214
58	0xbd789927	-0.060692932
59	0x3d8b1955	0.06791941
60	0xbdd6f51a	-0.10495968
61	0xbda5fb15	-0.08104531
62	0xbcf884d6	-0.030336779
63	0xbd9b7994	-0.075915486
64	0xbdf4d426	-0.119545266
65	0xbddaae70	-0.106778026
66	0xbd34525a	-0.04402385
67	0xbc6ecbf1	-0.014574991
68	0x3e130937	0.14358984
69	0xbdf3d1cb	-0.11905249
70	0x3e054912	0.13016155
71	0xbd951cbc	-0.07280871
72	0x3e0e9ff5	0.13928206
73	0xbe2076c4	-0.15670305
74	0x3d9d0c9f	0.07668423
75	0x3d7715c4	0.06032349
76	0x3dbc2049	0.091858454
77	0x3d73c74e	0.059516244
78	0xbdf3e08d	-0.11908064
79	0x3d56b5d7	0.05241951
80	0x3b122812	0.0022301716
81	0xbd408b9d	-0.047008146
82	0xbe4d41da	-0.20044652
83	0x3e8d4bd3	0.27596912
84	0xbea546f9	-0.3228071
85	0xbe030a9e	-0.12797019
86	0x3d72b466	0.059254073
87	0xbdb56e77	-0.0885896
88	0x3e5bc04c	0.21460074
89	0x3dbae3fa	0.09125514
90	0xbdbbe058	-0.091736495
91	0xbd94591f	-0.07243561
92	0xbe8502e2	-0.25978762
93	0xbd86b81d	-0.065780856
94	0x3dc09d56	0.094050094
95	0x3df85137	0.121248655
96	0xbe39c751	-0.1814244
97	0xbdb2f008	-0.087371886
98	0x3e0b36cc	0.13595122
99	0x3dcc4508	0.09974104
100	0x3e1aa549	0.15102114
101	0xbe401c6d	-0.18760844
102	0x3d25ac7c	0.040447697
103	0x3e03db43	0.1287661
104	0x3d8ea437	0.06964915
105	0x3e158007	0.1459962
106	0x3d181ec9	0.037138734
107	0xbdc1b7a3	-0.09458854
108	0x3e41801d	0.18896528
109	0xbe333af7	-0.17502962
110	0x3db1a012	0.08673109
111	0x3e1eb3be	0.15498254
112	0x3ef3dd0a	0.47629577
113	0x3ce50a3f	0.027958987
114	0xbd92a0f8	-0.071596086
115	0x3e622948	0.2208606
116	0xbd1ee032	-0.038788028
117	0xbda3fc18	-0.080070674
118	0x3c8a0dbc	0.016852252
119	0x3c8a412c	0.01687678
120	0x3d68b617	0.05681428
121	0x3d59e63d	0.053198088
122	0x3d987314	0.074438244
123	0x3e822d54	0.25425208
124	0xbddaebd2	-0.106895104
125	0x3e01d321	0.12678196
126	0x3e05d7bf	0.13070582
127	0x3e950f9e	0.29113477
128	0x3a40d394	0.00073557463
129	0x3efc8088	0.49316812
130	0xbdb79329	-0.089636154
131	0xbcbe3d41	-0.023222568
132	0x3d88d147	0.066805415
133	0xbc94ce21	-0.018164696
134	0x3ddc16ae	0.10746513
135	0x3e6ff02c	0.23431462
136	0xbeb9b243	-0.36268815
137	0xbde388a5	-0.11110047
138	0xbd888036	-0.06665079
139	0x3e0a19da	0.13486424
140	0x3e16bd8e	0.14720747
141	0x3df5abc4	0.11995652
142	0xbdeeb224	-0.116550714
143	0xbc5a0b90	-0.013308421
144	0xbe0aaf03	-0.13543324
145	0xbe631b41	-0.22178365
146	0xbe8224ab	-0.254186
147	0x3ccdea25	0.025136063
148	0x3ef2e712	0.47441918
149	0xbeb3f0e3	-0.3514472
150	0xbd9bbd5a	-0.07604475
151	0xbc020552	-0.007935839
152	0x3f12da45	0.573643
153	0x3e5354ed	0.20637865
154	0x3ede22e7	0.43386003
155	0x3d676c8d	0.056500006
156	0x3bdeb95b	0.0067969984
157	0x3da2c212	0.07947172
158	0xbec5e488	-0.38650918
159	0x3ddf2921	0.108965166
160	0xbd7a9245	-0.06117465
161	0xbdd9050f	-0.10596668
162	0x3e70db0a	0.23521057
163	0xbb1b3fa2	-0.002368905
164	0x3e4c8061	0.19970848
165	0xbd9e57d7	-0.07731598
166	0x3d4da999	0.05021057
167	0x3e2589b4	0.16165811
168	0xbe063cba	-0.13109103
169	0x3dd105da	0.10206194
170	0xbe04c4c5	-0.12965687
171	0xbdc7592d	-0.09733806
172	0x3e220332	0.15821531
173	0x3d926200	0.07147598
174	0x3e17626b	0.14783637
175	0x3cfbd772	0.03074238
176	0xbe30e5ff	-0.17275237
177	0xbddbdd6b	-0.107355915
178	0xbe1b8444	-0.15187174
179	0x3e57b178	0.21063793
180	0xbdfc8989	-0.1233092
181	0x3d4bafb7	0.04972812
182	0xbd642324	-0.055697575
183	0xbe8f8336	-0.28029794
184	0x3dd001c1	0.101565845
185	0x3e81df8d	0.25365868
186	0xbe8dbb76	-0.27682084
187	0xbc3f97e8	-0.011693932
188	0x3db962d1	0.09052051
189	0x3e5d6bca	0.2162315
190	0x3c55633d	0.0130241485
191	0xbd7aa017	-0.06118783
192	0xbe84b796	-0.25921315
193	0xbcb932ca	-0.022607226
194	0x3ce15951	0.02750841
195	0x3ca98254	0.020692028
196	0x3d0fd727	0.035117295
197	0x3d66e56e	0.056371145
198	0x3d6dfa0f	0.058099803
199	0xbdd2c156	-0.10290782
200	0xbc31d27d	-0.010853407
201	0x3e1e6c92	0.15471104
202	0xbe2a9a68	-0.16660464
203	0x3c334e4b	0.0109439595
204	0xbe099ea3	-0.13439421
205	0x3df0f9ac	0.11766371
206	0x3e68a306	0.22718439
207	0xbdba46d3	-0.0909554
208	0x3dc412f5	0.09573928
209	0xbeaf1bae	-0.34200805
210	0x3d7fb38f	0.0624271
211	0xbc763549	-0.015027353
212	0xbdc402d7	-0.09570854
213	0x3e24c5ab	0.1609103
214	0xbea3d2db	-0.31996807
215	0xbdde2863	-0.10847547
216	0x3e840287	0.25783178
217	0x3dd56853	0.10420289
218	0x3df25fb2	0.11834659
219	0xbe088df6	-0.13335404
220	0x3d9ec4ee	0.07752405
221	0xbeaf1d18	-0.34201884
222	0xbb8f067e	-0.0043647876
223	0x3e12da53	0.14341097
224	0x3dd445f7	0.10364907
225	0x3eabce81	0.33555987
226	0xbd4b4198	-0.049623102
227	0x3e086fe5	0.13323934
228	0xbe55e283	-0.20887189
229	0x3d68f1c0	0.056871176
230	0x3e1ba416	0.15199313
231	0x3daf7ff4	0.08569327
232	0xba95d90c	-0.0011432483
233	0xbeea37a0	-0.45745564
234	0xbedc3c23	-0.4301463
235	0x3da89f95	0.08233563
236	0x3e1c7427	0.15278684
237	0xbe1b278b	-0.15151803
238	0x3e2a08f0	0.16604972
239	0x3e01aaf4	0.1266287
240	0x3dc28e15	0.09499756
241	0x3d3cb5e7	0.046071913
242	0x3cd29fe8	0.025711015
243	0xbcfa224e	-0.030533936
244	0xbc7fe25b	-0.015617932
245	0xbdffb073	-0.12484827
246	0x3dca627c	0.09882066
247	0xbcbc6ffb	-0.023002615
248	0xbce262f1	-0.02763507
249	0x3da8a08b	0.08233746
250	0x3e181ad6	0.14853987
251	0x3d8983f8	0.06714624
252	0x3d538bbe	0.05164694
253	0x3ca9472a	0.020663816
254	0xbc827153	-0.015923178
255	0xbd2f56d1	-0.042807404

fully_connected_layers.2.bias f4 [80]
0	0x3e80dd9b	0.25169072
1	0xbdafb704	-0.08579829
2	0x3e83a676	0.25712937
3	0x3ead08a0	0.33795643
4	0x3c68c6e5	0.014207576
5	0x3e7fbd51	0.24974562
6	0xbdf7b1bc	-0.12094447
7	0xbd46bcee	-0.04852002
8	0x3e886ef7	0.2664716
9	0x3d8611f9	0.06546397
10	0x3e82d074	0.25549662
11	0xbcd769bc	-0.026295535
12	0xbe1748ac	-0.14773816
13	0xbe443227	-0.19159757
14	0xbe095a78	-0.13413417
15	0xbcfe2bcd	-0.031026745
16	0x3e15f9d2	0.1464608
17	0x3eac7b52	0.33687836
18	0x3e307350	0.17231488
19	0x3ecf2320	0.40456486
20	0x3e5a7458	0.21333444
21	0x3e64c057	0.22338997
22	0xbe11b8f8	-0.14230716
23	0xbda695ea	-0.081340626
24	0x3ee9499f	0.4556398
25	0x3d5cab7e	0.053874485
26	0x3e4341d4	0.1906808
27	0x3d9d9abe	0.0769553
28	0x3d7cb5f6	0.06169697
29	0x3d1975c3	0.037465822
30	0x3d35cf95	0.04438742
31	0xbc922050	-0.017837673
32	0x3dc8e454	0.09809175
33	0x3e62b350	0.22138715
34	0x3ebabecf	0.364737
35	0x3e3866f7	0.18008028
36	0x3e25f464	0.16206509
37	0x3d957767	0.07298165
38	0x3d6a0d4f	0.0571416
39	0xbc01a403	-0.007912639
40	0x3ba22360	0.0049480647
41	0xbd9c2864	-0.076248914
42	0x3c746868	0.0149174705
43	0x3dd18563	0.102305196
44	0x3d218666	0.039434813
45	0x3e401ce4	0.18761021
46	0x3b093169	0.0020933992
47	0xbe0562d5	-0.13025983
48	0xbddf3663	-0.10899045
49	0x3e40b67d	0.18819614
50	0xbe1faa66	-0.15592346
51	0xbdc19571	-0.09452332
52	0xbdb37f71	-0.08764542
53	0xbd2afbc0	-0.041743994
54	0xbe1d08ce	-0.1533539
55	0xbd1d2064	-0.03836097
56	0x3e2e3cf7	0.17015444
57	0x3e20bc7e	0.15696904
58	0xbd91e4de	-0.07123731
59	0x3d5364b5	0.051609714
60	0x3d73ec66	0.05955162
61	0x3f07002d	0.52734643
62	0x3b68ec4b	0.0035541232
63	0xbd90b4b8	-0.07065719
64	0xbcb0a843	-0.021564608
65	0xbc82f18b	-0.015984317
66	0xbda98700	-0.08277702
67	0xbd9cc192	-0.07654108
68	0x3d160eb2	0.03663511
69	0xbe1abccf	-0.15111087
70	0x3e6b039e	0.22950599
71	0xbcf38cba	-0.02973019
72	0x3de513ac	0.11185393
73	0xbe15f8f2	-0.14645746
74	0x3eb92fcf	0.36169288
75	0x3e3161db	0.17322485
76	0xbdf8bc25	-0.12145261
77	0x3ceaf612	0.028681789
78	0x3e543e80	0.20726967
79	0xbc819c03	-0.015821462

fully_connected_layers.4.weight f4 [5, 80]
0	0x3f1b2bc8	0.6061368
1	0xbcd6ff7d	-0.026244873
2	0x3ec3000d	0.38085976
3	0x3e791c00	0.24327087
4	0xbd8a2fd2	-0.06747402
5	0x3eac8a0d	0.33699074
6	0xbc8a7c5a	-0.016904999
7	0x3e06549c	0.13118213
8	0xbf169288	-0.5881734
9	0x3e0ae74e	0.13564798
10	0x3ecc7ea4	0.3994037
11	0xbd825696	-0.06364171
12	0xbdc43523	-0.095804475
13	0xbe35b000	-0.1774292
14	0x3d87628f	0.066105954
15	0x3e539b5b	0.20664732
16	0x3d390101	0.045166973
17	0xbebfa3b2	-0.37429577
18	0xbe4b5420	-0.1985631
19	0x3f322bdb	0.6959817
20	0xbedbc281	-0.42921832
21	0x3eee2f61	0.46520522
22	0xbd09858c	-0.033574626
23	0x3df8d094	0.12149158
24	0xbf2b96f9	-0.6702724
25	0x3ebda5de	0.3704061
26	0xbe8e0cf3	-0.27744254
27	0x3e8b3443	0.2718831
28	0xbcb38c02	-0.021917347
29	0xbeae18e5	-0.34003368
30	0x3edd5f19	0.43236616
31	0x3eb87bee	0.3603205
32	0x3efa3cc9	0.488745
33	0x3ece19c2	0.40254027
34	0x3ef32227	0.47486994
35	0x3e7820fe	0.24231336
36	0x3e29fe76	0.16600975
37	0x3d4585c9	0.04822329
38	0x3d9c3987	0.0762816
39	0xbebc5711	-0.36785176
40	0xbf4fba78	-0.81143904
41	0x3e0e2613	0.13881712
42	0x3cf9c23c	0.030488126
43	0x3ed4b703	0.41545877
44	0x3e23ee66	0.1600891
45	0xbdd80971	-0.10548676
46	0x3d97ebf1	0.07418049
47	0xbe0bfa54	-0.13669711
48	0x3dd32358	0.10309476
49	0xbde280e2	-0.11059739
50	0x3db52279	0.08844466
51	0x3e0301ee	0.12793705
52	0x3dbd05b5	0.09229604
53	0xba218270	-0.00061610993
54	0x3de4cb1c	0.111715525
55	0xbdf31093	-0.11868396
56	0x3e1f0ba8	0.1553179
57	0xbe8a8801	-0.27056888
58	0x3e00ade5	0.12566335
59	0x3e93fe12	0.28904778
60	0xbe6a7964	-0.2289787
61	0x3f63a31f	0.8892078
62	0xbe995114	-0.2994467
63	0xbddede42	-0.10882236
64	0xbdbb1ca5	-0.09136323
65	0xbe8c3dfd	-0.27391043
66	0xbe85def9	-0.26146677
67	0xbecdd844	-0.4020406
68	0xbf116c22	-0.5680562
69	0x3dd67051	0.104706414
70	0x3df913e2	0.121619955
71	0x3d095889	0.0335317
72	0x3f3e90b9	0.7443958
73	0xbc4b6358	-0.012413822
74	0xbca34428	-0.01992996
75	0x3e9178c8	0.2841246
76	0xbcb637ad	-0.022243345
77	0xbed68aec	-0.41902864
78	0x3e8a3c80	0.26999283
79	0x3dc9bbe3	0.0985029
80	0x3e301b10	0.17197824
81	0x3da35b0d	0.07976351
82	0xbf15ba81	-0.5848771
83	0xbf3a4f31	-0.72777086
84	0x3dc0169e	0.09379314
85	0xbe1944df	-0.14967678
86	0x3db1df5c	0.086851805
87	0xbde26b0b	-0.11055573
88	0x3e217b20	0.15769625
89	0xbe1f4c37	-0.15556417
90	0xbeb2c5aa	-0.3491643
91	0xbd458536	-0.048222743
92	0xbc37cf7b	-0.011218901
93	0x3f133f18	0.5751815
94	0x3d825620	0.06364083
95	0xbe4f3129	-0.20233597
96	0xbea7699a	-0.32697755
97	0x3e42e834	0.19033891
98	0xbe789455	-0.24275334
99	0xbe92e793	-0.28692302
100	0x3c3b819c	0.0114444755
101	0xbf16903a	-0.5881382
102	0x3d8ffa90	0.07030213
103	0xbc5db204	-0.013531212
104	0xbe385f61	-0.18005134
105	0x3d386d45	0.045026083
106	0xbd8a2b2a	-0.06746514
107	0x3ee454de	0.44596
108	0xbf1645bc	-0.58700156
109	0x3ebca835	0.36847082
110	0xbe94cd01	-0.29062656
111	0x3f02cc9c	0.5109346
112	0xbeca93b3	-0.3956581
113	0xbf1f3c7c	-0.62201667
114	0xbe00ee63	-0.12590937
115	0xbef49178	-0.47767234
116	0x3f052ec8	0.5202451
117	0x3d8ed245	0.069736995
118	0xbdeb22e3	-0.114812635
119	0x3eb3027c	0.34962833
120	0x3f0da852	0.5533496
121	0xbe08cba1	-0.13358928
122	0xbd7d602f	-0.061859306
123	0x3e8b9a3e	0.27266115
124	0x3e9a893d	0.3018283
125	0xbe051fe7	-0.13000451
126	0x3d51bd69	0.051206026
127	0x3d7ecc2a	0.062206425
128	0x3d00c546	0.031438135
129	0xbe3bdc37	-0.18345724
130	0x3de335b4	0.110942274
131	0x3edf2e58	0.43590045
132	0x3c6e0e94	0.014529843
133	0xbd93ece6	-0.07222919
134	0x3e8efa42	0.27925307
135	0xbd59cf35	-0.053176124
136	0x3e0b5b68	0.13609087
137	0x3e213000	0.15740967
138	0x3d867726	0.065656945
139	0x3ee74d59	0.451762
140	0x3eb2ab83	0.34896478
141	0xbf0616c6	-0.523785
142	0x3ebab23b	0.36464104
143	0xbdbd5a39	-0.09245724
144	0xbdb19c87	-0.08672433
145	0x3f298b0c	0.66227794
146	0x3ee18ec4	0.44054234
147	0xbcaf0855	-0.021366278
148	0x3f5d2ae8	0.86393595
149	0xbd483923	-0.048882615
150	0xbf25afc7	-0.6472134
151	0x3cc795fa	0.024363507
152	0x3ee03e1b	0.43797383
153	0xbda5b134	-0.080904394
154	0xbeb96904	-0.36212933
155	0xbd9f6e5e	-0.07784723
156	0xbd805ccd	-0.062677
157	0x3e148554	0.14503986
158	0xbe536df5	-0.20647414
159	0x3c0fb6e3	0.008771631
160	0x3d8eb449	0.069679804
161	0xbc0ee92b	-0.008722584
162	0x3e859d5c	0.26096618
163	0xbf2731c2	-0.653103
164	0xbdbaf88b	-0.09129437
165	0x3f25c7a9	0.6475778
166	0xbd06c188	-0.03289941
167	0x3db47a1b	0.08812352
168	0x3f082052	0.53174317
169	0x3ccf9c74	0.025343157
170	0x3d96fed3	0.073728226
171	0x3dd0a07d	0.10186861
172	0xbd6a7cd3	-0.057247948
173	0xbee78dea	-0.4522546
174	0xbd916407	-0.07099157
175	0xbeb75170	-0.3580432
176	0x3c20d114	0.009815473
177	0x3ee97f60	0.45604992
178	0x3e91bdcb	0.28465113
179	0xbe75f30b	-0.24018495
180	0x3e8afa06	0.27143878
181	0xbeffcb1a	-0.49959642
182	0x3cf741e1	0.03018278
183	0x3ccd12cc	0.025033377
184	0x3f505e9c	0.8139436
185	0xbc1fef3d	-0.009761629
186	0x3ec92e68	0.39293218
187	0xbe53216f	-0.20618223
188	0x3e98e9e2	0.29865938
189	0x3e939b41	0.28829387
190	0x3ddb3d94	0.107051045
191	0xbe209471	-0.15681626
192	0xbef1cbb4	-0.47225726
193	0xbea5ef4d	-0.32409135
194	0x3e691d52	0.22765091
195	0xbecd2bc5	-0.40072456
196	0x3e07a149	0.13245119
197	0x3e197a4c	0.14988059
198	0xbd4ccdab	-0.050000828
199	0xbdd5de72	-0.10442819
200	0xbe43289f	-0.19058464
201	0x3d9e6009	0.07733161
202	0x3d56b717	0.0524207
203	0xbd6934f8	-0.05693528
204	0x3db556dc	0.08854458
205	0xbefb85b9	-0.4912546
206	0xba97fca6	-0.0011595681
207	0x3c23e958	0.010004364
208	0x3bf2726d	0.0073988945
209	0x3e1a11e1	0.15045883
210	0xbb9c92dc	-0.004778249
211	0xbed9f4bc	-0.4256953
212	0x3d67a300	0.056551933
213	0xbd9b3c69	-0.07579882
214	0xbe9da127	-0.30787012
215	0xbf10879b	-0.5645692
216	0x3daa3b4f	0.083120935
217	0x3ea626de	0.32451528
218	0xbdbc383e	-0.09190415
219	0xbe189a42	-0.14902595
220	0x3e443c24	0.19163567
221	0xbdd8245b	-0.10553809
222	0xbeac0d90	-0.33604097
223	0x3d47e898	0.048805803
224	0xbc4c4518	-0.012467645
225	0x3dd457e9	0.1036833
226	0xbe89fe8c	-0.26952016
227	0xbe79e85a	-0.24405041
228	0x3c4a086b	0.012331109
229	0xbddf9abd	-0.10918186
230	0xbbe8f47b	-0.0071092225
231	0x3cda6c67	0.026663018
232	0xbf1a917c	-0.6037824
233	0x3da9f479	0.082985826
234	0x3e9b06ca	0.30278617
235	0xbf281e63	-0.65671366
236	0x3c8a664d	0.016894484
237	0x3dad76a5	0.08469895
238	0x3d082898	0.03324184
239	0xbc698c83	-0.014254692
240	0xbf402c13	-0.7506725
241	0xbd58796a	-0.052850164
242	0xbe79a6a0	-0.24379969
243	0x3e4ea3e8	0.20179713
244	0x3f0d6277	0.5522837
245	0xbf2acb7e	-0.66716754
246	0x3d1ffcad	0.03905933
247	0xbdb45c08	-0.08806616
248	0xbed742de	-0.42043203
249	0x3d7465d7	0.059667435
250	0x3f13bb49	0.5770765
251	0xbcf03e04	-0.029326446
252	0x3d9b9bf3	0.07598104
253	0x3eb98881	0.36236957
254	0xbdb9495c	-0.09047195
255	0x3efa0c73	0.48837623

fully_connected_layers.4.bias f4 [5]
0	0x3e99e065	0.30054012
1	0xbe80c5c4	-0.25150883
2	0x3eb1b65e	0.34709448
3	0xbe63afb4	-0.22234994
4	0xbdf55e4f	-0.119808786
