Assignment 3/Dataset1a/Dataset2/WithoutPCA/mlffnn/mlffnn_model_11.pth (torch, 63640 bytes, 6 tensors)

fully_connected_layers.0.weight f4 [80, 81]
-0.15385254 -0.09033276 -0.12717822 -0.053578377 -0.037015717 0.12855168 0.18979508 -0.01894334
-0.23636256 -0.06148481 0.12728667 -0.124516904 0.08565981 -0.023393683 -0.17818433 0.005394065
-0.012400584 0.029538918 -0.04482945 -0.16731511 0.07657037 0.12677598 -0.06947575 -0.060088333
-0.15173508 -0.08082028 -0.029337488 0.14434893 -0.17123175 -0.082050346 0.045390364 0.13406701
0.15142433 -0.10344248 -0.11348729 -0.09803622 -0.19656011 0.05194938 0.14080139 0.10114909
0.09161487 0.0156396 0.08532599 -0.055330902 -0.13725083 0.111547604 -0.12629925 0.15323555
0.15086511 0.021999963 0.032909304 -0.13131547 0.015821965 -0.107261054 -0.08138531 0.012147409
-0.064719796 0.024411064 0.1885378 -0.057141617 -0.1911905 -0.106527336 -0.11681793 0.043470584
-0.08357583 -0.0059501776 -0.1517526 -0.003301805 -0.12244971 -0.104351535 -0.041991595 0.06894592
0.100102276 -0.024267761 -0.088270985 0.0979746 0.0116272615 -0.06295568 0.044615056 0.0638907
-0.042358972 -0.038206507 -0.049389955 0.016141377 0.052102085 -0.004653977 0.02953443 -0.07102455
-0.06856604 -0.0250043 -0.03747318 0.06897823 0.15271671 0.12151976 0.1086569 0.11771217
-0.02647143 0.082282424 -0.07025187 -0.015376148 0.058753856 0.06293744 0.048997667 0.0036941865
0.07496223 0.017388096 -0.12754308 0.06869521 0.059799984 0.23339416 -0.014620605 0.21698615
0.06842862 -0.16285124 0.013204635 -0.15630431 -0.09699161 -0.008820963 -0.043729145 -0.03630645
0.10957353 0.21089897 -0.06959949 -0.13564248 -0.09977343 -0.20050669 0.0032748915 0.17493989
-0.014664933 -0.00025225512 0.10675137 0.20777053 0.14742334 0.0018954724 -0.11080278 0.045104723
-0.098033406 -0.017612722 0.09773342 0.020136133 0.18092039 0.026605599 0.049666643 0.1595688
-0.22465159 0.04337378 0.23846604 0.20251904 0.008685331 -0.006057168 -0.35765874 -0.35907084
-0.19453454 0.04078814 0.27395788 0.13926592 -0.017760616 -0.25742844 -0.3195384 -0.27580756
-0.22263789 0.10054958 0.08375219 0.006424699 -0.08745021 0.036925405 -0.06814463 0.026433084
0.10492184 0.08951249 0.046278358 0.037586574 -0.08421133 -0.040838614 -0.036243726 0.10293483
-0.09698421 0.0586813 -0.09256594 -0.02198791 -0.10159597 0.10535047 0.091782875 0.09345988
-0.07932181 0.103064865 0.020759642 -0.09351136 0.0995421 0.07558003 -0.067965284 -0.029967414
0.024570571 -0.054954547 -0.0312766 -0.015898824 0.067237705 -0.03773048 -0.09840907 0.07984045
0.039044302 -0.05090175 -0.07301539 -0.0963821 -0.023009714 -0.020166084 0.022826653 0.0947588
-0.10565627 0.012903771 0.03869519 -0.043521505 0.020550676 -0.0032126175 0.045999274 0.05336902
-0.06813755 0.013199314 -0.062506184 -0.075170435 -0.047519803 -0.0504308 -0.048934598 0.065279566
0.10049916 0.05322986 -0.07521151 0.031980477 0.04561859 0.028367795 0.09869955 -0.049839947
0.04961839 0.030252475 0.006013429 -0.08265351 -0.08033386 0.0242245 -0.054122448 -0.07376323
0.024695337 -0.026270524 -0.020424273 0.057968684 0.09169087 0.068509206 0.011075044 0.20102204
0.15226999 0.086651094 0.11829833 0.1800572 -0.01937867 -0.008733186 -0.020597182 0.086752154
00000000: 858b 1dbe 6200 b9bd 023b 02be 0075 5bbd
00000010: cb9d 17bd 0da3 033e a459 423e 102f 9bbc
00000020: 0709 72be 7fd7 7bbd 7057 023e b802 ffbd
00000030: 696e af3d 1ca4 bfbc f475 36be b2c0 b03b
00000040: d22b 4bbc 9afb f13c 169f 37bd a754 2bbe
00000050: edd0 9c3d 90d1 013e 4d49 8ebd 2f1f 76bd
00000060: 7160 1bbe 1a85 a5bd 2c55 f0bc 35d0 133e
00000070: 6057 2fbe 030a a8bd 3feb 393d dd48 093e
00000080: fb0e 1b3e a7d9 d3bd 066c e8bd 37c7 c8bd
00000090: 0e47 49be e0c8 543d 3d2e 103e 4127 cf3d
000000a0: 94a0 bb3d 9e1e 803c 65bf ae3d a8a2 62bd
000000b0: 7b8b 0cbe 1273 e43d 9754 01be c8e9 1c3e
000000c0: 627c 1a3e 4439 b43c e8cb 063d 9077 06be
000000d0: 119d 813c afab dbbd 57ad a6bd ed05 473c
000000e0: d08b 84bd b6f9 c73c 0e10 413e 540d 6abd
000000f0: 71c7 43be 012b dabd 3d3e efbd 360e 323d
00000100: ce29 abbd b5f9 c2bb 0965 1bbe 1863 58bb
00000110: eac6 fabd 42b6 d5bd 61ff 2bbd 8533 8d3d
00000120: 6c02 cd3d 2fcd c6bc 6bc7 b4bd e8a6 c83d
00000130: 4580 3e3c e8ee 80bd 47be 363d 21d9 823d
00000140: 9a80 2dbd 6d7e 1cbd 1f4d 4abd ec3a 843c
00000150: ff68 553d 6480 98bb 30f2 f13c 5275 91bd
00000160: 5a6c 8cbd d1d5 ccbc 7a7d 19bd 7544 8d3d
00000170: c561 1c3e 5adf f83d 8287 de3d 1413 f13d
00000180: 9dda d8bc b083 a83d 36e0 8fbd 3dec 7bbc
00000190: e2a7 703d 58e5 803d c7b1 483d 2a1a 723b
000001a0: cc85 993d 7b71 8e3c a79a 02be 13b0 8c3d
000001b0: d4f0 743d e1fe 6e3e 438b 6fbc 9e31 5e3e
000001c0: 4e24 8c3d 7ac2 26be 4158 583c 3d0e 20be
000001d0: 8aa3 c6bd cd85 10bc 551d 33bd 12b6 14bd
000001e0: 1668 e03d e6f5 573e 2d8a 8ebd dde5 0abe
000001f0: 0356 ccbd a051 4dbe 909f 563b 7123 333e
00000200: 3045 70bc 1c41 84b9 76a0 da3d ccc1 543e
00000210: 25f6 163e 8071 f83a 91ec e2bd bbbf 383d
00000220: bdc5 c8bd 8e48 90bc 7628 c83d 88f4 a43c
00000230: 3243 393e fcf3 d93c 406f 4b3d 0166 233e
00000240: 110b 66be b4a8 313d 7130 743e 2761 4f3e
00000250: eb4c 0e3c 357b c6bb 0c1f b7be 22d8 b7be
00000260: 1034 47be 7711 273d 3544 8c3e ba9b 0e3e
00000270: b67e 91bc a9cd 83be 8a9a a3be a636 8dbe
00000280: 30fb 63be f0ec cd3d 4586 ab3d 4886 d23b
00000290: 1819 b3bd 183f 173d 698f 8bbd 328a d83c
000002a0: 43e1 d63d 5352 b73d 608e 3d3d 61f4 193d
000002b0: fd76 acbd 6446 27bd 4d74 14bd 7fcf d23d
000002c0: a89f c6bd ce5b 703d 3693 bdbd fd1f b4bc
000002d0: 8c11 d0bd fdc1 d73d a9f8 bb3d e567 bf3d
000002e0: 7973 a2bd ac13 d33d 2010 aa3c e282 bfbd
000002f0: bbdc cb3d b4c9 9a3d 6231 8bbd 397e f5bc
00000300: 3948 c93c 0518 61bd e41b 00bd 403e 82bc
00000310: ecb3 893d 478b 1abd b28a c9bd 6483 a33d
00000320: ebec 1f3d 5a7e 50bd 1889 95bd fa63 c5bd
00000330: de7e bcbc 5833 a5bc f6fe ba3c e710 c23d
00000340: 5162 d8bd 576a 533c d97e 1e3d 9b43 32bd
00000350: e459 a83c c78a 52bb bc69 3c3d 7999 5a3d
00000360: b38b 8bbd ef41 583c 3e03 80bd f5f2 99bd
00000370: 20a4 42bd 8790 4ebd a56f 48bd 4bb1 853d
00000380: 81d2 cd3d 8e07 5a3d 7e08 9abd f6fd 023d
00000390: 8fda 3a3d 9463 e83c fd22 ca3d f924 4cbd
000003a0: a73c 4b3d 0ad4 f73c 4c0c c53b 3e46 a9bd
000003b0: 1486 a4bd 7572 c63c 80af 5dbd 2d11 97bd
000003c0: e04d ca3c 4835 d7bc ce50 a7bc 9270 6d3d
000003d0: 6cc8 bb3d 8e4e 8c3d 1a74 353c b9d8 4d3e
000003e0: aaec 1b3e 2176 b13d 6546 f23d ea60 383e
000003f0: 04c0 9ebc a315 0fbc 6cbb a8bc 1dab b13d

fully_connected_layers.0.bias f4 [80]
0.3154937 -0.07516925 -0.11169162 -0.36965987 -0.25742942 -0.014965134 -0.41712108 -0.0620002
0.535564 0.21710387 0.38277158 -0.12254981 0.120510906 -0.071956255 -0.048640147 -0.3985865
-0.045110777 -0.10085698 -0.066368654 -0.33842432 -0.20281047 -0.029554617 0.17314094 0.11986522
-0.12358616 -0.04216861 0.03355057 0.1599155 -0.05424857 -0.048332177 -0.17126678 0.027907448
0.14361532 0.14113124 -0.07199869 -0.039611418 -0.08157831 -0.27088937 0.014800034 0.19187789
-0.051102974 0.02677989 -0.054684687 -0.002487545 0.225581 0.37431452 -0.05845927 -0.06871628
0.069239736 0.10690036 -0.36829135 -0.053800225 0.1340815 0.19376543 -0.084392644 -0.17388242
-0.08081602 -0.03584605 0.18454611 -0.082209066 -0.105807126 -0.060085677 0.034800384 0.18693693
-0.078788675 0.2139827 0.07657036 0.008446797 -0.035197977 -0.1252211 -0.03845393 -0.059526652
0.37276277 -0.28094548 0.54519016 0.15024553 -0.09398571 0.020282647 0.49151045 0.21152416
00000000: 6488 a13e 56f2 99bd 93be e4bd 0f44 bdbe
00000010: cacd 83be 5230 75bc e590 d5be ecf3 7dbd
00000020: b91a 093f 7a50 5e3e a3fa c33e 65fb fabd
00000030: 6cce f63d cd5d 93bd e43a 47bd 8813 ccbe
00000040: 14c6 38bd 1b8e cebd 4aec 87bd f445 adbe
00000050: 8cad 4fbe 861c f2bc dc4b 313e e57b f53d
00000060: be1a fdbd feb8 2cbd 536c 093d e4c0 233e
00000070: c033 5ebd f6f7 45bd 8f60 2fbe 299e e43c
00000080: e50f 133e b584 103e 0d74 93bd 953f 22bd
00000090: 8712 a7bd 03b2 8abe d87b 723c a37b 443e
000000a0: 5a51 51bd 8061 db3c 0dfd 5fbd 1406 23bb
000000b0: b5fe 663e 27a6 bf3e fd72 6fbd 1fbb 8cbd
000000c0: 90cd 8d3d 93ee da3d af90 bcbe a05d 5cbd
000000d0: a94c 093e 726a 463e 0dd6 acbd 3c0e 32be
000000e0: df82 a5bd 4fd3 12bd a8f9 3c3e 3a5d a8bd
000000f0: 68b1 d8bd 661c 76bd d98a 0e3d 656c 3f3e
00000100: f55b a1bd 481e 5b3e ecd0 9c3d 6f64 0a3c
00000110: c12b 10bd f639 00be de81 1dbd 38d2 73bd
00000120: c3da be3e 16d8 8fbe 9591 0b3f f7d9 193e
00000130: 947b c0bd cb27 a63c 42a7 fb3e ca99 583e

fully_connected_layers.2.weight f4 [100, 80]
0.031102711 -0.18533829 -0.05756652 0.10990158 -0.0059998995 0.043233175 -0.021986833 -0.14870799
0.13206246 0.05468342 0.021337122 -0.06643986 -0.003498405 0.06371679 -0.12730083 -0.076744996
0.043249954 -0.10649188 0.007013314 -0.12969838 0.07989017 -0.008676545 0.105718814 0.18899752
-0.04608728 0.100249276 0.033782955 0.042219825 -0.06499383 -0.08764128 0.12179095 0.0145023335
0.06493292 -0.044468194 -0.01660572 0.049870856 0.042675365 0.0046114074 0.07992185 0.020003911
0.1002341 0.14969467 -0.06122835 0.027491232 -0.013255961 -0.1173403 0.07838905 -0.057826612
-0.0005345403 0.050064266 0.16503721 0.086011335 0.024740608 0.21103846 0.03863957 0.14522001
-0.037330184 -0.0950407 0.03014055 -0.104918994 -0.060244955 -0.091206245 0.05290493 -0.028393213
-0.019810626 -0.11600152 -0.11321378 -0.078860186 0.058701277 -0.09298051 -0.011980661 -0.014498122
0.08709468 0.07564648 0.091638066 0.05091928 0.084235586 0.050103076 0.015514801 0.026167274
-0.18808782 -0.1333801 0.029944137 0.18303224 0.13718094 0.05093487 0.40221986 0.2634865
-0.21370466 -0.1082188 -0.1668193 0.1478491 0.014401811 -0.08690906 0.011996079 0.19708382
0.26934102 0.07545793 -0.12962645 0.23608594 0.18362129 0.17755386 0.07128151 0.007109491
-0.072163634 0.06945476 -0.0912609 -0.040945314 0.061610714 0.09443376 0.22079368 0.25489497
-0.047008503 -0.05908716 -0.12089582 -0.054353546 0.029132513 0.14339744 0.08532012 0.07695004
-0.06271293 0.04027777 0.19136713 0.006092351 0.057249364 -0.1406551 0.028582543 0.014333398
0.1408854 0.017359946 0.07687776 -0.06800082 0.12021272 -0.3363772 -0.099018 -0.009555231
0.004883233 0.05743182 -0.17879517 0.045160357 0.041147422 -0.044462748 -0.031548157 -0.0066392696
-0.060457062 -0.12677951 -0.19552581 0.34299794 0.028267046 -0.043623816 0.041583084 0.22188255
-0.15161623 -0.033464067 -0.08785491 -0.089686796 0.09016568 0.04157911 -0.020548724 0.05739386
0.092112646 0.08094465 0.07359373 -0.090071104 0.012182054 0.0034932194 -0.17534395 0.07723473
-0.012989177 -0.09893102 0.17381233 0.058719017 0.12158403 0.1035115 -0.0068008313 -0.08890038
-0.080223426 0.020918088 -0.0015628886 0.107260965 -0.00034417532 -0.035556685 -0.03724217 0.13818608
0.06336723 0.074942805 -0.14478827 -0.11784212 0.05774892 -0.020240733 0.01953098 -0.019126793
-0.030723518 0.10617526 0.05766121 0.06691264 0.07398624 -0.035643905 0.098466545 0.0019034226
-0.1043573 0.0038975703 0.028394332 -0.080852814 0.092196874 0.09176498 -0.077549666 -0.07982496
0.00015438374 0.043682106 -0.008338536 -0.099470526 -0.04978094 0.122584574 0.08042103 -0.06620039
0.030082181 0.086096786 -0.050064664 0.05129556 0.07024398 -0.01147794 -0.03506518 0.080148675
-0.11582976 0.15925376 -0.06461744 0.06698905 -0.082882024 -0.0870786 -0.024631582 -0.020018598
0.053732414 -0.21352968 0.089269705 -0.017384809 -0.037487913 -0.06918014 0.054592412 0.06516372
0.009942887 0.0057709855 -0.10687979 -0.024658628 -0.026832057 0.036462802 -0.018352851 0.008190273
-0.085205264 -0.06893665 -0.00799021 -0.07503534 0.037443884 0.00805488 0.074670784 0.02154638
00000000: 1dcb fe3c 52c9 3dbe dfca 6bbd 1414 e13d
00000010: ce9a c4bb 4515 313d bb1d b4bc e846 18be
00000020: 623b 073e b9fb 5f3d 30cb ae3c 9f11 88bd
00000030: 7f45 65bb f37d 823d 265b 02be 7b2c 9dbd
00000040: dd26 313d 6a18 dabd f1cf e53b a7cf 04be
00000050: 759d a33d 1128 0ebc 1b83 d83d 9188 413e
00000060: 04c6 3cbd 7e4f cd3d ff5f 0a3d b2ee 2c3d
00000070: 7c1b 85bd 457d b3bd 896d f93d 329b 6d3c
00000080: 8dfb 843d 4824 36bd b808 88bc 6245 4c3d
00000090: 5dcc 2e3d 4a1b 973b 11ae a33d 3edf a33c
000000a0: 8947 cd3d 8f49 193e 94ca 7abd 4b35 e13c
000000b0: 882f 59bc 1c50 f0bd 708a a03d 99db 6cbd
000000c0: 6420 0cba 3010 4d3d 84ff 283e b626 b03d
000000d0: d1ac ca3c 771a 583e 8744 1e3d 8eb4 143e
000000e0: 89e7 18bd b3a4 c2bd 51e9 f63c c5df d6bd
000000f0: 6ac3 76bd 57ca babd d7b2 583d e298 e8bc
00000100: e549 a2bc 3492 edbd a0dc e7bd 7381 a1bd
00000110: c070 703d 916c bebd 894a 44bc 8889 6dbc
00000120: b25e b23d 8bec 9a3d bdac bb3d bc90 503d
00000130: b583 ac3d e238 4d3d cb31 7e3c c05c d63c
00000140: 189a 40be cb94 08be 684d f53c ce6c 3b3e
00000150: 2979 0c3e 15a1 503d c3ef cd3e b4e7 863e
00000160: 65d5 5abe d1a1 ddbd aed2 2abe c165 173e
00000170: 93f5 6b3c 61fd b1bd 348b 443c 57d0 493e
00000180: 11e7 893e b089 9a3d ccbc 04be 83c0 713e
00000190: 3807 3c3e aed0 353e 0afc 913d bcf6 e83b
000001a0: 87ca 93bd 4c3e 8e3d ffe6 babd 46b6 27bd
000001b0: 845b 7c3d 7d66 c13d bd17 623e 9881 823e
000001c0: fd8b 40bd 6105 72bd 3a98 f7bd d3a1 5ebd
000001d0: 4fa7 ee3c c7d6 123e 51bc ae3d fc97 9d3d
000001e0: a36f 80bd 4efa 243d bff5 433e 58a2 c73b
000001f0: 4f7e 6a3d e407 10be f025 ea3c a1d6 6a3c
00000200: 4344 103e 7236 8e3c 1672 9d3d 0444 8bbd
00000210: 1632 f63d a239 acbe f3c9 cabd 8b8d 1cbc
00000220: 8703 a03b a13d 6b3d 1516 37be 11fa 383d
00000230: 338a 283d 921e 36bd a438 01bd 3b8e d9bb
00000240: d3a1 77bd 7dd2 01be eb37 48be 6d9d af3e
00000250: 4b90 e73c e3ae 32bd 0653 2a3d 2e35 633e
00000260: 4941 1bbe 9e11 09bd 46ed b3bd b6ad b7bd
00000270: c9a8 b83d db4e 2a3d cc55 a8bc d315 6b3d
00000280: 8ea5 bc3d 4fc6 a53d 4fb8 963d 3377 b8bd
00000290: 3d97 473c 7fee 643b 5d8d 33be 3e2d 9e3d
000002a0: 8fd0 54bc 599c cabd dcfb 313e 5a83 703d
000002b0: 0c01 f93d d6fd d33d 82d9 debb 6711 b6bd
000002c0: 2e4c a4bd 695c ab3c d7d9 ccba a3ab db3d
000002d0: 6e72 b4b9 e3a3 11bd 3f8b 18bd a780 0d3e
000002e0: aec6 813d 9d7b 993d 6043 14be 3657 f1bd
000002f0: 228a 6c3d e5cf a5bc 6fff 9f3c cbaf 9cbc
00000300: e3af fbbc 6a72 d93d 292e 6c3d 7f09 893d
00000310: 1986 973d 58ff 11bd d4a8 c93d 447c f93a
00000320: 48b9 d5bd 616e 7f3b 3b9b e83c 2996 a5bd
00000330: b7d1 bc3d 47ef bb3d 5cd2 9ebd 457b a3bd
00000340: 12e2 2139 02ec 323d 5b9e 08bc 34b7 cbbd
00000350: 19e7 4bbd 9f0d fb3d c8b3 a43d 1294 87bd
00000360: e86e f63c 8353 b03d 9b10 4dbd 4b1b 523d
00000370: 13dc 8f3d f80d 3cbc 82a0 0fbd fd24 a43d
00000380: 2738 edbd 6b13 233e 2656 84bd 8e31 893d
00000390: 0dbe a9bd 4456 b2bd 2cc8 c9bc 0bfe a3bc
000003a0: 8516 5c3d 86a7 5abe 09d3 b63d 966a 8ebc
000003b0: ed8c 19bd 51ae 8dbd 4b9c 5f3d 8e74 853d
000003c0: 7ee7 223c 891a bd3b cbe3 dabd e400 cabc
000003d0: e7ce dbbc 055a 153d b858 96bc 7f30 063c
000003e0: 1980 aebd a92e 8dbd 5fe9 02bc 21ac 99bd
000003f0: c25e 193d 9ef8 033c ffec 983d 0982 b03c

fully_connected_layers.2.bias f4 [100]
0.051477607 0.12956259 0.17725414 -0.084896035 0.0789841 0.09749025 -0.1094068 -0.09820738
0.03530667 -0.052776285 0.32830808 -0.103498444 0.03798761 -0.041636024 -0.11301643 0.27916318
0.29319423 -0.031619158 -0.10256986 0.029610664 0.15205131 0.09883302 0.11171486 -0.08571006
-0.114853576 -0.030822488 -0.074933685 0.14382307 0.03511411 0.13924818 -0.10097787 0.037600808
0.025836792 -0.029361686 0.2785669 -0.10856325 0.23366925 -0.0051268223 0.0017457381 0.1853507
0.2607627 -0.059367176 0.17083965 -0.023987308 0.0499478 0.12369973 -0.086113766 0.12502183
-0.055761382 -0.07289949 0.1203003 -0.02870919 0.1804053 0.27080086 -0.13318808 -0.047993246
-0.05573732 0.07378279 0.34533593 0.045102544 -0.060325082 -0.1020457 -0.0073728906 0.07064198
-0.08090531 0.09347423 -0.05031332 0.121066 -0.0051084016 -0.111760296 -0.06876226 -0.021325277
0.14449787 0.12318114 0.13759209 0.12155352 -0.028993763 0.09044713 0.3671856 0.022495493
0.040186 0.14150539 0.52936053 -0.0682273 -0.018473972 -0.023964927 -0.009311704 -0.08353422
-0.09370345 -0.011179868 0.35978386 0.0033510283 0.12375447 0.26755115 -0.071017504 0.118305184
-0.002225955 -0.041562945 0.06323589 0.003602353
00000000: 2fda 523d 0eac 043e 1c82 353e f9dd adbd
00000010: 6ac2 a13d f8a8 c73d ac10 e0bd f320 c9bd
00000020: ba9d 103d f22b 58bd ff17 a83e fef6 d3bd
00000030: e598 1b3d 898a 2abd 2875 e7bd 7aee 8e3e
00000040: 8e1d 963e 1783 01bd 2610 d2bd 1092 f23c
00000050: 57b3 1b3e f768 ca3d c3ca e43d c288 afbd
00000060: 5a38 ebbd 717f fcbc d576 99bd 5b46 133e
00000070: d0d3 0f3d 1397 0e3e 7ccd cebd 4e03 1a3d
00000080: aea7 d33c eb87 f0bc 52a0 8e3e 6956 debd
00000090: fe46 6f3e e7fe a7bb 40d1 e43a 93cc 3d3e
000000a0: b082 853e ff2a 73bd 97f0 2e3e 0881 c4bc
000000b0: 1096 4c3d 4956 fd3d 6a5c b0bd b905 003e
000000c0: 0c66 64bd 544c 95bd 0160 f63d 892f ebbc
000000d0: 2bbc 383e 69a6 8a3e 7562 08be 9194 44bd
000000e0: d14c 64bd 6e1b 973d dfcf b03e 72bd 383d
000000f0: 6f17 77bd 56fd d0bd 4a98 f1bb beac 903d
00000100: afb1 a5bd 6b6f bf3d 5715 4ebd 73f1 f73d
00000110: 6164 a7bb 95e2 e4bd 3ad3 8cbd 59b2 aebc
00000120: 40f7 133e 6546 fc3d f1e4 0c3e 0df1 f83d
00000130: 5484 edbc 583c b93d c0ff bb3e 7848 b83c
00000140: 139a 243d cae6 103e 2c84 073f c1ba 8bbd
00000150: ba56 97bc 1852 c4bc 1e90 18bc fd13 abbd
00000160: 98e7 bfbd c42b 37bc 9735 b83e ed9c 5b3b
00000170: fc72 fd3d 77fc 883e a071 91bd fd49 f23d
00000180: 54e1 11bb e83d 2abd d181 813d 7415 6c3b

fully_connected_layers.4.weight f4 [5, 100]
0.3749409 -0.6925622 0.09348465 0.024864875 -0.06417367 0.52680486 -0.07051552 0.30769503
-0.25013113 -0.116141446 0.06278983 -0.46608153 -0.16182815 0.024151215 0.053675104 0.75699574
0.79335797 -0.16960417 -0.025611997 0.080568194 0.061420813 -0.034499064 0.04229633 0.15282215
0.2720273 -0.49104074 0.091058806 0.063366935 -0.55853623 0.29307297 -0.08014207 0.03785532
-0.39714873 -0.01281693 0.36409384 0.04334675 0.5113893 -0.2752171 0.057851914 0.4831318
0.6791767 0.008878764 0.29820812 0.24673384 -1.0034884 0.0667564 0.0048965574 0.6806735
0.0048632836 -0.061706733 0.00020971097 -0.021342963 0.005262484 0.28773424 -0.24924341 0.09619136
-0.166918 0.03986667 -0.036379844 0.0024403317 0.03446668 -0.2267555 -0.075851046 -0.43407658
-0.45818195 0.05170612 0.09354651 0.044421162 -0.48771968 0.28487808 0.1550846 -0.057493888
0.072522156 0.16980119 0.013135612 -0.12837638 -0.01476073 -0.5169291 0.5691865 -0.0001628721
0.07295557 0.0029830493 0.71772164 -0.023132144 -0.36123836 -0.44381922 0.07570764 0.07592041
0.0005824783 0.008306984 0.24399582 0.034886256 0.30877107 0.70010704 -0.1443997 -0.53064907
-0.006754012 -0.01358941 -0.48695362 0.22724974 0.039979633 0.28286672 -0.43196476 -0.0037098795
-0.017525524 -0.08804235 -0.08487732 0.5664281 -0.06731562 0.08004141 -0.34041947 0.80813044
0.3314077 -0.11947264 0.061552566 -0.13691956 -0.88566333 0.13546832 0.03241278 0.040596005
-0.29366323 0.1143445 -0.19285974 0.0151350545 0.11205732 0.3548325 -0.05198423 0.2835581
0.35888338 -0.34066302 0.08298851 -0.47088277 0.5668319 0.033386495 -0.43234447 -0.016955364
0.010166921 0.3406932 -0.04903609 0.40722975 -0.22619808 -0.035398137 -0.28278655 0.054357447
0.54969466 0.08361972 0.023083437 -0.52414197 0.017129028 0.023009742 0.5200485 -0.05184622
-0.3043822 -0.5492719 -0.12919652 -0.023384335 -0.010737245 -0.40159968 -0.813569 -0.099576525
-0.0070379684 0.21573271 0.07863284 -0.005177668 -0.013452538 -0.15345016 0.08429545 -0.18404616
0.72683966 0.6023617 -0.041336864 0.50016576 -0.18709849 0.07769003 -0.022992812 0.012770859
-0.103249505 0.067402124 -0.1759101 -0.07000463 0.38757873 0.52053344 -0.67842954 -0.005325436
0.13941781 -0.57345957 0.011480972 0.04208339 -0.03521527 -0.06536928 -0.61373776 0.20790616
0.04827056 0.34364855 0.033370394 -0.05411163 0.08748997 -0.09895169 -0.18817031 0.41839093
-0.19342254 0.6054497 0.078756094 0.033086825 0.074512966 -0.29869395 -0.09029389 -0.014170294
0.06441053 0.03133613 0.77463067 0.17049305 0.06931367 0.10290924 0.0054297517 0.12777637
-0.4190746 -0.19648561 -0.012549234 -0.011752633 -0.15876701 0.26748124 0.380368 0.09014472
-0.25661615 0.056324188 0.05809914 0.17061928 0.002670027 0.036917206 -0.027572194 -0.28117624
0.08594548 0.007112098 0.18531387 -0.034438264 -0.34767547 -0.23151864 0.109488435 -0.520158
0.058289986 -0.06395712 -0.062700026 0.053354636 0.2985586 0.24246281 0.061331477 -0.03925808
-0.043466397 0.07114776 -0.28900772 0.07847512 0.18227501 0.24370478 -0.5318756 -0.028411763
00000000: 41f8 bf3e c24b 31bf e174 bf3d 6cb1 cb3c
00000010: 7c6d 83bd afdc 063f 716a 90bd 348a 9d3e
00000020: 3011 80be 91db edbd f497 803d 3da2 eebe
00000030: 47b6 25be c5d8 c53c 6dda 5b3d 79ca 413f
00000040: 8219 4b3f b7ac 2dbe 40d0 d1bc f000 a53d
00000050: 6494 7b3d e44e 0dbd eb3e 2d3d 697d 1c3e
00000060: 2a47 8b3e b169 fbbe 0a7d ba3d 86c6 813d
00000070: 3bfc 0ebf a90d 963e 8721 a4bd 2e0e 1b3d
00000080: 1457 cbbe 1afe 51bc 826a ba3e 5d8c 313d
00000090: 69ea 023f 41e9 8cbe 21f6 6c3d 0d5d f73e
000000a0: 86de 2d3f 3c78 113c bcae 983e cca7 7c3e
000000b0: 4f72 80bf 94b7 883d 4d73 a03b 9e40 2e3f
000000c0: 2e5c 9f3b 33c0 7cbd dce5 5b39 70d7 aebc
000000d0: ea70 ac3b e751 933e aa39 7fbe faff c43d
000000e0: 8dec 2abe 3c4b 233d 0803 15bd f9ed 1f3b
000000f0: ef2c 0d3d 9832 68be cb57 9bbd 493f debe
00000100: d396 eabe ccc9 533d 5095 bf3d f7f2 353d
00000110: 65b6 f9be 8adb 913e 7fce 1e3e b67e 6bbd
00000120: 7f86 943d 5de0 2d3e c036 573c 1975 03be
00000130: fdd6 71bc 7755 04bf 35b6 113f a5c8 2ab9
00000140: bb69 953d 437f 433b 9bbc 373f 9f7f bdbc
00000150: 3cf4 b8be 463c e3be 9b0c 9b3d 297c 9b3d
00000160: 75b1 183a 041a 083c 0ada 793e e4e4 0e3d
00000170: 3e17 9e3e 373a 333f 84dd 13be 9ed8 07bf
00000180: c250 ddbb 1ea6 5ebc fc51 f9be 28b4 683e
00000190: afc1 233d e8d3 903e 7c2a ddbe 7321 73bb
000001a0: b091 8fbc 8c4f b4bd 29d4 adbd 6f01 113f
000001b0: c6dc 89bd c0ec a33d 764b aebe a3e1 4e3f
000001c0: 45ae a93e 12ae f4bd 8b1e 7c3d a434 0cbe
000001d0: d5ba 62bf 35b8 0a3e 43c3 043d ff47 263d
000001e0: 075b 96be 732d ea3d 067d 45be 05f9 773c
000001f0: 4f7e e53d 9bac b53e 6aed 54bd 872e 913e
00000200: 90bf b73e 626b aebe e1f5 a93d 8c17 f1be
00000210: e51b 113f 47c0 083d 415c ddbe fae5 8abc
00000220: 2893 263c 576f ae3e 11da 48bd 6b80 d03e
00000230: 78a0 67be a3fd 10bd 66c9 90be eaa5 5e3d
00000240: cab8 0c3f d140 ab3d 7a19 bd3c 2b2e 06bf
00000250: 2d52 8c3c ed7e bc3c e621 053f b45c 54bd
00000260: fcd7 9bbe 159d 0cbf 184c 04be 8190 bfbc
00000270: 45eb 2fbc 799e cdbe 0f46 50bf c7ee cbbd
00000280: c29e e6bb 09e9 5c3e 410a a13d 6da9 a9bb
00000290: 0968 5cbc 0a22 1dbe 18a3 ac3d 9976 3cbe
000002a0: 2a12 3a3f 6034 1a3f d850 29bd dd0a 003f
000002b0: bf96 3fbe f31b 9f3d 6c5b bcbc dd3c 513c
000002c0: 7a74 d3bd 200a 8a3d c721 34be 965e 8fbd
000002d0: b870 c63e ae41 053f 8fad 2dbf ff80 aebb
000002e0: 8bc3 0e3e 3fce 12bf b01a 3c3c a25f 2c3d
000002f0: e33d 10bd 54e0 85bd eb1d 1dbf 5ae5 543e
00000300: 5ab7 453d b4f2 af3e 65af 083d 28a4 5dbd
00000310: f12d b33d 2fa7 cabd b8af 40be 5637 d63e
00000320: 8f10 46be c0fe 1a3f e04a a13d 0d86 073d
00000330: 419a 983d 6aee 98be 01ec b8bd 852a 68bc
00000340: abe9 833d 505a 003d 324e 463f bb95 2e3e
00000350: 53f4 8d3d 14c2 d23d 0fec b13b cfd7 023e
00000360: f290 d6be 8633 49be 4d9b 4dbc 1e8e 40bc
00000370: d293 22be 4df3 883e 98bf c23e cc9d b83d
00000380: 3163 83be 31b4 663d 5df9 6d3d d2b6 2e3e
00000390: 9ffb 2e3b 7f36 173d 15df e1bc 55f6 8fbe
000003a0: 2f04 b03d 9a0c e93b ebc2 3d3e 230f 0dbd
000003b0: 8502 b2be 3913 6dbe 793b e03d 1329 05bf
000003c0: 7bc1 6e3d f3fb 82bd df68 80bd 648a 5a3d
000003d0: acdc 983e 2c48 783e b736 7b3d 15cd 20bd
000003e0: d209 32bd ebb5 913d d2f8 93be 90b7 a03d
000003f0: 4da6 3a3e bf8d 793e 0029 08bf c9bf e8bc

fully_connected_layers.4.bias f4 [5]
0.251562 -0.35416442 0.2408744 -0.1836593 -0.061073635
00000000: bccc 803e 0a55 b5be c7a7 763e 2f11 3cbe
00000010: 5928 7abd
