Assignment 3/Dataset1a/Dataset2/WithoutPCA/mlffnn/mlffnn_model_0.pth (torch, 23374 bytes, 6 tensors)

fully_connected_layers.0.weight f4 [40, 81]
000000 d6 66 6b 3d 02 74 77 bd 57 8f d5 3d 3b 82 89 3c
       0.05747112 -0.060413368 0.104277305 0.016785732
000010 95 05 70 bc f7 e4 22 bd fd 67 d8 bd 4b 10 d7 bd
       -0.014649768 -0.03976914 -0.10566709 -0.105011545
000020 56 15 c2 bd 04 65 c8 bd 8e 9f 86 bd 19 31 9d bd
       -0.09476726 -0.09784892 -0.065734014 -0.0767538
000030 72 c9 eb bc 09 ab be bd da 63 72 3c 01 6f cb 3d
       -0.02878258 -0.09309966 0.014794314 0.09933282
000040 41 0f 32 3d 6e 72 19 3d b3 ce de bd f9 61 01 3d
       0.04347158 0.037462644 -0.108792685 0.031587575
000050 ef a8 ba 3d c9 b6 07 3d a6 9e b9 3d 73 ef 30 bd
       0.09114253 0.033133302 0.09063463 -0.043197107
000060 2a 20 e6 3c 01 38 db bd dc ee d4 bc 1b 3f 25 bd
       0.028091509 -0.10704041 -0.025992803 -0.040343385
000070 a1 c1 82 3d 71 18 86 bd 4f c2 87 bc bb d1 94 bd
       0.06384588 -0.065476306 -0.016572146 -0.072665654
000080 7a d4 ad 3d 93 53 37 3c 90 7e d1 bd da 14 44 3d
       0.08487792 0.011189359 -0.10229218 0.047871448
000090 6c 38 2b bd b9 d4 91 bd a2 ce d6 3d b3 19 99 3d
       -0.041801855 -0.07120652 0.10488631 0.07475605
0000a0 46 9f 8f 3d 9d e4 86 bb 53 16 d6 bb f2 c1 83 3d
       0.07012801 -0.0041166083 -0.006533423 0.064334765
0000b0 ef cd e8 bc 25 87 35 bd d4 31 5c 3d ef 81 9a bd
       -0.02841851 -0.044318337 0.053758457 -0.07544314
0000c0 68 87 fa bb d4 cc 88 3d aa b0 d8 3d e2 9b aa bc
       -0.007645536 0.06679693 0.10580571 -0.020826284
0000d0 b6 96 0d bd a2 ac 7b bb cc 97 07 bc 6f e7 d3 bc
       -0.034567557 -0.0038402458 -0.008275937 -0.025867192
0000e0 1d 6f ae bd 43 86 d5 3c b6 dc 40 3c 87 60 93 bd
       -0.08517287 0.026064998 0.011771372 -0.071961455
0000f0 ca 09 e3 bd 8a 42 82 3d 75 ba 3c bd f6 4d 7b 3c
       -0.110858515 0.063603476 -0.046076257 0.015338412
000100 1c 72 60 3d 97 49 52 bd c7 75 09 3d 6f 54 b9 bb
       0.054796323 -0.051339712 0.033559587 -0.005655817
000110 54 4c dc 3c af 27 f2 bb 95 6b 20 3d dd d2 9c 3d
       0.026891865 -0.0073899846 0.0391651 0.076574065
000120 63 26 c1 3b 89 05 b6 3d c5 bb 31 bd d8 4f a5 3d
       0.0058944686 0.088877745 -0.04339196 0.080718696
000130 1f 89 3b bb 7a fc 81 3d 7b e8 91 bd 4b 0d 06 bd
       -0.0028615666 0.06346984 -0.0712442 -0.03272752
000140 36 7d 65 bd 9c a7 a9 3d 68 8e af bd 53 ed 3d bd
       -0.056027614 0.08283922 -0.08572084 -0.046368908
000150 c6 bc 89 bc 57 20 b5 bd 66 20 43 3d f5 04 22 3d
       -0.016813647 -0.08844059 0.04763832 0.03955551
000160 54 15 38 3d 57 d3 3e bd 5d 5d c2 3c b3 14 4e 3c
       0.044942215 -0.046588268 0.02372616 0.012578177
000170 6b cb cb bd 9e dd 8f bd 14 1d 7a 3c 86 84 dc 3d
       -0.09950908 -0.07024692 0.015265722 0.10767464
000180 34 08 0b bd bf 20 ce bd 0f 48 dc 3d ff d5 0b 3c
       -0.03394337 -0.100648396 0.107559316 0.008534907
000190 d8 10 9f 3d fa 48 b7 bd c4 96 93 3b b0 36 26 3c
       0.077668846 -0.08949466 0.0045040566 0.010144874
0001a0 85 96 3e bd 2a 53 c5 bd b1 eb 05 bd 91 9a 64 bd
       -0.046530265 -0.09635003 -0.032695476 -0.05581147
0001b0 f5 66 54 bd b7 7d bc bd 14 13 ad 3d 70 68 df bc
       -0.051856 -0.09203666 0.084509045 -0.02727148
0001c0 f0 27 ae 3c 64 94 c8 bd f6 21 9b 3d 71 dc 7c bd
       0.021259278 -0.09793928 0.07574837 -0.061733667
0001d0 1a 22 d3 bd af 2e e1 3d 01 69 e5 3d b7 ce 15 bd
       -0.10309239 0.10995232 0.112016685 -0.03657409
0001e0 f9 3d d4 3d 03 0a 3e bd 3d aa 96 3d f0 4f e6 bc
       0.10363383 -0.046396267 0.07356689 -0.028114289
0001f0 31 75 40 bd 89 69 25 3c 51 73 4d bd 67 1e ad bd
       -0.046986762 0.010095962 -0.050158802 -0.084530644
000200 b2 58 d1 3c b1 7d 7d bd e7 7f 67 3c e1 ed 8b bd
       0.025554989 -0.061887447 0.014129615 -0.06832481
000210 4c 8b 84 bd 76 e3 30 3c 63 4a a6 3d f2 d4 38 3d
       -0.06471881 0.010796418 0.08119657 0.045124955
000220 52 15 f7 3c 03 16 01 bd 8f 71 79 3d 31 54 75 bc
       0.030161534 -0.031515133 0.060899314 -0.014973686
000230 c7 d1 17 3d 8d 63 ab 3b c5 16 8d 3d 34 6b 0b bc
       0.037065294 0.0052303732 0.068891086 -0.008509446
000240 5a b4 ca 3d e4 f7 92 3d 9d ef b0 3d 04 bb 7b 3c
       0.098976806 0.07176188 0.086394526 0.015364412
000250 41 d0 d3 bd 39 6f b4 bd e0 74 b4 bc 52 65 80 bd
       -0.10342456 -0.088102765 -0.022028387 -0.06269325
000260 a4 13 76 3d d9 1c ab bd 86 5e 3b bd 92 04 7d 3d
       0.060077325 -0.08355112 -0.04574444 0.061771937
000270 9d 49 b7 3d ee e3 87 bd 5e a2 bc bd 35 d4 76 ba
       0.089495875 -0.06635271 -0.092106566 -0.00094157766
000280 ce 9b df bd 8d 8b 28 3d f5 03 1e bc b3 96 47 bd
       -0.10918389 0.04114871 -0.009644498 -0.048727702
000290 ee 8d 05 bd 1a b7 a7 3b 35 52 ff 3c 13 8a 9a 3d
       -0.032606058 0.005118263 0.031167129 0.07545867
0002a0 05 35 96 bd f6 9c 4c 3d 60 78 5e bd 01 1d aa bc
       -0.073343314 0.049954377 -0.054314017 -0.020765783
0002b0 85 14 bd bc b4 39 e5 bb 21 1d e6 bc 8b 2d 11 3e
       -0.023081074 -0.006995404 -0.028090062 0.1417753
0002c0 6a 61 55 bc c5 94 b5 3d e0 e2 9e 3d de 0f 59 3d
       -0.013023714 0.08866266 0.07758117 0.052993648
0002d0 44 d8 34 3d e7 a3 67 bd 80 f1 a8 3d 11 13 91 3c
       0.04415156 -0.056552794 0.082491875 0.017709287
0002e0 a0 b9 b4 3c 7b f6 fc bd 41 db 0e be dd 9e 4a 3c
       0.02206117 -0.123517 -0.13950826 0.0123669775
0002f0 8d c1 a5 3d 61 f4 ad bc b4 48 a0 3d 55 43 bf bd
       0.080935575 -0.021234693 0.07826367 -0.093390144
000300 e4 8b 85 3d e1 87 cc 3d 81 80 f5 3b 09 d6 21 bd
       0.06520823 0.09986854 0.0074921255 -0.03951076
000310 c1 a1 f4 bd 27 5e 92 bd 0a 19 c2 3d 4e 71 51 3e
       -0.119449146 -0.071468644 0.09477432 0.20453379
000320 c8 88 2c 3e de 24 04 bd d5 3b f6 bd 45 1c ac 3d
       0.16849053 -0.03226172 -0.12023131 0.084038295
000330 5b 8f a1 3d 0d f3 67 3d 8e 4a fd 3c fd a4 16 be
       0.07888671 0.056628276 0.03091934 -0.14711376
000340 17 20 ed bd e5 eb b8 bd 47 1a 8f bd 45 6f 8a 3d
       -0.11578386 -0.09029368 -0.06987434 0.06759504
000350 03 00 b9 3d da ee ca 3b 3d c6 13 be a4 ee 4c 3b
       0.09033205 0.006193024 -0.1443109 0.003127017
000360 c5 4c 3f 3b c1 5c 84 3c 02 e2 d0 bd 6b dd c9 bd
       0.0029190045 0.01615751 -0.101993576 -0.09856685
000370 2d a8 c1 3c 48 0f d0 bd 21 5b 57 bc 06 e3 6a 3d
       0.023639763 -0.10159165 -0.013144285 0.057345413
000380 92 c7 84 3d 1a 75 69 bb bd f7 02 3d f0 ad 95 bd
       0.064833775 -0.0035622776 0.031974543 -0.073085666
000390 38 17 8e 3b ee 27 20 3b c2 d3 0d be ef 54 e3 bd
       0.004336264 0.0024437862 -0.1385031 -0.11100184
0003a0 4b bf 9a bd 78 50 87 3d 8c af 9c bd 8c 01 8a 3d
       -0.075560175 0.06607145 -0.076506704 0.06738576
0003b0 59 92 88 3c bf 60 1b be 6f 20 bd bd 4f 5f c2 3d
       0.016671347 -0.15173624 -0.09234702 0.09490835
0003c0 7a 05 82 3b da b4 04 be c7 95 93 bd 8b d1 7a 3c
       0.003967938 -0.12959614 -0.07206302 0.015308748
0003d0 c5 c3 5e 3e 5c 9e 2b 3d 0e f0 cf bc 2d 78 46 3e
       0.21754368 0.04189907 -0.025383022 0.19381781
0003e0 29 85 91 3d 42 33 1b 3e d2 8f 77 3c 9f d0 d9 bd
       0.071054764 0.15156272 0.015109973 -0.106354944
0003f0 16 c6 b0 3d 16 9b 3e 3e d8 b7 00 bd d5 02 fb 3c
       0.08631532 0.18613848 -0.031425327 0.030640999

fully_connected_layers.0.bias f4 [40]
000000 e4 3d dd bd eb 5b b2 bd c0 99 73 3c 92 e4 5a 3d
       -0.1080282 -0.08708938 0.0148682 0.053440638
000010 dd 7b 97 bd 79 7c 21 3f 11 a1 94 3e 8e c1 47 bd
       -0.07396672 0.63080555 0.29029134 -0.048768573
000020 b9 f7 dd bd d6 8a a2 3e 16 03 e5 bd 2c 36 91 bd
       -0.10838265 0.31746548 -0.11182229 -0.070904106
000030 fd 70 7d 3e 00 e3 ab bd 6d a7 eb 3c 2e 31 df 3e
       0.24750133 -0.08392906 0.028766358 0.4359221
000040 3b bd b9 bd fd a8 27 bd c0 77 b7 be 3c bf 42 bd
       -0.09069296 -0.040932644 -0.3583355 -0.047545657
000050 8e 71 97 be 9c e2 01 3d 66 ec aa 3e 6d ef 2d 3f
       -0.29578823 0.031710252 0.33383483 0.6794346
000060 5b 0e de 3e 1d f9 b0 3e 13 25 71 bc 8c 8d e2 bd
       0.43370327 0.34565058 -0.014718312 -0.11062154
000070 64 14 7a bd e9 ba 9c 3d 0c 30 2c 3e bf eb 9e be
       -0.061054602 0.07652838 0.16815203 -0.31039235
000080 1f 36 ad bd 51 20 43 3d f7 20 e1 bd ca 2e 4a 3e
       -0.084575884 0.04763824 -0.10992616 0.19744411
000090 92 f8 ef be ef e5 28 3d 47 89 23 3e 08 5d 8c 3e
       -0.46869332 0.041234907 0.15970336 0.27414727

fully_connected_layers.2.weight f4 [40, 40]
000000 4c 26 67 bd 59 00 c9 bd 08 b5 03 bd b4 52 dc 3c
       -0.056433007 -0.098145194 -0.032155067 0.026894905
000010 a0 f9 5a 3e 49 3f 11 be a3 f1 f7 bd 51 f3 e9 bb
       0.21384287 -0.14184298 -0.121066354 -0.0071396013
000020 39 28 17 3e 58 f7 0c bc dd 3b b7 3d 68 89 94 bd
       0.14761437 -0.008603893 0.08946965 -0.07252771
000030 c8 e2 5f 3e c1 d7 f6 ba 5f 42 29 3d 16 01 c0 3d
       0.21863854 -0.001883261 0.041323062 0.09375207
000040 95 0b bb 3d 2a 43 c0 3c 3c 39 c8 bd 3d 65 21 3e
       0.091330685 0.023469526 -0.097765416 0.15761276
000050 c7 46 f3 3d 3e 18 b4 bc d8 fa d7 3d b1 be 26 bc
       0.11878734 -0.021984216 0.105458915 -0.0101773
000060 96 1c 36 3e a6 0e 27 3e f2 29 87 bd 75 6c 0e 3e
       0.17784342 0.16314182 -0.06599797 0.1390856
000070 48 48 0c 3e 40 89 72 3e d7 4f 41 be 19 11 c9 3d
       0.13699448 0.23685169 -0.18878113 0.09817714
000080 d8 e2 a2 bd fa f1 31 3d 91 7d 9e 3d 3f 27 db bd
       -0.07953423 0.043443657 0.07738794 -0.10700845
000090 de a2 ba bd 2f a2 f8 3d db d7 7a 3e 09 ea b2 bd
       -0.09113096 0.12140309 0.24496405 -0.08736045
0000a0 c9 ad 03 3c 3b ad 0b be c3 65 70 3d 1f 5d 16 bd
       0.008037039 -0.13640301 0.058690798 -0.0367099
0000b0 c9 e3 21 be 71 8e 23 be a5 69 4f 3e f4 6b 06 3e
       -0.1580955 -0.15972306 0.20255144 0.13127118
0000c0 a2 0b 46 bc f9 70 e3 3d 70 01 80 bd 5d 55 11 be
       -0.012087734 0.11105532 -0.06250274 -0.1419272
0000d0 44 70 5e 3d 47 0b 05 3d 7f a3 a9 be 68 a8 28 3f
       0.054306284 0.032481458 -0.3313255 0.6588197
0000e0 7a 0e 96 be 75 ab 19 be 8d 90 a8 be 09 6e 16 bf
       -0.2930792 -0.15006812 -0.32922783 -0.5876165
0000f0 ad ae f3 bd 5c b7 88 3e e8 e7 59 bd 37 b0 b4 3e
       -0.11898551 0.26702392 -0.05319968 0.3529069
000100 34 56 65 be b3 b0 97 3e 69 96 92 3c 45 01 de 3e
       -0.22396165 0.29626998 0.017893987 0.43360344
000110 13 5a c4 bd 9c 8d 36 be ea 83 1a be 83 03 7b 3e
       -0.09587493 -0.17827457 -0.15089384 0.24513058
000120 0c 3f be 3d cd cb 27 3f b6 e6 13 3e 7f b1 43 bd
       0.09289369 0.6554535 0.14443478 -0.047776695
000130 ea f3 19 be 6a 35 e7 3d 03 82 0a 3e bf 9f a2 3e
       -0.15034452 0.11289485 0.13526158 0.31762502
000140 7e 7f 96 bd ed e4 0d 3e 63 85 02 3e 33 32 d3 bc
       -0.07348536 0.1385686 0.12746195 -0.025780773
000150 f3 a0 d7 bd 41 0d 30 b9 49 af f1 bd 4f e6 cf 3d
       -0.105287455 -0.00016789605 -0.11801011 0.1015135
000160 18 f3 93 bd 50 10 18 be fc 1e 14 be e3 fb 06 be
       -0.07224101 -0.14849973 -0.14464945 -0.13182025
000170 06 de b3 3b c9 03 8c 3c b0 b6 f3 3c 7f 43 14 3d
       0.0054891137 0.017091649 0.029750198 0.03619718
000180 5c d6 93 bd 30 aa 87 bc 0a f2 cd 3d ba 8d e6 3b
       -0.0721862 -0.016560644 0.10055931 0.007035938
000190 55 65 69 bd 3f 49 08 bc cf 4d ed bd 64 08 80 bd
       -0.056981403 -0.0083182445 -0.115871064 -0.062516004
0001a0 49 48 20 3e 74 bd 89 bd 81 f4 96 3d ec 34 c5 bc
       0.15652575 -0.067255884 0.07370854 -0.024073087
0001b0 d1 58 92 3d 93 b6 f4 3d a7 ea ed bd 93 70 d6 bd
       0.07145847 0.11948886 -0.11617022 -0.104706906
0001c0 ca ae ad bd 35 21 ae 3d 7c 0f cc bd 78 cf 13 3e
       -0.08480604 0.085024275 -0.09963891 0.14434612
0001d0 05 8c c3 3d 65 6c 8f 3d 05 b5 eb bd b8 c9 01 bd
       0.09548191 0.070030965 -0.11509136 -0.031686515
0001e0 87 f3 26 bd f7 45 6e 3d 19 c0 a4 bd 9d 25 e4 3d
       -0.04075959 0.058172192 -0.08044452 0.11139987
0001f0 2e 2a 9a bd 40 03 a0 3d 7f e3 3c 3d bc 0f f8 3d
       -0.075275764 0.0781312 0.046115395 0.12112376
000200 a9 82 ac bd a8 47 96 bd 30 58 d1 3c d5 aa 84 3d
       -0.08423359 -0.07337886 0.025554746 0.06477896
000210 cb 83 9f bc 70 0d 1e 3e 0d 22 a0 bb 32 b4 5f 3d
       -0.019472023 0.15434813 -0.0048868717 0.054615207
000220 03 0b f9 bd 6c cd ab 3d 32 5e 10 bd fc 2d e0 3d
       -0.121603034 0.083887905 -0.03524608 0.10946271
000230 ae a0 8a 3c 7a b4 0d be f6 c6 df bd 84 fd fa 3c
       0.016922321 -0.13838378 -0.10926621 0.030638464
000240 b3 e4 86 3d 27 7d 12 be 63 3e 33 bd 13 a3 c4 3c
       0.0658659 -0.14305554 -0.04376067 0.024003541
000250 23 d4 0f bd 94 01 87 bd 94 13 56 3d c0 68 c4 bd
       -0.03511442 -0.06592098 0.052264765 -0.09590292
000260 d7 57 87 3d c6 4a 6f 3d 9e 9b a3 bc e0 73 ff bd
       0.06608551 0.05842092 -0.019971665 -0.12473273
000270 ee fb f9 3d 89 e7 f7 bc ab df 15 bd 4c b6 1b be
       0.12206255 -0.030261772 -0.03659026 -0.1520626
000280 bc e2 c6 3d e0 ae 68 3b d8 b6 8b 3d 57 08 57 bd
       0.09711215 0.0035504624 0.06821984 -0.052498188
000290 96 ea a2 bc ef 92 f2 3c 38 17 14 bd 78 a1 b2 bd
       -0.01988725 0.029611079 -0.036154956 -0.08722204
0002a0 f0 4b 90 bd 26 2f 1d 3e b8 94 1a 3e 5b 7c 24 bd
       -0.07045734 0.15350017 0.15095794 -0.040157657
0002b0 2d 4b cf 3d 8a c6 fe 3d b9 5e 07 3e a6 e6 fb bd
       0.101217605 0.12440212 0.13219728 -0.12299852
0002c0 2f 59 19 3e eb 36 17 be 92 6f 81 bd 94 cf 17 bd
       0.14975427 -0.14767043 -0.063201085 -0.037063196
0002d0 2d ab cd bd be ff 8b 3c 10 9e 32 bd 40 7e 38 bd
       -0.10042415 0.01708972 -0.04360777 -0.045042276
0002e0 fd 4e 05 be 58 3f cb 3d f8 70 88 3d 74 f8 92 bd
       -0.13018413 0.09924191 0.06662172 -0.07176295
0002f0 59 2a 0a 3e 54 d6 9b bd d2 09 a2 3d 6c 89 bd 3d
       0.13492717 -0.07609239 0.07912029 0.09254727
000300 eb 2b 0f be 04 9f e8 3d 61 01 5a 3d f3 0d 39 3d
       -0.13981597 0.11358455 0.05322397 0.04517932
000310 4b cd 00 3e 65 0d 19 be 37 36 4a bd 4d e4 10 be
       0.12578313 -0.14946516 -0.04936811 -0.1414959
000320 7e 47 9b bd 2b 12 ff bd d3 4d a6 3c 03 7c 87 3e
       -0.075819954 -0.12454637 0.020300781 0.264618
000330 a6 8b 6e 3e d5 ee 2e 3e 4b 42 a5 be e7 98 6b 3c
       0.23295459 0.17083295 -0.3227714 0.0143797165
000340 44 6f ff bc c5 44 0f bd 1e 2b 3b 3c a8 a8 fb 3d
       -0.031180985 -0.034977693 0.011423854 0.12288028
000350 e3 dc 25 3c 6d d2 88 bd 98 08 6d 3d dc 2d 62 be
       0.010123464 -0.066807605 0.057869524 -0.22087806
000360 57 50 21 3e c5 28 11 3e 39 ba 86 3e 91 3a cc 3e
       0.15753303 0.14175709 0.26313952 0.39888433
000370 28 90 5c 3e 97 8c 37 be e0 5c 40 be 91 22 80 be
       0.21539366 -0.17924725 -0.18785429 -0.25026372
000380 af c8 3b 3e 2e 89 40 bd 86 93 14 be fc 02 e2 be
       0.18338273 -0.047005825 -0.145094 -0.44142902
000390 bf 78 fb bc 09 00 d2 bc 1c 3f 1b 3c e7 24 e7 3b
       -0.030697225 -0.025634782 0.009475496 0.0070539596
0003a0 bc f9 1e be cd 46 8a be fa 32 9d 3d 07 3a 81 3e
       -0.15524954 -0.27007142 0.07675739 0.25239584
0003b0 7c bc e0 3d e6 56 41 3e e7 8c 54 bc ce b5 94 be
       0.109734505 0.18880805 -0.012973047 -0.29044956
0003c0 6b af cb 3d 6c eb 12 3d 77 21 87 bd e9 27 f5 3e
       0.09945568 0.035869047 -0.0659818 0.47882012
0003d0 91 14 00 3f 97 0a ab be 62 05 b5 bd 5b 6f cd bd
       0.5003138 -0.33406517 -0.08838917 -0.10031005
0003e0 ef 3a cd 3c 0f 93 f0 be 3d b5 12 3e 6e 83 94 bd
       0.025052516 -0.46987197 0.1432695 -0.07251631
0003f0 3d 3f b9 3e 39 3d a2 3d 81 fa 20 3e 75 97 9c be
       0.3618106 0.079218335 0.1572056 -0.30584303

fully_connected_layers.2.bias f4 [40]
000000 6e 66 f0 bd 12 f2 71 3e 2c 2b 2c bd 51 01 ff bd
       -0.11738287 0.23627499 -0.04203336 -0.12451423
000010 9e 36 03 be 00 46 e7 3d e4 17 78 3e 7e d1 33 3b
       -0.12813804 0.11292648 0.24227864 0.00274381
000020 15 5a eb bd 61 51 a6 3d e9 fa 1d 3f ed bf f4 3e
       -0.11491791 0.081209905 0.61710984 0.47802678
000030 f4 d6 c5 3c 6c ed 53 bd b7 93 11 3e a1 f5 b7 3c
       0.02415035 -0.051740095 0.14216505 0.022455992
000040 52 37 c7 3e e9 35 17 3f 9b 04 33 bd 23 a6 6d 3a
       0.38909394 0.59066635 -0.043705564 0.0009065589
000050 b7 ef a0 bd 72 7b e4 bd 34 e5 97 3d 60 e6 48 3e
       -0.07858222 -0.11156358 0.07416764 0.19619131
000060 d9 34 25 3e e4 23 a2 3c 5d aa 2d bd af de 8f 3d
       0.16133441 0.019792505 -0.0423988 0.070248954
000070 fd e8 07 be 7f 0c 3b 3e 17 79 ef bd 66 e6 2a 3e
       -0.13272472 0.18266486 -0.11693018 0.16689453
000080 7f 11 09 bd 4f e4 de bd 8d b0 d4 bd c5 58 ce 3c
       -0.03346395 -0.1088339 -0.10385237 0.025188813
000090 df 92 90 bd 56 a2 af bd 89 6a e5 bd 94 df aa 3e
       -0.070592634 -0.08575885 -0.112019606 0.33373702

fully_connected_layers.4.weight f4 [5, 40]
000000 02 a0 92 be 62 1f a5 3e 29 b5 00 be 3e cd b1 bd
       -0.286377 0.32250506 -0.12569107 -0.08681725
000010 da 0a c8 3d 8d 88 94 bd 01 de ad bf 9f a6 4d 3d
       0.09767695 -0.072526075 -1.3583375 0.05020773
000020 8b 1c 5f bd c4 51 40 3b 95 e4 1b 3f 57 3e bf 3f
       -0.05447058 0.002934561 0.60895663 1.49409
000030 26 bd 54 bf 99 36 e7 3c f6 87 1f 3e 1a 6f 14 be
       -0.8310112 0.028224276 0.15579209 -0.14495507
000040 4a 28 89 3f fc f2 1d 3f dd 3c dd 3e 4a 90 2b be
       1.071542 0.6169889 0.43210497 -0.1675426
000050 94 70 2e bc bc 80 b6 bc 6c e2 49 3e dd 28 0c bf
       -0.010646958 -0.022278182 0.1971528 -0.5474985
000060 6f 0d f0 bd b1 83 10 bf 58 52 c6 bb f7 91 8a 3d
       -0.11721312 -0.56450945 -0.0060522966 0.06766122
000070 cc 65 96 bc 13 47 0e 3e b1 b2 ca bd 40 3a 18 bf
       -0.018359087 0.138943 -0.09897364 -0.5946388
000080 6c 0b 1d 3f 0c ba 16 bd c6 53 d5 3e 3f b8 05 be
       0.61345553 -0.036798522 0.41665477 -0.13058566
000090 59 d6 d6 bd 33 43 22 bd 4e 41 44 3d 15 29 06 3f
       -0.10490102 -0.039614867 0.047913842 0.52406436
0000a0 85 1b 26 bd cd c8 4e 3f 54 53 dc bd 51 0f 0a 3d
       -0.04055359 0.8077515 -0.10758081 0.033706013
0000b0 5a 36 07 be 9f 99 b2 be fd 1a e8 3e 62 19 a4 bd
       -0.13204327 -0.3488283 0.4533309 -0.08012654
0000c0 ed 6c 80 3e af 5d 0e bf cd a4 81 bf 6e 89 5e bf
       0.25083104 -0.556117 -1.0128418 -0.8692845
0000d0 fa 9b 5b 3f 82 43 3b 3e 3c 2a 9b bd 0b 5d 91 3e
       0.85784876 0.18287471 -0.07576415 0.283913
0000e0 75 2a 84 be f2 4c 3b bf 07 1b 96 3e 34 2d 56 3f
       -0.25813642 -0.73164284 0.29317495 0.83662724
0000f0 9f eb cd 3d 6f 9e 16 be c6 30 a0 be c3 05 84 3e
       0.10054707 -0.14708875 -0.3128721 0.25785646
000100 fc 88 67 be 50 97 78 3f 4d 59 16 3e b4 4e 3a be
       -0.22610849 0.97105885 0.14682503 -0.18194085
000110 89 d4 09 3c 92 d8 40 bf 13 90 3d 3c 6d be c9 3e
       0.008412489 -0.7533046 0.0115699945 0.39403096
000120 b6 c2 94 3f d0 26 3c be 72 46 d8 3e c2 e1 a2 3e
       1.1621921 -0.18374181 0.42241246 0.31812865
000130 87 56 2e bd 1e a4 03 be fd cf 0f 3e 07 25 a1 bd
       -0.042562988 -0.12855574 0.14044185 -0.078683905
000140 1c 9c b0 3d c5 86 5a be 09 d4 20 3c 89 7a e0 3d
       0.086235255 -0.21340473 0.009816178 0.10960872
000150 31 91 2d bd e8 4a 30 3f d3 3d 10 3e 82 77 d4 bd
       -0.042374793 0.688643 0.14086084 -0.10374357
000160 0f 85 99 3e f9 82 bf be 2d a2 35 be e2 9f fa 3d
       0.29984328 -0.37404612 -0.17737646 0.122375265
000170 3c bb a9 3d 73 6a 3d 3d 26 f0 17 3e c6 e8 d2 3c
       0.08287665 0.046244096 0.14837703 0.02574576
000180 20 95 cb be da d6 cb be 8e 24 fb be 50 cc 5c 3e
       -0.3976221 -0.39812356 -0.49051327 0.21562314
000190 22 f6 b7 bd 04 72 05 be 90 a1 e1 3e 14 9a 4c 3f
       -0.08982493 -0.13031775 0.44068575 0.79922605
0001a0 f4 e4 26 bf bd e8 36 3f 8a 4c 41 3d 8e f6 9b 3e
       -0.65193105 0.7144888 0.047192134 0.30461544
0001b0 cb cd 6c bd 55 68 0e 3f 54 38 00 3e 65 31 3e bf
       -0.057813447 0.5562795 0.12521487 -0.7429412
0001c0 85 1e 43 bf 0b 4b b8 3e b4 98 04 bc f0 c5 8b 3e
       -0.76218444 0.35994753 -0.008093048 0.27299452
0001d0 0e 3d 1e 3d cb bd 9e bd 62 a0 0c 3c 19 67 09 3e
       0.038632445 -0.07751044 0.00858316 0.13418235
0001e0 da 99 f1 3c ad 47 93 bf 96 08 8d bd bf 55 02 be
       0.029492307 -1.1506249 -0.06886403 -0.12728022
0001f0 d4 63 ee bc 5d 90 ba 3e 73 18 8d 3f f8 6c e3 bd
       -0.029100336 0.36438265 1.1023086 -0.111047685
000200 be 73 eb be 85 a7 14 3f 77 d9 d7 bd 63 00 b0 3e
       -0.45986742 0.58068115 -0.10539525 0.34375295
000210 83 ea 32 3f 7a 6a 1e bd 53 41 ca 3e 73 af e6 3e
       0.69889086 -0.038675763 0.39502963 0.45055732
000220 3c 11 27 bf a8 0e da be 4e 0e 7e 3e 42 2a 4a be
       -0.6526067 -0.42589307 0.24810144 -0.19742683
000230 f4 38 1b bd 47 74 13 3e 33 a4 f8 be 69 75 65 bd
       -0.03789611 0.14399825 -0.48562774 -0.056020174
000240 a5 59 8c 3e c1 ca 3a bf 8d a0 bb 3d f9 9f cc be
       0.27412143 -0.7296563 0.09161482 -0.399658
000250 00 cc 1e 3e 2b f8 42 be 87 93 79 bd 7c e5 d0 3e
       0.15507507 -0.19039981 -0.06093171 0.40800083
000260 f4 18 23 be 50 fe ff be a8 2b bd 3a 09 d3 9e be
       -0.15927488 -0.49998713 0.0014432566 -0.31020382
000270 78 5a 85 3d 30 f7 69 3d 12 81 9d bd 96 18 90 bf
       0.06511396 0.057120502 -0.07690634 -1.1257503
000280 38 e8 ab 3e 50 47 8a 3e 92 9a c1 bc 40 7b ce bd
       0.33575606 0.27007532 -0.023633275 -0.10082102
000290 75 5f 9d bd b9 0b 06 bf 61 ee a7 be 85 a2 db bb
       -0.076842226 -0.5236164 -0.32799056 -0.0067027234
0002a0 fb c9 25 3e 1b cd c3 bd 23 01 62 3f 01 08 83 bf
       0.1619033 -0.09560605 0.88282984 -1.0236818
0002b0 8e 40 59 bf e9 0d 92 be 12 01 3f bf 9d d0 5d bf
       -0.8486413 -0.28526238 -0.7461101 -0.86646444
0002c0 1a 6a 68 bc 0e ed 80 3f e9 d5 4c be e3 ff e4 be
       -0.014185453 1.0072343 -0.20003475 -0.44726476
0002d0 31 ab 21 be 74 95 1e 3e 66 68 a8 3d d8 0a e2 be
       -0.1578796 0.154867 0.082230374 -0.44148898
0002e0 74 a2 b6 3e 90 00 0b bf e0 e4 cf 3d bb 40 4c 3e
       0.35670817 -0.54297733 0.10151076 0.19946568
0002f0 8f 19 c0 bd 27 8a 8b 3d 04 c2 d8 3d 0c 6c 65 3f
       -0.09379875 0.0681346 0.105838805 0.8961799
000300 3f e8 67 bf e3 f7 00 3d 72 fa 19 bf fd 2c 82 be
       -0.90588754 0.031486403 -0.60147774 -0.25424948
000310 38 e5 03 3e b0 63 da bc b9 75 c1 3c 67 4a 0b 3f
       0.12880409 -0.026658863 0.023615705 0.54410404

fully_connected_layers.4.bias f4 [5]
000000 56 c9 89 3d 57 d7 fa be 1d 35 8d bd 93 2f b6 be
       0.06727855 -0.48992416 -0.06894896 -0.3558317
000010 89 47 cf 3e
       0.40484264
