Assignment 3/Dataset1a/Dataset2/WithoutPCA/mlffnn/mlffnn_model_12.pth (torch, 52696 bytes, 6 tensors)

fully_connected_layers.0.weight f4 [100, 81]
0	0xbde4868b	-0.111584745
1	0xbc702df0	-0.01465939
2	0xbe2f5181	-0.17120935
3	0x3d9d7319	0.07687969
4	0x3e4dd221	0.20099689
5	0x3e37f318	0.17963827
6	0x3d9d8c85	0.076928176
7	0x3c8ba9b3	0.017048692
8	0xbe1dfca8	-0.15428412
9	0xbd6ffdf9	-0.058591817
10	0x3d1f6ddf	0.03892314
11	0xbd7d098a	-0.061776675
12	0xbd6ba4db	-0.057530265
13	0xbe0922a7	-0.13392125
14	0xbdf9947d	-0.12186525
15	0xbd8be5bf	-0.0683093
16	0xbcf0c9e9	-0.029393153
17	0x3d9cd182	0.07657148
18	0x3d21e2dc	0.03952299
19	0xbe66b492	-0.2252982
20	0x3dd54f23	0.10415485
21	0x3e1b094a	0.15140262
22	0x3e0463b2	0.12928656
23	0xbdb90fbb	-0.090362035
24	0xbda9e1a1	-0.082949884
25	0xbe110350	-0.1416142
26	0xbda8917a	-0.082308725
27	0x3df1c646	0.11805396
28	0x3c9330f6	0.017967682
29	0x3dea14d0	0.11429751
30	0x3d6a775a	0.05724273
31	0x3d2ab9d8	0.04168114
32	0x3d139e55	0.03603967
33	0xbdd48c18	-0.10378283
34	0xbdada3de	-0.08478521
35	0x3d8cb628	0.06870681
36	0xbbd4e079	-0.006496486
37	0xbcbad85a	-0.022808243
38	0xbd86b2c9	-0.06577069
39	0x3db36364	0.08759192
40	0x3e195744	0.14974695
41	0x3cdf95ed	0.02729317
42	0xbd20a6d8	-0.039221615
43	0xbd1bc460	-0.038029075
44	0x3c914a9d	0.017735774
45	0xbccb6ca4	-0.024832077
46	0xbe31daf6	-0.17368683
47	0x3d61b9b2	0.055108733
48	0x3d846a78	0.0646562
49	0x3ca41068	0.020027354
50	0x3b6c6402	0.0036070351
51	0xbce1abf0	-0.027547807
52	0xbd88e63c	-0.06684539
53	0x3dd7a843	0.1053014
54	0x3c6cac47	0.014445371
55	0xbca76b6c	-0.020436965
56	0xbd9b2588	-0.07575518
57	0x3d4c6d70	0.049909055
58	0x3e00c563	0.12575297
59	0x3cd966b8	0.026538238
60	0xbd05c295	-0.03265627
61	0x3cc0fd69	0.023558335
62	0xbe0a3a62	-0.13498834
63	0xbd88cb52	-0.06679405
64	0xbba5bc68	-0.00505786
65	0xbe14363c	-0.14473814
66	0x3d01f23b	0.03172515
67	0x3e077293	0.132273
68	0x3dd7f2a0	0.10544324
69	0xbe1477f2	-0.1449888
70	0xbe679661	-0.22615959
71	0xbd8725e4	-0.06599024
72	0x3de2e200	0.11078262
73	0xbc58178a	-0.013189206
74	0x3d80e4ec	0.062936634
75	0x3c3f0c78	0.011660688
76	0x3da67d38	0.08129352
77	0x3c88f170	0.016716689
78	0x3c829e20	0.01594454
79	0xbd942df6	-0.07235329
80	0xb8cf7cbc	-9.893763e-05
81	0x3d911503	0.07084086
82	0xbdbdcbd9	-0.092673965
83	0x3d90a527	0.0706275
84	0xbd05c274	-0.032656148
85	0x3cf3d88e	0.029766347
86	0x3d95092e	0.072771415
87	0x3d2a9d5e	0.041653983
88	0x3d0dd67d	0.03462838
89	0x3d18fdaf	0.037351307
90	0xbc564ed9	-0.013080322
91	0x3d185617	0.037191477
92	0xbde06eed	-0.109586574
93	0xbdbaeb40	-0.091269016
94	0x3e3bb0a1	0.18329097
95	0x3da5a60c	0.080883116
96	0xbc950460	-0.018190563
97	0xbd279021	-0.040908936
98	0x3dd0d475	0.10196773
99	0x3d31fd01	0.043454174
100	0x3d3b83e9	0.045780096
101	0x3d9a1d68	0.0752514
102	0x3e02709b	0.12738268
103	0x3e295afb	0.16538613
104	0x3d7b2ea3	0.061323773
105	0xbd231bf8	-0.039821595
106	0xbe0afdac	-0.1357333
107	0xbd4d359e	-0.05009996
108	0xbd1ab588	-0.037770778
109	0xbd3d3df3	-0.046201658
110	0xbdd62f0f	-0.104581945
111	0xbc7a29c0	-0.015268743
112	0x3b12018f	0.002227876
113	0x3c9ff468	0.019525722
114	0x3dc34ee2	0.0953653
115	0x3b873892	0.0041266168
116	0xbc5a2303	-0.0133140115
117	0xbda895c3	-0.0823169
118	0x3d15af05	0.036543865
119	0xbd617648	-0.055044442
120	0x3d506135	0.050873954
121	0xbc10a823	-0.008829149
122	0xbd8f3eba	-0.06994386
123	0x3d4d4a07	0.050119426
124	0x3dc214e2	0.09476639
125	0x3d967279	0.07346053
126	0xbb9943d2	-0.0046772743
127	0x3da2f0ae	0.07956062
128	0x3da6afaa	0.08138974
129	0x3d9676bc	0.073468655
130	0xbd3eee5c	-0.046614036
131	0xbd721c62	-0.0591091
132	0x3d7e87dd	0.062141288
133	0xbe198bc7	-0.14994727
134	0xbd8663ab	-0.06561979
135	0x3b6ea1c7	0.0036412345
136	0xbdf37ae6	-0.118886754
137	0x3b4a14bb	0.003083511
138	0xbdde52f0	-0.10855663
139	0x3e12d429	0.14338745
140	0xbca9a173	-0.020706868
141	0xbe07c3c0	-0.13258266
142	0x3d29accc	0.041424558
143	0xbe4ded7b	-0.20110123
144	0xbdfe9562	-0.12430836
145	0x3dd9fd44	0.1064401
146	0x3c0636b9	0.008191758
147	0xbe1347ce	-0.1438286
148	0xbdc00e9d	-0.09377787
149	0xbd9a8030	-0.07543981
150	0xbd87a0be	-0.06622456
151	0xbd24ae94	-0.040205553
152	0xbd8e7965	-0.06956748
153	0x3e1eb956	0.15500388
154	0x3df45fbb	0.11932322
155	0x3c8f6278	0.017503008
156	0xbe247d3a	-0.16063395
157	0x3dbb61fd	0.09149549
158	0xbd9adbe8	-0.07561475
159	0x3d7e033e	0.06201481
160	0x3e190a31	0.14945294
161	0xbca82fe4	-0.020530649
162	0xbc7a4844	-0.0152760185
163	0xbe56880d	-0.20950337
164	0xbdcd370a	-0.100202635
165	0xbe04bf29	-0.12963547
166	0xbdacf6e4	-0.08445528
167	0xbe35f43c	-0.1776895
168	0x3e3a2edc	0.18181938
169	0x3e157bdb	0.14598028
170	0xbd2b7f2e	-0.041869335
171	0xbdfba795	-0.12287823
172	0x3dd4b401	0.103858955
173	0xbe062ccf	-0.1310303
174	0xbe1aa753	-0.15102892
175	0xbb683dae	-0.0035437155
176	0xbce9eca8	-0.02855523
177	0x3e3ba289	0.18323721
178	0xbbb17ff2	-0.0054168636
179	0x3c395996	0.011312863
180	0xbb115956	-0.0022178493
181	0x3dea330d	0.114355184
182	0xbe4e4888	-0.20144856
183	0xbe869610	-0.26286364
184	0xbcca16e0	-0.02466911
185	0x3de1522f	0.110020034
186	0xbdb55eee	-0.08855997
187	0x3c7904e3	0.015198919
188	0xbd979320	-0.07401109
189	0xbcbc7f39	-0.023009883
190	0x3d22f10c	0.03978066
191	0xbd4bce79	-0.049757455
192	0x3d99b026	0.07504301
193	0xbdbcff44	-0.092283756
194	0xbd092521	-0.033482675
195	0x3a965ff7	0.0011472692
196	0x3d92c8db	0.071672164
197	0x3c06ddea	0.008231619
198	0x3e80fa18	0.25190806
199	0x3dfd16e5	0.123578824
200	0xbe2bb249	-0.16767229
201	0xbd14b8be	-0.036308996
202	0x3c643677	0.013929001
203	0x3e02459b	0.12721865
204	0x3e7e643e	0.24842927
205	0x3e5a47fc	0.21316522
206	0x3e88592a	0.26630527
207	0xbbb3fe42	-0.0054929564
208	0x3e8e9c76	0.27853745
209	0x3e9327b5	0.28741232
210	0x3e76536f	0.24055265
211	0xbc84bfd7	-0.016204758
212	0x3e2dc8e1	0.1697116
213	0xbe8c892b	-0.274484
214	0x3d88c99c	0.06679079
215	0xbd9e340c	-0.07724771
216	0xbec61fcc	-0.38696134
217	0x3d5e2a77	0.054239716
218	0xbe44dd88	-0.19225132
219	0xbe1808d4	-0.14847118
220	0xbe708ad8	-0.23490465
221	0xbd06c170	-0.03289932
222	0x3d692861	0.056923274
223	0xbe3001be	-0.17188165
224	0xbe238682	-0.1596928
225	0xbe065e00	-0.13121796
226	0x3de84db6	0.11342947
227	0xbe0bea2c	-0.13663548
228	0x3d05c1c6	0.0326555
229	0x3d881246	0.066441104
230	0x3cad9356	0.02118842
231	0xbe551721	-0.20809604
232	0xbe2eaba2	-0.1705766
233	0xbd938e48	-0.07204872
234	0xbea691c6	-0.3253309
235	0xbcb67f0f	-0.022277383
236	0x3dc519f7	0.09624093
237	0xbbd651d4	-0.0065405164
238	0xbe4cb9e9	-0.19992794
239	0x3d792d7c	0.060834393
240	0xbe0da33a	-0.13831797
241	0xbcbda87f	-0.023151634
242	0xbe3c6d73	-0.18401127
243	0xbda70104	-0.081544906
244	0x3d28b0aa	0.041184105
245	0x3d9113f2	0.070838824
246	0x3cf87bb0	0.030332416
247	0x3d347661	0.044058207
248	0x3e3c42f3	0.18384914
249	0x3e280dee	0.16411564
250	0xbd6e8552	-0.058232613
251	0xbe181166	-0.14850387
252	0xbcda723a	-0.026665796
253	0x3e0b2ed6	0.13592085
254	0xbd94db4f	-0.07268392
255	0x3c8cba24	0.017178603

fully_connected_layers.0.bias f4 [100]
0	0x3d993650	0.074810624
1	0x3be5503c	0.00699809
2	0x3dccfd24	0.1000922
3	0xbc7bd6bc	-0.015371021
4	0x3e2a8726	0.16653118
5	0x3dc51afe	0.09624289
6	0xbdba0208	-0.09082419
7	0xbcab16d9	-0.020884918
8	0x3e45b94a	0.19308963
9	0xbda36602	-0.07978441
10	0x3e71227f	0.23548315
11	0x3b82f65b	0.003996653
12	0xbbcd7c24	-0.006270902
13	0xbe09aa8c	-0.13443965
14	0x3e875455	0.26431528
15	0x3e1a7674	0.15084249
16	0x3e66b198	0.22528684
17	0x3ebd9ace	0.3703217
18	0x3ec04cc0	0.37558556
19	0x3e37de22	0.1795583
20	0xbc8fa80f	-0.017536191
21	0x3e824b37	0.2544801
22	0xbde7314b	-0.11288699
23	0xbdc00370	-0.09375656
24	0xbde3438d	-0.11096869
25	0x3ebfc4ea	0.3745492
26	0xbe4a1d0e	-0.19737646
27	0x3e8793da	0.2647999
28	0x3e0b667a	0.1361331
29	0x3d72dc19	0.059291933
30	0x3cc696d5	0.024241844
31	0xbdaedebb	-0.08538576
32	0xbde0be89	-0.10973842
33	0x3d26bb92	0.040706225
34	0xbdc8dc26	-0.09807615
35	0x3edc97fc	0.43084705
36	0x3d6be062	0.057587035
37	0xbdbff79d	-0.093734
38	0xbda8257a	-0.08210273
39	0x3d7d24d6	0.061802708
40	0x3e2dfca6	0.16990909
41	0xbef25059	-0.47326925
42	0xbd892a96	-0.06697576
43	0x3ebb0a43	0.36531267
44	0x3e8a106b	0.2696565
45	0xbd69b906	-0.057061218
46	0xbe6ca5fa	-0.2311019
47	0x3bd21180	0.0064107776
48	0x3eb22d39	0.34800127
49	0x3d9d9e06	0.07696156
50	0xbc5ee2d9	-0.013603889
51	0xbdb86dbe	-0.09005307
52	0xbd5194e1	-0.051167373
53	0x3d2224f5	0.039586026
54	0xbc662418	-0.014046691
55	0xbdddd884	-0.10832313
56	0x3ea791de	0.32728475
57	0xbd767511	-0.060170237
58	0xbdcdc4a5	-0.100472726
59	0x3e2fb6b9	0.17159547
60	0xbd117cef	-0.035519537
61	0xbddfa049	-0.10919244
62	0xbd869462	-0.065712705
63	0x3dc380f0	0.09546077
64	0x3d82791a	0.063707545
65	0xbdd45675	-0.10368053
66	0xbcb53238	-0.022118673
67	0xbc9350bd	-0.017982835
68	0x3e1949f6	0.1496962
69	0x3ddc9546	0.10770659
70	0xbe33c809	-0.17556776
71	0xbd09977a	-0.033591725
72	0xbd36772a	-0.044547237
73	0xbcba7085	-0.022758732
74	0x3e164363	0.14674143
75	0xbd3df1e1	-0.04637325
76	0xbd06406b	-0.032776278
77	0x3e5b34d6	0.21406874
78	0x3ea00cc2	0.31259733
79	0x3d498524	0.04919924
80	0xbdc9785e	-0.09837411
81	0x3dbcfda1	0.092280634
82	0x3d0a56b9	0.03377411
83	0x3e2d9616	0.16951784
84	0x3da0352f	0.07822644
85	0x3d5fdb32	0.0546524
86	0xbe1aa344	-0.15101343
87	0x3dda4727	0.106581025
88	0x3c024ce7	0.007952905
89	0xbdc4e199	-0.09613342
90	0xbe5fcf85	-0.21856506
91	0xbdba9fac	-0.09112486
92	0x3e0d115f	0.13776158
93	0xbd10f51f	-0.035390016
94	0xbd283e11	-0.041074816
95	0xbdcd8fb0	-0.10037172
96	0xbd24be9a	-0.040220834
97	0x3e16d0f5	0.14728148
98	0xbdcb93c3	-0.09940293
99	0xbcb7036b	-0.022340497

fully_connected_layers.2.weight f4 [40, 100]
0	0xbe0e1c23	-0.13877921
1	0xbc7b8c7b	-0.015353317
2	0x3e1b40b0	0.15161395
3	0xbdcca630	-0.09992635
4	0x3d0d9d79	0.034574006
5	0x3e575df7	0.21031938
6	0xbd8dd0dd	-0.06924603
7	0x3db1cadd	0.08681271
8	0x3da787d9	0.08180208
9	0xbdad6223	-0.08465984
10	0x3c272119	0.010200762
11	0xbdbf23ad	-0.093329765
12	0x3de2e5e3	0.11079004
13	0xbd88e01e	-0.06683372
14	0xbd8a9d52	-0.06768288
15	0x3d6ad364	0.057330504
16	0x3e06049b	0.13087694
17	0xbe8b6b78	-0.2723043
18	0x3e47f85d	0.19528337
19	0xbe1fc14a	-0.15601078
20	0x3dfd21db	0.12359973
21	0xbe151ada	-0.14561024
22	0xbd036290	-0.03207642
23	0x3d86fed5	0.06591574
24	0x3dc08acf	0.09401476
25	0xbcca1d74	-0.024672247
26	0x3dbbce1f	0.09170174
27	0x3bbf7c45	0.0058436715
28	0x3cf8c559	0.03036754
29	0x3d78775e	0.060660712
30	0x3deadfc1	0.11468459
31	0xbe1b58e7	-0.15170632
32	0x3bdd8c00	0.006761074
33	0x3e32fa0f	0.17478202
34	0x3d7c8db9	0.061658595
35	0x3da3eb2c	0.0800384
36	0x3e53418e	0.20630476
37	0x3d113d83	0.035459053
38	0xbd4d7754	-0.05016263
39	0xbda82ec9	-0.082120486
40	0x3e0eee53	0.13958101
41	0xbd1568bb	-0.036476832
42	0xbbe66cbf	-0.0070320065
43	0x3e7ddf7c	0.24792284
44	0x3e0c7026	0.13714656
45	0x3d397050	0.045273125
46	0xbdc72347	-0.097235255
47	0xbdbe8359	-0.09302396
48	0x3e383f7b	0.17992966
49	0xbd27c2c7	-0.04095724
50	0x3d270673	0.040777635
51	0x3cf2c8ab	0.029636702
52	0xbda591ef	-0.08084475
53	0xbd8dee36	-0.06930201
54	0xbe050ccd	-0.12993164
55	0x3c2094fa	0.009801144
56	0x3d70def6	0.058806382
57	0x3bd67dae	0.006545744
58	0xbc287f67	-0.010284281
59	0xbcfe3e57	-0.031035585
60	0x3db94c8b	0.090478025
61	0x3c147f00	0.009063482
62	0x3dc2c3b9	0.095099874
63	0x3d90f9ea	0.07078917
64	0xbda2900f	-0.07937633
65	0x3ceb5a33	0.028729534
66	0x3e627a57	0.22116981
67	0xbc4fb44d	-0.012677264
68	0xbd8e0af1	-0.06935681
69	0x3e2f9f96	0.17150721
70	0x3e53e42e	0.20692512
71	0xbcbf056d	-0.023318017
72	0xbd071f8e	-0.032989077
73	0x3d69e6e0	0.057104945
74	0xbd3cfb69	-0.0461382
75	0xbdca3068	-0.09872514
76	0x3d197ebb	0.037474375
77	0xbcc4aa9b	-0.024007132
78	0x3dddadcd	0.108241655
79	0x3de91677	0.11381238
80	0xbc561be6	-0.013068175
81	0xbd8631cf	-0.06552469
82	0xbd9f3fea	-0.077758625
83	0xbd879a42	-0.06621219
84	0x3e28283c	0.16421598
85	0xbe368163	-0.17822795
86	0x3dec4b6c	0.11537823
87	0x3e94d2db	0.2906712
88	0xbd980b2a	-0.074240044
89	0xbcf0a344	-0.029374726
90	0xbe4f35ec	-0.20235413
91	0x3d604f55	0.054763157
92	0xbd14bfb1	-0.036315624
93	0x3d8acae9	0.06776983
94	0xbd9226f3	-0.07136335
95	0x3d666a46	0.056253694
96	0xbc89da09	-0.0168276
97	0xbcdd7ebb	-0.027037969
98	0xbd96d1bf	-0.07364225
99	0xbd9d007d	-0.07666109
100	0x3e72432f	0.23658441
101	0xbe483e6b	-0.1955506
102	0xbe98541f	-0.2975168
103	0x3e45e2b5	0.19324763
104	0xbcd7bc82	-0.026335005
105	0xbdb590a4	-0.08865479
106	0xbecadd05	-0.3962175
107	0x3d146fe6	0.036239527
108	0xbe7d1507	-0.24715053
109	0xbd99d3a8	-0.07511073
110	0xbd616c6e	-0.055035047
111	0x3d4e937b	0.050433617
112	0xbe7c6e93	-0.24651556
113	0x3d9a495c	0.075335234
114	0xbca80e5a	-0.020514656
115	0x3c5acea6	0.013354933
116	0xbeb34c80	-0.35019302
117	0x3ea31fd6	0.31860226
118	0x3cb8c4b7	0.022554738
119	0xbc301b3b	-0.01074868
120	0xbe70702d	-0.23480292
121	0x3d28ef74	0.041243985
122	0xbe0c6b3f	-0.13712786
123	0xbe13bbf1	-0.14427163
124	0xbda22b5f	-0.07918429
125	0x3e14ac44	0.14518839
126	0xbeb81ff9	-0.35961893
127	0x3d4c1b9e	0.049831025
128	0xbe00f6c9	-0.12594141
129	0x3d2262a1	0.03964484
130	0x3ba418a4	0.00500782
131	0x3e903299	0.28163603
132	0x3d9bb007	0.07601934
133	0x3c868d64	0.016424842
134	0xbdd57d3b	-0.104242764
135	0xbe3c14fd	-0.18367381
136	0xbe537d1e	-0.20653197
137	0x3c805113	0.01566366
138	0x3d87f372	0.066382304
139	0xbdb4a7ad	-0.08821044
140	0xbe664bb2	-0.22489813
141	0xbe58a57b	-0.21156876
142	0xbe7a47af	-0.24441408
143	0xbe6731be	-0.22577569
144	0x3deda226	0.11603193
145	0x3dc37a94	0.09544864
146	0x3c9d169b	0.019175818
147	0x3cf99635	0.030467132
148	0xbeab282e	-0.33429092
149	0xbcaa0045	-0.020752082
150	0x3dc639e8	0.096790135
151	0x3db2b816	0.08726518
152	0xbd812f1c	-0.063078135
153	0x3e02daa3	0.12778716
154	0x3e5b97b2	0.21444586
155	0x3e900b68	0.28133702
156	0xbd5df3ac	-0.05418746
157	0x3ea60cf1	0.32431749
158	0xbca12533	-0.019671058
159	0x3db7319b	0.08945008
160	0x3d9d162f	0.07670247
161	0x3dba4b70	0.0909642
162	0x3c8f7b18	0.01751475
163	0xbdc892d1	-0.09793628
164	0x3d6a3bbd	0.057185877
165	0x3c19611a	0.00936153
166	0xbde0b7c0	-0.109725475
167	0x3d568ce4	0.052380458
168	0x3d570245	0.0524924
169	0xbf0ed16d	-0.5578831
170	0xbe17ee4a	-0.14836994
171	0xbd2e93a6	-0.042621277
172	0xbdf788a1	-0.12086607
173	0xbd834fc9	-0.06411702
174	0x3c47899f	0.0121788075
175	0xbe234f7d	-0.15948291
176	0xbda8c497	-0.082406215
177	0x3c936d3b	0.017996421
178	0xbe87f5c8	-0.26554704
179	0xbe819bd9	-0.25314215
180	0x3d6cc39c	0.057803735
181	0x3e0c6d71	0.13713624
182	0x3ea1be5c	0.31590545
183	0xbd087a2d	-0.03331964
184	0xbe5579a9	-0.20847191
185	0x3e809f8a	0.2512172
186	0x3e0e15bc	0.13875479
187	0xbe8a7732	-0.27044064
188	0x3e113c2d	0.14183111
189	0xbd647699	-0.055777166
190	0xbe0b85ad	-0.13625212
191	0xbe0b2041	-0.13586523
192	0x3e1998c7	0.14999686
193	0x3d406db8	0.046979636
194	0xbdf18376	-0.11792652
195	0x3e05fec4	0.13085467
196	0x3d4cc485	0.049992103
197	0xbde3c9f2	-0.111225024
198	0x3ebdcef8	0.37071967
199	0x3dbae87d	0.09126375
200	0xbbfd966c	-0.007738879
201	0x3e0a74ca	0.13521114
202	0xbd94c486	-0.07264046
203	0x3e17129a	0.1475319
204	0xbd540fd1	-0.051772896
205	0x3db9b514	0.09067741
206	0x3e065188	0.13117039
207	0x3db01b00	0.085989
208	0xbe37876c	-0.17922753
209	0xbce744cd	-0.028231049
210	0xbdcee37c	-0.10101983
211	0x3cf4370f	0.02981141
212	0xbd98bee9	-0.07458288
213	0x3bfc2891	0.0076952656
214	0xbd47bd8a	-0.048764743
215	0xbdbbe6e9	-0.09174902
216	0xbd1a6aad	-0.03769939
217	0xbdaa5bb7	-0.083182745
218	0xbe02f6e4	-0.12789494
219	0x3dfe7cb0	0.12426126
220	0x3dd3af44	0.10336164
221	0xbd03e1f2	-0.0321979
222	0xbe631350	-0.22175336
223	0xbe68976c	-0.22714013
224	0x3d3bae4d	0.045820523
225	0xbe1ecc25	-0.15507562
226	0x3e4806d1	0.1953385
227	0xbdf827db	-0.12116977
228	0xbd99ae9d	-0.07504008
229	0x3c630b11	0.013857619
230	0xbe2e9d30	-0.1705215
231	0x3e3f1ab2	0.18662527
232	0xbd8d373d	-0.068953015
233	0xbea02261	-0.3127623
234	0x3e2ec7fa	0.17068473
235	0xbe52895a	-0.20560208
236	0xbe9591f5	-0.2921292
237	0xbdb6ba5d	-0.08922265
238	0x3dcc1ea4	0.09966782
239	0xbef2213a	-0.47290975
240	0xbeb9cb62	-0.3628798
241	0x3eb33f69	0.35009316
242	0x3d078457	0.033085193
243	0xbf27630d	-0.65385514
244	0xbe00a47f	-0.1256275
245	0xbc522f43	-0.012828651
246	0x3eb045a5	0.34428135
247	0xbd383af8	-0.044978112
248	0xbf24bea1	-0.64353377
249	0x3d518928	0.051156193
250	0xbe691143	-0.22760491
251	0xbd93b024	-0.072113305
252	0x3d0c7548	0.034291536
253	0x3e13f054	0.14447147
254	0x3e9e3ace	0.3090424
255	0x3ef122e0	0.4709692

fully_connected_layers.2.bias f4 [40]
0	0x3e497704	0.19674307
1	0x3e6ae0b7	0.22937284
2	0xbc1f8c70	-0.009738073
3	0xbdc1f5a3	-0.094706796
4	0x3ded7a6c	0.11595616
5	0xbda045d7	-0.07825821
6	0xbd1d539e	-0.03840982
7	0xbdbaf09b	-0.09127923
8	0xbccc610d	-0.024948621
9	0xbd73139b	-0.05934487
10	0x3c8dd711	0.017314466
11	0xbd326bc2	-0.043559797
12	0x3de1fe84	0.11034873
13	0x3e62a7f8	0.22134387
14	0x3e37dc44	0.17955118
15	0xbdc74e2c	-0.09731707
16	0x3e97de6c	0.29661882
17	0x3e3605e6	0.17775688
18	0xbd34042a	-0.043949284
19	0xbda9baff	-0.0828762
20	0x3e086bef	0.13322423
21	0xbe709763	-0.2349525
22	0xbda2e1a7	-0.07953196
23	0xbd96c365	-0.07361487
24	0x3d7f1e18	0.06228456
25	0x3dd43354	0.103613526
26	0x3e9eac4e	0.30990833
27	0xbc6a5d33	-0.014304447
28	0x3ed25301	0.41078952
29	0x3e5308bf	0.20608805
30	0xbe0ba6ca	-0.13637844
31	0xbdb7b002	-0.08969118
32	0xbd5d420d	-0.05401807
33	0x3ee46334	0.44606936
34	0x3ea19221	0.315568
35	0x3be566b9	0.007000771
36	0x3e678514	0.22609359
37	0xbdbd284a	-0.092362
38	0x3e062ea9	0.13103737
39	0xbdba0e57	-0.09084766

fully_connected_layers.4.weight f4 [5, 40]
0	0x3ec6fa79	0.3886297
1	0xbf84f88f	-1.0388354
2	0xbf6efdcc	-0.93356013
3	0xbdcf8d20	-0.10134339
4	0xbe30028b	-0.1718847
5	0x3dc70b8f	0.097190015
6	0x3e2667f9	0.162506
7	0xbd46150f	-0.048359927
8	0x3d99ac8d	0.075036146
9	0xbdd12166	-0.10211448
10	0xbe985ad0	-0.29756784
11	0xbddfc01f	-0.10925316
12	0xbc5c3bac	-0.013441961
13	0xbf5ec3aa	-0.8701731
14	0x3faedecd	1.3661743
15	0x3e007137	0.12543188
16	0x3e08c19f	0.1335511
17	0xbe23f882	-0.16012767
18	0xbd186ac7	-0.037211206
19	0xbd37924b	-0.04481725
20	0x3e5224c3	0.20521836
21	0xbd50aee0	-0.050948024
22	0xbf81bbb9	-1.0135413
23	0xbe0b8e96	-0.13628611
24	0x3dad0ea1	0.08450056
25	0xbd682188	-0.056672603
26	0xbf85932b	-1.0435537
27	0x3dea64d0	0.1144501
28	0x3f9bb529	1.2164661
29	0xbddc03ef	-0.10742938
30	0xbe721387	-0.23640262
31	0xbc91f1a3	-0.017815417
32	0x3d702854	0.05863221
33	0x3ee5da28	0.44893003
34	0x3f60193d	0.8753851
35	0xbf64ec5d	-0.8942316
36	0x3e46ea58	0.19425333
37	0xbd06c450	-0.032902062
38	0x3f878ec2	1.0590441
39	0x3e0db99e	0.13840339
40	0xbe3c42ee	-0.18384907
41	0xbe9cbaca	-0.3061126
42	0x3fa3f36e	1.2808664
43	0xbe4a2798	-0.19741666
44	0x3ea10c4a	0.31454688
45	0x3dd94b0f	0.106100194
46	0xbd4e7888	-0.050407916
47	0x3e1f7032	0.15570143
48	0xbd0fba35	-0.03508969
49	0xbd8b1fa3	-0.067931436
50	0xbe36ece2	-0.17863801
51	0x3ebfb46a	0.37442333
52	0x3e96a6cd	0.29424134
53	0x3ea31045	0.3184835
54	0x3dde5c17	0.108574085
55	0xbe08aabc	-0.1334638
56	0xbf06efb0	-0.52709484
57	0xbf1a282c	-0.6021755
58	0xbc928356	-0.017884891
59	0xbe00c157	-0.12573753
60	0x3e954a0c	0.29158056
61	0x3fcbf2e4	1.5933499
62	0x3fac2763	1.344952
63	0xbd6d0559	-0.057866428
64	0x3d6500fc	0.055909142
65	0xbe76449b	-0.24049608
66	0x3ec754d5	0.3893191
67	0xbe04bd34	-0.129628
68	0xbf82d046	-1.021981
69	0xbe8a65c2	-0.2703076
70	0x3efe51ec	0.49671876
71	0xbd998263	-0.074955724
72	0xbdda3725	-0.10655049
73	0xbf5c0b02	-0.85954297
74	0xbf358798	-0.70910025
75	0xbdaca7cf	-0.084304444
76	0xbcaad69c	-0.020854287
77	0x3e1e5a53	0.15464143
78	0xbe8a968c	-0.27067983
79	0x3e18278b	0.14858834
80	0x3ef46a35	0.4773728
81	0x3e00eb88	0.12589848
82	0xbe133093	-0.14373998
83	0xbe0e4bdd	-0.13896127
84	0x3c8f6f2b	0.017509064
85	0x3d08a015	0.03335579
86	0x3d0c8570	0.034306943
87	0xbd5dc093	-0.05413873
88	0x3e1fd757	0.1560949
89	0xbdbd7653	-0.09251084
90	0xbd053f95	-0.03253134
91	0xbc3c02e6	-0.0114753
92	0xbd41a587	-0.047277
93	0x3ef49389	0.4776881
94	0xbf870cb2	-1.0550749
95	0xbbab4379	-0.005226549
96	0x3eddd587	0.4332697
97	0xbf3a7603	-0.7283632
98	0xbd7068bb	-0.05869363
99	0x3cec6014	0.028854407
100	0xbeae3c6d	-0.34030476
101	0xbf445c00	-0.7670288
102	0xbb3d01a2	-0.0028840085
103	0xbcf9401f	-0.030426083
104	0x3e34fde3	0.17674975
105	0xbf056496	-0.52106607
106	0x3f78656f	0.97029775
107	0x3d928d6c	0.0715588
108	0xbf957ce8	-1.1678743
109	0x3ed54ef1	0.4166179
110	0xbd8bd870	-0.068283916
111	0x3cd8e758	0.0264775
112	0x3c8459fd	0.016156191
113	0x3f8c6466	1.0968139
114	0x3ee4e411	0.4470525
115	0x3cd981ed	0.026551211
116	0x3dda68a3	0.10664489
117	0x3d5b41a3	0.053529393
118	0xbd7c9d3a	-0.06167338
119	0x3e12a4bb	0.14320652
120	0xbf2b0928	-0.66810846
121	0x3f9a074e	1.2033479
122	0x3f40e2c9	0.75346047
123	0x3e2a0489	0.16603293
124	0x3f366acb	0.71256703
125	0x3da70e5e	0.08157037
126	0x3e09156a	0.13387075
127	0xbc263aee	-0.010145886
128	0xbd8d8ad2	-0.069112435
129	0xbd27ea70	-0.04099506
130	0xbdf06ad3	-0.11739125
131	0xbf49d9ec	-0.7884815
132	0xbe8f3a52	-0.27974182
133	0xbd11096e	-0.035409383
134	0xbd6c7a21	-0.05773366
135	0xbd6f3986	-0.058404468
136	0x3f61ca22	0.88199055
137	0x3f4e1406	0.80499303
138	0xbe1b0b36	-0.15140995
139	0xbcfc0d3f	-0.030768035
140	0xbf8bf292	-1.0933402
141	0xbe860631	-0.261766
142	0xbe049bc2	-0.12950042
143	0x3e01b970	0.12668395
144	0xbe7fa0e1	-0.24963714
145	0xbf7ae3c7	-0.9800381
146	0xbea25d34	-0.31711733
147	0x3d9630ae	0.07333504
148	0x3cf83ff3	0.03030393
149	0xbeef8015	-0.46777406
150	0xbeb0701b	-0.3446053
151	0xbe01606b	-0.12634437
152	0x3e0c8309	0.13721861
153	0xbe85c16e	-0.26124138
154	0xbf777173	-0.96657485
155	0x3e20c947	0.15701781
156	0x3f79fdbe	0.97652805
157	0x3e1203c8	0.14259255
158	0xbe81a4cc	-0.25321043
159	0x3dafd062	0.08584668
160	0x3d59898d	0.053109694
161	0xbd151302	-0.03639508
162	0xbf8b97a6	-1.0905654
163	0x3e2f5e8d	0.17125912
164	0xbf724322	-0.94633687
165	0x3d7823af	0.060580906
166	0x3e193649	0.14962114
167	0x3e121d51	0.14268996
168	0xbdb7468e	-0.08949004
169	0xbdd4aa9c	-0.10384104
170	0x3e4ba373	0.1988657
171	0x3f38e39f	0.7222232
172	0x3ef47674	0.47746623
173	0x3cb21bfc	0.02174186
174	0xbeef1244	-0.46693623
175	0xbbb2ce9a	-0.0054567577
176	0xbf519741	-0.8187142
177	0x3f12d64b	0.57358235
178	0xbcf32084	-0.02967859
179	0x3daba28b	0.08380612
180	0x3f667bab	0.9003245
181	0xbf338026	-0.70117414
182	0xbeaa075d	-0.33208743
183	0x3d7e1381	0.06203032
184	0x3e356397	0.17713772
185	0x3fc85ef1	1.5653974
186	0xbd8d667a	-0.069043115
187	0x3d9f2b34	0.07771912
188	0x3f857577	1.0426472
189	0x3b855577	0.004069026
190	0xbd989c0a	-0.07451637
191	0x3dc252a1	0.094884165
192	0xbdafbd2e	-0.08581005
193	0xbf25b518	-0.6472945
194	0x3f11b655	0.5691884
195	0x3f670095	0.90235263
196	0xbfa5480e	-1.2912614
197	0x3df1959a	0.11796112
198	0xbf4ac404	-0.79205346
199	0x3d94e06a	0.07269366

fully_connected_layers.4.bias f4 [5]
0	0x3e2d96ee	0.16952106
1	0xbe8e455b	-0.2778729
2	0x3e5c827c	0.21534151
3	0xbe2775d4	-0.16353542
4	0xbe36e91a	-0.17862359
