Assignment 3/Dataset1a/Dataset2/WithoutPCA/mlffnn/mlffnn_model_13.pth (torch, 61144 bytes, 6 tensors)

fully_connected_layers.0.weight f4 [100, 81]
00000000: 8a74 5a3e dd5d 72bd 6e0c 97bc 2211 353e
00000010: d700 0ebc 3eec 5e3d 46e3 943c ba78 df3d
00000020: 8ff8 2f3e 09b1 533d 644a babd b28c c6bc
00000030: ceb6 f13c 2aa5 b83d fc34 81bc 4fff 87bd
00000040: 0197 b6bc d06e 90bd da4d 863e ed75 663e
00000050: d934 9cbd 36c5 0f3e a174 043e 8e73 2e3e
00000060: 439d 6dbd 0501 013d ad27 d33c 72bd e0bc
00000070: 2d77 8bbc 5523 0f3d 9a70 e73d b433 f43d
00000080: 84e8 b63c 4215 573c 0b51 cc3d 7c4f 713d
00000090: 0041 1c3e b9c8 593d b01f 6dbd 6bf0 583e
000000a0: 6c5e 773d d13b d43d 60ef 143d 2b8d 303e
000000b0: 260b 1dbd 96e8 b03d 0dd3 023e b159 04bc
000000c0: 34f1 f23c 0f5f 053e 9598 173e 463d a73d
000000d0: 8457 52bd bbdb c73c 61b8 fd3d c515 44bd
000000e0: eae8 ce3d ff3f fa3d 0895 89bb 9829 583d
000000f0: 7a80 77bc dfdc 903c 0b89 25bd 86f6 0b3d
00000100: 73fe c83d ada6 b43d 92df 74bc 53e4 62bd
00000110: 7778 4bbd 0bba ff3c d832 993d 0fc9 0c3e
00000120: 9097 783d 6995 88bc 902e ec3c 4258 113d
00000130: ba3f bd3c 12ca c63d 3484 b938 bb94 903d
00000140: ce15 d1bc cc0a e7bd da0a 51bd a441 3dbd
00000150: fd1c c1bc cfe4 d33d f016 253c 2e0f 0b3d
00000160: 1918 b63d 78bc 0abc 73e4 3bbe af73 3fbd
00000170: 90ba 4dbe 44a7 e5bd e130 5dbe dd99 5bbe
00000180: 2f5f 10bd 243d aebd 7446 0cbd 5194 0abe
00000190: d8f0 c3bd 78b7 c63d ae7d b53d 8bb9 d1bb
000001a0: 18ea c53c 4a6d 28bd 944a 76be c441 2fbd
000001b0: 5aa8 07bd 7c7c 71bd dc93 dcbd a8f2 803b
000001c0: 36cf 21bc 3ed1 323e 2b61 69bd c0af eabd
000001d0: 4bdc 923c deeb 02be c8d2 033d 0444 d13c
000001e0: e761 af3c 8000 a23d a70d eb3d 9b46 dd3d
000001f0: aa31 653d 98a8 533d e23f cbbd 65f9 b8bd
00000200: c4b3 263e ecd1 303e 6c00 5f3c fe43 c23d
00000210: 678f 133d d051 553c 98ee e4bd 88b1 8a3d
00000220: 85e9 19be 586f 21bd 26c6 8c3d 6c2e ca3d
00000230: 1516 c13c 7f65 a93c 1da1 1ebd 01f5 0abe
00000240: b42d 8cbd 0704 d9bd 43c5 b5bd 893c c03d
00000250: 4d54 163d 631f f1bd ab48 173e e22b 713d
00000260: 740d 84bd 55ca c73d 6a36 b13c 2cfc 6f3b
00000270: 8fdd bf3d c453 db3c eaf9 7dbd 49bd 253d
00000280: 2adc 1ebe b859 2b3d d678 3e3c a9c0 a23e
00000290: 9298 e73d 9db2 17bb 058b d6bd 2625 5ebd
000002a0: 783b 34bd dc98 b4be 156c 7dbe 2e3c ed3d
000002b0: 8ad8 f73c f686 a13c d7ef 843e 9c5c 46bc
000002c0: 3207 183e fca8 93bd 1d34 14bc d2e8 203e
000002d0: 8f76 68be 5d84 7ebd 2097 c13d 9594 043e
000002e0: 7920 08bd 0a1f 0e3d 0cb3 1e3d 39e8 a1bd
000002f0: 0fc3 bbbc 06ff 883e 1257 d93e c6eb 153d
00000300: 8e46 2a3e 6116 ab3e c978 24bd 8c29 91bd
00000310: f404 40be a0ff dabd f9fe 753d 1293 9abe
00000320: 5701 e7be 611b 8f3c 7d9a 5f3d d9a2 04bf
00000330: 4ce0 85be 7255 253d 753c 80be 799a 023d
00000340: 9538 3abd 8e4c dbbd 229b 0d3d 8e5d ab3e
00000350: 40ce 903d 02ef a5bd 17f1 c63d d50b 1dbe
00000360: 03b7 0c3e 9bec 33be 4d29 7ebd 08b4 303d
00000370: 1430 c93d 2a83 f63d 1281 a63e 4040 893e
00000380: fc60 fb3d 66c5 f8bc 9162 7cbe 38ab 60be
00000390: 3472 bc3e 8ba2 d73c b076 0cbe 0ea1 05bf
000003a0: 6411 1abf c78f 12bf f05c 603e 3b1b a93e
000003b0: 6f1a 5f3d 0852 0a3e bfae aabd 2614 88be
000003c0: ff58 a8be 2935 9cbe 07d6 3a3e f9be dd3b
000003d0: bfe7 34bd ff98 7bbd 0245 26bd de8a 8c3d
000003e0: 767c 463d bbe7 6f3d e338 cc3d 862d f9bb
000003f0: 756a 393d c316 003c a13d e0bd f30a 903c
0.21333519 -0.059171546 -0.018438544 0.17682317 -0.008667192 0.054424517 0.018174779 0.10911699
0.17184661 0.051682506 -0.0909622 -0.02423701 0.029506113 0.090158775 -0.015772335 -0.06640493
-0.022288801 -0.07052386 0.2623127 0.22505923 -0.076272674 0.14040074 0.12935115 0.17036268
-0.058011305 0.031495113 0.025775755 -0.027434085 -0.0170246 0.034945805 0.11300774 0.11923924
0.022327669 0.013127627 0.09976395 0.058913693 0.1525917 0.05316994 -0.057891548 0.21185462
0.060392782 0.103629716 0.0363611 0.17241351 -0.03834071 0.08638112 0.12775822 -0.008078025
0.02965603 0.13024543 0.14804299 0.08165984 -0.051352993 0.024396768 0.12388683 -0.047872324
0.101030186 0.122192375 -0.004198674 0.052774042 -0.015106315 0.017683445 -0.040413897 0.03417065
0.09814157 0.088208534 -0.014945881 -0.05539353 -0.04967543 0.031216642 0.07480401 0.13748573
0.060691416 -0.016672807 0.028830796 0.03548456 0.023101676 0.097065106 8.846112e-05 0.07059618
-0.025523093 -0.11281356 -0.05103574 -0.046205178 -0.023573393 0.10346376 0.0100762695 0.033950023
0.08891315 -0.008467786 -0.18348865 -0.046741184 -0.20090699 -0.11213544 -0.21600677 -0.21445413
-0.035247024 -0.085077554 -0.034246877 -0.1353314 -0.09567422 0.09702963 0.08861862 -0.0064002923
0.024159476 -0.04111985 -0.24051887 -0.04278733 -0.033119537 -0.05895661 -0.107703894 0.003935177
-0.009876063 0.17462632 -0.056977432 -0.11459303 0.01792731 -0.12785289 0.03218344 0.025545128
0.021408988 0.079102516 0.11477213 0.108044825 0.055955566 0.051674455 -0.09924294 -0.09031943
0.16279513 0.17267579 0.01361094 0.09485625 0.03602543 0.013019994 -0.11178321 0.06772143
-0.15030487 -0.039412826 0.06873731 0.098721355 0.0235701 0.02067828 -0.03872787 -0.13570024
-0.06844655 -0.10596471 -0.08875515 0.09386546 0.03670149 -0.11773565 0.14773814 0.05887974
-0.064478785 0.09755389 0.021632392 0.0036618812 0.09368431 0.026773341 -0.062005915 0.04046372
-0.15513673 0.04183361 0.011625489 0.31787613 0.11308397 -0.0023147233 -0.104757346 -0.054234646
-0.044002026 -0.35272872 -0.24748261 0.11583744 0.030254621 0.019717675 0.25964233 -0.012107041
0.14846495 -0.072099656 -0.009045628 0.15713814 -0.22701477 -0.06213795 0.09452653 0.12947305
-0.033234093 0.03469757 0.03874497 -0.07905621 -0.02292016 0.26757067 0.42449242 0.036601804
0.16628477 0.3341551 -0.040154252 -0.070880026 -0.1875189 -0.10693288 0.060057614 -0.3019033
-0.4511821 0.01746911 0.05459069 -0.51810986 -0.26147687 0.04036469 -0.25046125 0.031885598
-0.045464117 -0.10707961 0.034571774 0.33469814 0.07070589 -0.08102228 0.09713953 -0.15336545
0.13741688 -0.17570727 -0.062051106 0.04314044 0.09823623 0.12036736 0.32520348 0.2680683
0.12274358 -0.030367564 -0.24646975 -0.21940315 0.3680588 0.026322624 -0.1371715 -0.52198875
-0.60182786 -0.57250637 0.21910453 0.33028588 0.05446857 0.13507855 -0.083341114 -0.26577872
-0.328804 -0.30509308 0.18245707 0.0067671505 -0.044166323 -0.061425205 -0.040593155 0.06862424
0.04845854 0.058570605 0.09971788 -0.007604304 0.04526754 0.007817927 -0.10949255 0.017583346

fully_connected_layers.0.bias f4 [100]
00000000: b2f0 1ebe 4756 683e feb4 9d3d 25ea 383e
00000010: 44e6 4f3e 88e0 57bd 884e 0f3e 87e0 b63c
00000020: 88b6 263f 752f 353e ff37 813d 204c 1e3c
00000030: a1e5 7abd 628c 9abd bbc4 47bd e442 debd
00000040: 9d49 47be 4def 313b aa44 f33b b83a 033e
00000050: 9d4e 53bc a359 3abc 4918 7f3d b53d 933e
00000060: 012a 9abd 4102 9fbd be16 cb3d 7c78 5fbd
00000070: 239c d6bd c1b8 59be 5684 d6bd fe2a 973e
00000080: f3a1 613e 7392 59be 6c5d 3ebe de99 b0bd
00000090: b89d 2a3e 2721 f2bd d1c2 c93d 55ee c6bc
000000a0: 6c17 0fba 1792 b8bd 97a0 66be 29f5 a4bc
000000b0: 8159 bdbd d3f0 32bd ee13 c93e 69b4 5a3e
000000c0: f944 ffbd 9a97 97bd c887 943b 2c05 c13d
000000d0: 5c9a 823c 4f55 debc 0f9b 8cbd 62e0 ba3c
000000e0: 4af8 813d 9049 14be 1a02 293e 98b1 c2bc
000000f0: c28f 8e3d 2524 79bc 417e ccbd 39bc 1dbd
00000100: 0067 673e 07c1 003d b47c 063e dd24 4abd
00000110: a4fd 2a3c 1dfb 8e3e 4473 64be 2d89 c03d
00000120: 7467 853d 6d31 0fbe c344 563e f386 953d
00000130: f78a 7d3e d8e9 a1bd 4048 b4bd a45d c63c
00000140: e104 cc3e cead 083f 03ec b23d 44db 12bd
00000150: e117 ae3d fdd7 6b3e b47f a13a 7f57 4fbe
00000160: be07 af3d 4d42 6abd 3024 a1be 63a1 84bd
00000170: 5309 ecbd fc73 a8be 32c9 cf3e f612 fc3c
00000180: 6b7d 8c3e f9e2 443e 4822 cebd 7e9d d5bd
-0.15521505 0.22689162 0.07700537 0.18058069 0.20302683 -0.052704364 0.13994801 0.02232386
0.6512227 0.17693885 0.063095085 0.009661704 -0.061254147 -0.07546307 -0.0487716 -0.10852602
-0.19461675 0.002715069 0.007423957 0.12815368 -0.012897161 -0.01137391 0.06227902 0.28758016
-0.07527543 -0.07764102 0.09916447 -0.054558262 -0.104789995 -0.21261884 -0.1047446 0.29524988
0.22034435 -0.21247272 -0.18590325 -0.08623098 0.16661727 -0.118227296 0.098516114 -0.024283567
-0.0005458507 -0.090122394 -0.22522198 -0.020136433 -0.09245587 -0.0436867 0.39273018 0.21357884
-0.12464327 -0.074019626 0.004532788 0.094248146 0.015942745 -0.027140288 -0.068655126 0.022812072
0.063461855 -0.14481187 0.16504708 -0.023766324 0.069610134 -0.015206371 -0.099850185 -0.03850958
0.22597885 0.031434085 0.13133508 -0.04935156 0.010436449 0.2792596 -0.22309595 0.09401164
0.06513873 -0.13983698 0.20924668 0.0730113 0.24760042 -0.0790593 -0.08802843 0.024214573
0.39847472 0.53390205 0.08736422 -0.03585364 0.08500648 0.23031612 0.0012321384 -0.20248221
0.085463986 -0.057192136 -0.3147292 -0.064760946 -0.11525216 -0.3290099 0.40583187 0.03077076
0.27439436 0.19227208 -0.100651324 -0.1043043

fully_connected_layers.2.weight f4 [60, 100]
00000000: 453f cabd 4ac4 ad3d dd63 003d d5b7 693b
00000010: 0350 99bd daa6 6dbc e6d6 63bd 885c aabd
00000020: a62c 87bd 29f7 b9bd 8e51 713d a22a 143d
00000030: 3a07 a7bd afb5 863a 3d66 7bbd 4ded fabc
00000040: a0b4 3bba f004 d7bc 3a87 b93c 9a9b d33c
00000050: 3a2a 17bd cd15 173c b9bc 373c fbcb 84bd
00000060: 95f8 a63d cd99 53bb df18 92bd f32b 3d3d
00000070: 876b 82bd 4d7d c7bd d7d3 01bd 59c2 913d
00000080: 3ffe a33d d175 993d 61c5 c13d 8064 743d
00000090: adb9 1a3d cb11 bbbd e068 87bc 46ce 643c
000000a0: 1e36 3f3d 4de1 78bd 93dc 99bb a729 bcbc
000000b0: af73 a03d e44f c4bd 9f81 833d 42c6 c5bd
000000c0: d0ee 7a3d 5a2c edbc 0ddb f93c 921b 65bd
000000d0: 3dda 2a3d 6b1c 90bd 37d5 b43d c716 2fbd
000000e0: f0e9 8b3d 7fb2 bd3d a934 26bd 3d53 19bd
000000f0: 3a4d b4bd 7322 cbbd 8d70 92bc 4dd5 423d
00000100: 0fcd 7ebd 5a02 233c 8fd6 443d 8251 8ebd
00000110: 83e8 59bd cde1 87bd f488 733d 38d8 013d
00000120: c2b3 3ebd bfd3 afbd d91e 87bc 283e b73d
00000130: 8a99 a93d f360 67bd 7aa9 8d3c a750 c3bd
00000140: a2de bd3d cdc8 20bb 73cb 0cbc 9d80 533d
00000150: e254 b13d 43d7 5cbd c34c 64bd 1251 2fbd
00000160: 412e 973d a7c2 06bd edf4 a5bc 450c 063d
00000170: 0f27 bcbd 9638 22bd 67e1 1fbd 8526 8bbd
00000180: 806e 7ebd 6dcd aabd 79ea 5cbd e8e5 c1bd
00000190: 8411 763d 23c2 81bd 8d8b 093c 347d c13d
000001a0: db80 26bd fb45 afbd dd03 ecbd 1dc0 67be
000001b0: da66 843c 85ef f63d 40f4 c83d 6ce7 34bd
000001c0: ca6a 9fbd 736f 42bd 9b9d 76bd 8095 17bc
000001d0: 5355 ef3d 205c 833d 6d48 17be 0853 b13b
000001e0: b53d ab3d 57cf 763d 2811 15bc 6870 33bc
000001f0: 1280 c539 7409 23be dca1 ea3d b964 3c3d
00000200: 1bea 34bc f3cb e23c 9839 90bd c46f b33d
00000210: 26e6 aa3d ce02 a5bd fdbd 1ebe e3f4 92bd
00000220: a744 d6bb 8406 c7bc 4b42 d6bd b2b1 bebd
00000230: eb63 293e a78e 463d f198 f13d 4e29 cfbc
00000240: 4c88 bebd d70c e9bd fdae a43c 43d0 363d
00000250: 2021 803d df53 a0bc 5e6d 50bd 7a4e 01bd
00000260: ad93 123d cc80 0f3e 43c4 aa3d 752a 15be
00000270: 6200 53bb 7b82 febd c366 40bd d345 9b3c
00000280: f090 073e 1fc2 9c3d acb3 b93c 81ce 32bd
00000290: 73d5 8e3b 86ed 293d e404 6c3d 05d1 72bb
000002a0: 7b85 083e 3d5b dabd dabd c43d f5bb 0dbd
000002b0: ffea eb3b 51e1 e43d 3af5 8f3c 145e e73d
000002c0: 7a4a 8d3d d3da dabd 0ef3 513d 9b7a 9f3c
000002d0: c6eb 8d3c fa4a a53c b4c6 0c3e a2b5 57bd
000002e0: 48d7 d7ba 7368 4abd 3a28 22bd 9111 90bd
000002f0: c932 593d 5ad4 67bd 5e47 de3d 3bca b0bc
00000300: 0120 7bbe 3383 8f3d 8b63 94bd 8886 e5bd
00000310: da04 e83c 2782 9f3d 2a03 e43c d006 28bd
00000320: edc8 c9bd bf14 a83c 89bb a93e 9b3e 4c3d
00000330: 519d f83d e28e bd3d 35d7 4d3e 05dc 053e
00000340: b951 363e 467e 643d ccc7 c7bd a08a 79bd
00000350: 89da bebd ab90 b7bc c836 8ebc fbf6 9e3d
00000360: 0cc6 5fbe 3cd5 5c3c b952 233d 9162 403d
00000370: 73aa 01bd 7e14 20bb 8d44 cdbd 9525 b83d
00000380: 4bb8 22bd c9ee 96bd aade 13bd 1d6f b83d
00000390: e96d b1bc 6c9f 0dbe ba76 003d 92c6 343e
000003a0: affb 8f3c 0143 46be a131 03be 00a3 2a3d
000003b0: 2171 e03d 9f5a 513d 5a6a 693d bbff bebd
000003c0: 69a6 13bd 3782 483d f250 93bb 35a7 8dbc
000003d0: 7a12 16bd 5f88 fcbd 0fc1 ffbd 6480 3f3d
000003e0: c710 7b3d 5da0 2bbb 2958 723e bd45 753d
000003f0: 7397 e43c a949 c1ba 4704 643d fb16 923d
-0.09875349 0.08484705 0.031345237 0.003566255 -0.07485964 -0.014505113 -0.055624865 -0.0831843
-0.06600313 -0.09080345 0.058915667 0.03617347 -0.08155675 0.0010277535 -0.0613768 -0.030630732
-0.0007160399 -0.026247472 0.022647489 0.025831033 -0.036905505 0.009221506 0.011214429 -0.06484219
0.08152882 -0.0032287717 -0.0713365 0.04618449 -0.063681655 -0.09740696 -0.031696167 0.07117147
0.08007478 0.07493175 0.09461475 0.059666157 0.03777473 -0.09134253 -0.0165295 0.013965195
0.04668247 -0.06076174 -0.004695484 -0.02296908 0.07834565 -0.095855504 0.06421208 -0.09656955
0.061262906 -0.028951813 0.03049996 -0.055934496 0.041712034 -0.0703667 0.0882973 -0.04274633
0.068317294 0.09262561 -0.040577564 -0.037432898 -0.08803792 -0.0991868 -0.017875934 0.0475667
-0.062207278 0.009949291 0.04805618 -0.0694914 -0.053200256 -0.06634865 0.05945678 0.031700343
-0.04655815 -0.08585309 -0.016494201 0.08947402 0.082812384 -0.056488942 0.017292727 -0.095368676
0.092709795 -0.002453375 -0.008593428 0.051636327 0.08658768 -0.053916227 -0.05573727 -0.042801924
0.07381869 -0.03290048 -0.020258391 0.032726545 -0.09187137 -0.039604746 -0.03903332 -0.067944564
-0.0621171 -0.08339963 -0.053934548 -0.09467679 0.060075298 -0.06335857 0.008395088 0.09447709
-0.04065023 -0.085582696 -0.11524174 -0.22631879 0.016162325 0.120574035 0.09812212 -0.044166014
-0.0778404 -0.047469568 -0.060208898 -0.009251952 0.11686196 0.06414056 -0.14773722 0.0054115094
0.08361379 0.06025633 -0.009098329 -0.010952093 0.00037670188 -0.15921575 0.114566535 0.045994494
-0.011042143 0.027685141 -0.07042235 0.08761552 0.083446786 -0.080571756 -0.15502162 -0.07175615
-0.0065389457 -0.0242951 -0.10461863 -0.093112364 0.16542022 0.048475888 0.117967494 -0.02528825
-0.0930334 -0.11379402 0.020102972 0.044632208 0.06256318 -0.019571243 -0.05088555 -0.03156898
0.035785366 0.14013976 0.08338215 -0.14566977 -0.0032196273 -0.12427231 -0.046973 0.018954193
0.13238883 0.07654213 0.022668682 -0.04365397 0.004358941 0.041486286 0.05762185 -0.0037050855
0.13332169 -0.106619336 0.09606524 -0.034603078 0.0071996446 0.11175788 0.017572988 0.11297241
0.06898971 -0.10686269 0.051257186 0.019467643 0.01732434 0.020177353 0.13747674 -0.052663453
-0.0016467357 -0.049416017 -0.039589144 -0.070346005 0.053026948 -0.056599 0.10853456 -0.021580806
-0.24523927 0.07007446 -0.07245549 -0.112073004 0.028322626 0.077884965 0.02783354 -0.041022122
-0.09852777 0.020517705 0.3315089 0.049864393 0.12139381 0.09255768 0.20101626 0.13072212
0.17804612 0.055784486 -0.09754905 -0.06092322 -0.09319026 -0.02240785 -0.017360106 0.077619515
-0.21852893 0.013478573 0.039873812 0.046969 -0.031656694 -0.0024426277 -0.10022841 0.08991543
-0.039726537 -0.073697634 -0.03610102 0.09005568 -0.021658855 -0.13830346 0.031363226 0.17653874
0.017576067 -0.19361497 -0.128119 0.041659355 0.109590776 0.051111814 0.05698619 -0.093261205
-0.036047373 0.048952308 -0.0044957334 -0.017291645 -0.036638714 -0.12330698 -0.12487995 0.046753302
0.061295297 -0.0026188113 0.23666443 0.05988096 0.027904248 -0.0014746684 0.05566814 0.071332894

fully_connected_layers.2.bias f4 [60]
00000000: 078e fcbc cfef 573e 1dd7 623e 99fe 353e
00000010: e32c af3d 4b99 0abe 2fcc f2bd 37fd 3d3e
00000020: b855 9b3d 2ab9 96bd 8916 19bd c35d 563e
00000030: 4c74 c23e 489a cbbc 7b87 123e dfe4 86bd
00000040: 2899 7a3e ba17 91bc d7f6 32bd 7fce 8ebd
00000050: d6e0 04bd 86ce 343e 8631 ab3c 321c ad3d
00000060: 7b64 e23d 4419 94bd cf24 f73d 2af8 de3d
00000070: f3e3 91bd 74ac c8bd 24fb 723d b782 2a3d
00000080: 3092 dd3d a314 e93d a532 ad3d 2d49 6a3e
00000090: 0658 6b3d 84cc 46bb cdaa 4d3b 4927 7a3e
000000a0: b915 1a3a 8532 ac3e 9dd6 6ebd b910 9abd
000000b0: 88d0 5fbd f644 bebd deca 333e da7d 243b
000000c0: ff1d d83e 4233 243e 1eb2 843d ae06 333e
000000d0: 2703 4ebd 72ac 2b3e 98b6 9e3d 8852 80bd
000000e0: fd3f 94bd c202 c2bd b63c 89bc 87fe 863b
-0.030829443 0.21087573 0.22152372 0.17772903 0.08553483 -0.13535039 -0.11855351 0.18553625
0.07584709 -0.07359536 -0.037375007 0.20934205 0.37979352 -0.02485384 0.14309494 -0.065866224
0.24472487 -0.017711509 -0.043692436 -0.0697298 -0.032440983 0.17656907 0.020897638 0.084526435
0.110543214 -0.072313815 0.120675676 0.10887177 -0.07123556 -0.09798518 0.059321538 0.041628566
0.10818899 0.11380889 0.08456925 0.22879477 0.057456993 -0.0030334303 0.0031382323 0.24429049
0.0005877871 0.33632293 -0.05831014 -0.07522721 -0.05464223 -0.09290497 0.17557856 0.0025099427
0.42210385 0.16035178 0.06479286 0.17483017 -0.050295975 0.16765001 0.07749671 -0.062657416
-0.07238767 -0.09473182 -0.016752582 0.0041196975

fully_connected_layers.4.weight f4 [5, 60]
00000000: c620 923d efa7 c93d 8788 8fbd 1bb0 cf3c
00000010: 3f1b 0f3e 49a4 d83e bda2 d8bd 5a6f df3e
00000020: 3a7e 0c3f 5f9a d0bb 5be9 5d3d 5fc4 213f
00000030: 1355 363f f1b2 58bf 0072 87bf b522 823d
00000040: bd85 063f d1ce 9a3d 7b7f fbbd d10a a13c
00000050: eb0c bfbc 8f30 0fbf b3be 5cbf b135 bbbe
00000060: 5c45 fabe 497d a83d f9e4 02be 11a3 883e
00000070: 19e5 d9be 4ab8 0a3e 29ff 1bbf 3e1c 5a3f
00000080: c48d 27bf ab11 ecbd 6caa 14be bcbd af3e
00000090: 9a0d f43d 9699 a1bd c6aa f6bd 5ab9 78bf
000000a0: 013d 923d 50b7 943f 009b 24bd ebce 433e
000000b0: b321 d6bd bc85 d53d c271 6c3f 42b6 0cbd
000000c0: 80ad 883f d802 10bf fa95 c73d 0a78 933e
000000d0: 97ce 5b3d 248b 983e 7a25 3dbe 4704 f8bd
000000e0: fd01 1cbe 3bb5 06be cecf fc3d 3fc2 4bbd
000000f0: e24a ed3d eadc cbbc 595d 0dbf 286a 00bf
00000100: 8048 4dbe e0ab 113f f154 81bd 8019 c8be
00000110: c43b 82bd 5339 013e a32c 93bd 0f5e bbbe
00000120: d108 c2be 4f6d 443e edc9 4fbe d851 cebc
00000130: 69bf 05bf 7c97 c53d c608 93bd 411f 47bd
00000140: 3b6e ccbd 2b77 c73e 1929 7d3f 7975 c83e
00000150: a757 1f3f 15a6 263d a482 24bd e1fa b3be
00000160: 97f7 4d3f 98c9 d33e 99e3 8dbd fa09 463e
00000170: 4364 99bd 1e47 cc3e 29db 09bf 8d45 dbbe
00000180: 0091 f53e 83ec bebd 1e05 adbb 781a 0b3f
00000190: 6eef aabd 7207 2b3e 4834 163f e40e f33e
000001a0: 4284 de3d e351 fbbd 4ba1 2bbf c880 8f3d
000001b0: b24d 1fbf 8ece 02bf 5d0b e4bd 13d4 03bf
000001c0: 7660 b13d 1e56 dfbe 1717 88be 87bc 2fbd
000001d0: 9a9a c9bc cb33 f53d ad1a 89bd 9740 a83d
000001e0: 71f9 9f3d 683c c53e 7a62 2c3e 2346 da3e
000001f0: a9bd 5a3e 1d1c a8be 1c81 5cbd 0e45 973e
00000200: 4fce d93b 21d6 5fbd e346 52be 0734 2dbe
00000210: d071 733e 8d52 1fbf 6295 103f a97d db3c
00000220: 8a54 0a3e 04f7 85bd e099 64bc 0aed 8bbd
00000230: ee97 c2bd 2218 d93e 08c4 b03d b724 3dbf
00000240: d35f 6b3f ec08 8e3d e504 1d3f a73f 56be
00000250: 59b9 edbe 3efc d1bc bcd1 c53e 37a1 9cbd
00000260: ea90 c6be b5e2 c33c 433c af3e f89b 6a3e
00000270: 3839 b5be c236 5d3d f80c 043e ab43 6b3f
00000280: f94c 283e 1532 23bf 56c7 f3be 96d0 b7be
00000290: 5247 d73d b079 7abd b872 0cbf 580b 85bd
000002a0: 36a0 29bf 753d a43e d944 1f3e 4c8b 0cbf
000002b0: 65f2 47bd c005 af3d 4834 423e 2603 febb
000002c0: c675 0d3e 22fe bd3d 4d6f a3bd 181c 0a3d
000002d0: 8c9d fdbd b775 87be 00b9 64be 1523 a43e
000002e0: 46db 63be 4ac6 533d 3c8d 86bd 196a 663e
000002f0: 8da2 edbe 512b 263d c7d6 e23e 5d94 8cbe
00000300: e37c 8cbf 5442 e13e ae82 f8be fb42 4ebd
00000310: 551b 843d cfcc 373d ee1e f13c 3b14 293d
00000320: 91ec f8bb c06a e73d 5aa8 173e 3ecb 283e
00000330: 3f03 3cbf ba59 b3bc a3c6 393f e93a 14bf
00000340: cd8e 2c3f 1833 58be 7e73 73bd 3af5 51be
00000350: aa7c ab3e d094 873e 5a3c b43d 054e 34be
00000360: 133a 3c3f 6852 9c3d db00 8c3d 1329 c0be
00000370: 798b 0cbe b2f4 bbbf cd22 cebe ab08 b4bd
00000380: 1143 e23d 5335 8abd a918 863f dc14 86bc
00000390: a8d7 5abe f4c0 753f efcb aebe 83a4 e23e
000003a0: 5f9c 833d 099c 2e3e 857d 573e be36 47bd
000003b0: 7d46 39be 3b25 033e 145e 243e ea1b 7eb9
000003c0: a7d3 9a3d 9e9f e7be 7d70 f93e 0590 17be
000003d0: 5301 f63c 203f 25bf a428 793d 35fe e4be
000003e0: 33ee b7be c47b 69bd 5bbf 7a3b d844 1d3f
000003f0: b851 b43e 0793 713f a8d5 853f d8e7 95bb
0.07135157 0.09846484 -0.070084624 0.025352528 0.13975237 0.4231284 -0.10577915 0.43639642
0.54880106 -0.0063660587 0.054177623 0.63190264 0.7122356 -0.8464804 -1.0581665 0.06354276
0.5254782 0.07558978 -0.12280174 0.019658478 -0.02332159 -0.5593347 -0.86228484 -0.365644
-0.48881042 0.08227021 -0.12782659 0.2668691 -0.425576 0.13546863 -0.6093622 0.85199344
-0.6545069 -0.115268074 -0.14518136 0.34324443 0.11916657 -0.07890622 -0.12044291 -0.97157824
0.07140542 1.1618443 -0.040186882 0.19121902 -0.10455646 0.104258984 0.9236108 -0.034353502
1.0677948 -0.5625434 0.09745403 0.2880252 0.053663816 0.29793656 -0.18471327 -0.12110191
-0.15235133 -0.13155071 0.12344323 -0.049745794 0.115865484 -0.024885613 -0.5522056 -0.5016198
-0.20047188 0.56902885 -0.063150294 -0.39081955 -0.06359056 0.12619524 -0.07186248 -0.365952
-0.3789735 0.19182323 -0.20291872 -0.02518551 -0.52245194 0.09648034 -0.07179408 -0.04861379
-0.09981962 0.38958105 0.98890835 0.39152125 0.6224312 0.040685732 -0.04016365 -0.35152343
0.8045592 0.4136474 -0.069281764 0.19339743 -0.074898265 0.39898008 -0.53850037 -0.428265
0.4796219 -0.09322455 -0.005280151 0.54337263 -0.08346449 0.16702059 0.58673525 0.47472298
0.1086507 -0.12271478 -0.6704299 0.07006985 -0.6222793 -0.5109643 -0.1113498 -0.51495475
0.086609766 -0.4362039 -0.26580116 -0.042904403 -0.024609853 0.11972769 -0.06694541 0.082154445
0.07811249 0.3852265 0.16834441 0.42631635 0.21361412 -0.3283395 -0.053834066 0.29544872
0.0066469084 -0.05464757 -0.20534854 -0.16914378 0.23773885 -0.6223534 0.5647794 0.026793318
0.13508812 -0.06541255 -0.013952702 -0.06832321 -0.095016345 0.42401224 0.0863114 -0.7388415
0.9194309 0.069352955 0.61335593 -0.20922719 -0.46430472 -0.025632974 0.38636577 -0.07647937
-0.38782436 0.023911813 0.34225664 0.2291106 -0.35395217 0.0540073 0.12895572 0.9190013
0.16435613 -0.63748294 -0.4761302 -0.35901326 0.1051165 -0.061151206 -0.54862547 -0.06496304
-0.6626009 0.32078138 0.15553607 -0.5490005 -0.04881515 0.085460186 0.18965256 -0.00775184
0.13814458 0.092769876 -0.07980213 0.0337182 -0.12383565 -0.26456997 -0.22336197 0.32058015
-0.22251615 0.051702775 -0.06569907 0.2250141 -0.4641308 0.040568653 0.44304487 -0.27456942
-1.0975612 0.43995917 -0.485372 -0.050356846 0.06450526 0.044873055 0.029433694 0.04127906
-0.0075965603 0.11299658 0.14810315 0.1648378 -0.73442453 -0.02189337 0.7256872 -0.5790239
0.67405397 -0.2111324 -0.059436314 -0.20503703 0.3349355 0.26480722 0.08800574 -0.17607887
0.73526114 0.07632905 0.06836101 -0.37531337 -0.1372508 -1.468405 -0.40260926 -0.08790716
0.11047948 -0.06748452 1.0476276 -0.016367368 -0.21371329 0.9599755 -0.34139964 0.44266137
0.0642631 0.1705171 0.21043976 -0.04863619 -0.18093295 0.12807171 0.16051513 -0.00024233726
0.07559901 -0.45238966 0.48718634 -0.14801033 0.030029928 -0.64549446 0.060829774 -0.44725195
-0.3592392 -0.057002798 0.003826103 0.6143317 0.35218596 0.9436497 1.0455828 -0.004574757

fully_connected_layers.4.bias f4 [5]
00000000: 3413 823e 03d3 24be 5d42 a03e e43b ddbc
00000010: ccfc 82be
0.25405276 -0.1609612 0.3130063 -0.027006097 -0.25583494
