Assignment 3/Dataset1a/Dataset1a/mlffnn/mlffnn_model_6.pth (torch, 2312 bytes, 4 tensors)

fully_connected_layers.0.weight f4 [4, 2]
0	0x3ee6b3a3	0.45058927
1	0x3dc3e22f	0.095646255
2	0x3eba38eb	0.3637155
3	0xbd717945	-0.058953542
4	0x3f873f77	1.0566243
5	0x3e5a9289	0.21344961
6	0xbe21f6a1	-0.15816738
7	0xbead3d6d	-0.33835927

fully_connected_layers.0.bias f4 [4]
0	0xbe891f42	-0.2678166
1	0xbe33c1f7	-0.1755446
2	0xbf6a1dc4	-0.9145167
3	0x3fcc6dce	1.597101

fully_connected_layers.2.weight f4 [2, 4]
0	0x3f01798c	0.5057609
1	0xbe7f0404	-0.24903876
2	0x3f77a06f	0.9672918
3	0xbf92cdec	-1.1469092
4	0xbd0060b1	-0.031342212
5	0xbf2d3550	-0.67659473
6	0xbf840f8b	-1.0317243
7	0x3f90597f	1.1277312

fully_connected_layers.2.bias f4 [2]
0	0xbfc48a2e	-1.5354669
1	0x3fc81e1e	1.5634191
