Assignment 3/Dataset1a/Dataset1a/mlffnn/mlffnn_model_7.pth (torch, 2312 bytes, 4 tensors)

fully_connected_layers.0.weight f4 [4, 2]
0	0xbe45edc7	-0.19328986
1	0x3f0fac6e	0.5612248
2	0xbf03ec62	-0.51532567
3	0xbe98a99f	-0.2981691
4	0x3e79b63b	0.24385922
5	0xbeda85c8	-0.42680192
6	0x3f6dc3ff	0.9287719
7	0x3e6892cb	0.22712247

fully_connected_layers.0.bias f4 [4]
0	0x3d836937	0.064165525
1	0x3f15bb49	0.584889
2	0xbdcf9663	-0.10136106
3	0xbf23d9a4	-0.6400397

fully_connected_layers.2.weight f4 [2, 4]
0	0x3df97bdf	0.1218183
1	0xbee8eaf6	-0.4549176
2	0xbce32acb	-0.027730366
3	0x3f73ac88	0.95185137
4	0x3eef9521	0.46793464
5	0x3e49a414	0.19691497
6	0x3ec4284f	0.38312003
7	0xbf036171	-0.5132056

fully_connected_layers.2.bias f4 [2]
0	0xbfa9061f	-1.3204993
1	0x3f54d107	0.8313145
