Assignment 3/Dataset1a/Dataset1a/mlffnn/mlffnn_model_8.pth (torch, 2312 bytes, 4 tensors)

fully_connected_layers.0.weight f4 [4, 2]
-0.6780894 0.07387684 0.020776378 -0.14082702 0.76087976 0.56162155 -0.24822035 -0.6828974
00000000: 4497 2dbf be4c 973d 3933 aa3c f534 10be
00000010: 04c9 423f 6ec6 0f3f 7a2d 7ebe 5dd2 2ebf

fully_connected_layers.0.bias f4 [4]
-0.4459829 -0.17679416 0.29743883 -0.6074392
00000000: df57 e4be 8709 35be e749 983e 2381 1bbf

fully_connected_layers.2.weight f4 [2, 4]
0.2949945 0.061325964 0.76394105 -0.25455767 0.17967218 -0.38141695 -0.09507804 -0.33043948
00000000: 8509 973e ef30 7b3d a491 433f 6255 82be
00000010: fcfb 373e 1549 c3be 47b8 c2bd 5d2f a9be

fully_connected_layers.2.bias f4 [2]
-0.82054687 0.8075096
00000000: 5c0f 52bf f3b8 4e3f
