Assignment 3/Dataset1a/Dataset1a/mlffnn/mlffnn_model_11.pth (torch, 2320 bytes, 4 tensors)

fully_connected_layers.0.weight f4 [6, 2]
-0.48813915 -0.4884586 -0.122267775 -0.35152942 -0.7100429 0.41672617 -0.34660748 0.33333686
-0.49410063 -0.74471915 -0.39883244 0.20350373
00000000: 60ed f9be 3f17 fabe 8767 fabd aafb b3be
00000010: 5fc5 35bf 225d d53e 8976 b1be 21ab aa3e
00000020: c2fa fcbe eaa5 3ebf c433 ccbe 4863 503e

fully_connected_layers.0.bias f4 [6]
0.13362674 0.7755627 -0.021112742 0.59737176 0.25459918 0.04927909
00000000: 73d5 083e 478b 463f a1f4 acbc 5bed 183f
00000010: d35a 823e dfd8 493d

fully_connected_layers.2.weight f4 [2, 6]
-0.5078639 -0.18232137 -0.5164091 -0.09585231 -0.52010405 0.26402354 -0.10705818 0.42004398
0.083498314 0.54381204 0.04425343 -0.09374272
00000000: 5e03 02bf 74b2 3abe 6333 04bf 374e c4bd
00000010: 8a25 05bf 182e 873e 5241 dbbd 0110 d73e
00000020: 2a01 ab3d 4437 0b3f 1643 353d 2ffc bfbd

fully_connected_layers.2.bias f4 [2]
0.037312236 -0.22084978
00000000: b7d4 183d 7226 62be
