Assignment 3/Dataset1a/Dataset1a_/mlffnn/mlffnn_model_9.pth (torch, 2376 bytes, 4 tensors)

fully_connected_layers.0.weight f4 [6, 2]
00000000: 9a52 d33e 8d0f 89bd afb5 d83e 9097 063f
00000010: 6f86 01bf 3154 4dbe 6094 043e ce44 e83e
00000020: 76a1 e93e 27f4 4e3e 1354 a73e 1e95 123e
0.41273957 -0.06692419 0.42326114 0.52575016 -0.50595754 -0.20051648 0.12947226 0.45364994
0.45630997 0.20210324 0.3268133 0.14314696

fully_connected_layers.0.bias f4 [6]
00000000: d3b4 4ebf 145d 21be 1f4d c33f 6ffe 8bbe
00000010: c7eb aebf 6a19 bdbe
-0.80744666 -0.15758163 1.525791 -0.27342555 -1.3665704 -0.36933452

fully_connected_layers.2.weight f4 [2, 6]
00000000: 0854 d23e d5ef f93e c1c3 b8bf ad9e 433e
00000010: 1eb9 ae3f f8ce 8d3e dca3 8bbf 07f7 dbbc
00000020: 4f00 ba3f 18d4 e9be 1b02 8ebf affb 7fbe
0.41079736 0.4881579 -1.4434739 0.19103499 1.3650243 0.27696967 -1.0909381 -0.02685119
1.4531344 -0.45669627 -1.1094393 -0.24998353

fully_connected_layers.2.bias f4 [2]
00000000: 46d0 54bf cd08 753e
-0.831303 0.23929138
