Assignment 3/Dataset1a/Dataset1a_/mlffnn/mlffnn_model_6.pth (torch, 2376 bytes, 4 tensors)

fully_connected_layers.0.weight f4 [4, 2]
0	0x3eacc35a	0.3374279
1	0x3e887717	0.26653358
2	0x3eb7ce02	0.3589936
3	0x3ea945ac	0.33060968
4	0x3f073474	0.5281441
5	0x3e8989f0	0.2686305
6	0xbf04c973	-0.5186989
7	0xbd71ab88	-0.059001476

fully_connected_layers.0.bias f4 [4]
0	0xbf5d0277	-0.86331886
1	0x3edc4615	0.43022218
2	0xbfc9f875	-1.5778948
3	0x3fa3638c	1.2764754

fully_connected_layers.2.weight f4 [2, 4]
0	0x3f090e41	0.53537375
1	0x3e2fcf1b	0.17168848
2	0x3f954b10	1.1663532
3	0xbfd55e5f	-1.6669425
4	0xbfa40dcb	-1.2816709
5	0xbdec2918	-0.115312755
6	0xbff2c4c7	-1.8966302
7	0x3f77d4c8	0.96809053

fully_connected_layers.2.bias f4 [2]
0	0xbf229678	-0.6351085
1	0x3eab615b	0.33472714
